src/best_crowd_counting.pth (torch, 584093 bytes, 31 tensors)

column1.0.weight f4 [8, 3, 9, 9]
00000000: 36b4 023c 6c45 62bd 33b5 18bd a10c 4d3c
00000010: 1ec7 6e3d 15d3 86bd cb7b 923c 8b19 73bd
00000020: 48d0 cc3c 5939 5abd b7b9 013d 957b b3ba
00000030: a762 24bb 2060 3d3c 1207 c8bc 9565 d53b
00000040: fec6 49bc 93a1 343d cabe 5a3c 9edb 223c
00000050: 9edc d33b 73d2 ef3c c3ff 3d3d 22e8 38bd
00000060: 251e 1e3c 3e56 33bc a155 1fbd 4ff9 4f3d
00000070: 5552 5b3d 5982 093d c024 76bd fc75 a13c
00000080: 6bb6 83bd 444e 0c3d b724 bdbc a508 0fbc
00000090: 8a60 ff3c 87c8 05bc 32af 1c3d 80cc 51bd
000000a0: 5c75 573d 7980 2b3d ad77 d33c 401a 293b
000000b0: a1d1 36bd a2bf 8e3c 3810 70bd 1857 223d
000000c0: aedf aebb 8619 9c3b 450e fa3c 0798 a93c
000000d0: b078 19ba e865 133d edee b2bc 6b00 a33c
000000e0: 3e81 193d 6c56 2c3d 74d1 8dbc 0cd2 71bc
000000f0: caae 29bd 0fc6 703d 58cb f9bc 1a08 5b3d
00000100: 0dbb 363d 0a16 88bd 7860 263d 7daa f83c
00000110: 5f3c 59bd 3891 533d 9209 64bb 3f63 64bd
00000120: 22b4 153a 41d2 11bc 05c0 0b3d 4e2a d53b
00000130: c44b 73bb 4318 d33c af4b 14bc 25a1 ab3c
00000140: 5e53 753c c2af 08b9 d4e9 29bd a942 833a
00000150: ebf0 b3bb 311d 803b 2c5d 39bd 43df 46bd
00000160: 0048 213d c81f 09bc a49f 94bb 1686 4f3d
00000170: 7607 8e3b 8f75 7cbd ee66 473c e77e 553d
00000180: ec05 b63c c393 733d c330 ee3c 2181 b43a
00000190: fe54 5e3d c7e1 06bb 185e 223d ed23 5dbd
000001a0: 5466 b83c 835a 423d 45ba cebc 37a7 1a3c
000001b0: 2139 a8bc 05db 4fbb c9bd 013d 44b0 07bb
000001c0: 50de 2a3d b9eb 6a3d d647 603d d044 88bd
000001d0: ca7a 86bc 4c6f 57bd 5ed6 57bd 13d3 3abd
000001e0: 7356 b3bb 8e61 333b f6c1 0cbd b2f7 14bc
000001f0: 0a69 2bbb 0b90 b1bb 66ee 893c 2e52 523d
00000200: fbc8 84bd f116 6cbd bd9c 553d 07c7 26bd
00000210: 9989 473c 2223 08bd 2cf6 64bd 6296 5e3d
00000220: 244b 533d 65c1 bbbc 4188 9c3a 79eb 213d
00000230: a071 7bbd 37f0 763d b337 b33c bb21 533c
00000240: 5cb8 87bd 989c 563d d8f9 3c3d b2ca 5d3a
00000250: a66c 1d3d c0be d9bc 0e4c 17bd a56d a9bc
00000260: c9db f1bb 2050 1c3d acf6 4c3d 8139 abbc
00000270: 86ab e4bc 283f 34bc 561a 1b3d d482 fe3c
00000280: 0900 1b3d 0167 84bc e6f5 513d 808a 54bc
00000290: 773f 5cbc dfe0 9fbc b8cd 123d 8ce8 beba
000002a0: fbed 11bd c095 eebc ca45 c03c 691a 86bc
000002b0: 2632 4d3d e66f 45bd 749e 51bd 113f 78bd
000002c0: f265 4b3d 1fcb f3bc 0858 1a3b ff44 663d
000002d0: 77bd 4abd 5c8a 763d 148c 793d 7a5e 88bd
000002e0: ca96 74bc f8b8 bdbc 0f2f 113d 9366 483d
000002f0: f248 08bd 56a6 87bc c40f fdbc ab51 13bd
00000300: 026a ec3c 9d63 163d 95fb 23bd 9df6 773d
00000310: 7879 f83b 593a f4bc 0c34 2a3d e2cb 7a3d
00000320: 46b5 11bd 93a7 223d e346 5bbc 1e4c 0d3d
00000330: 38f3 24bd 6359 673d 2b49 e3bc 4aff 50bd
00000340: 37c9 33bd bb3f 6f3d 4ae1 36bd 2e0e 4f3c
00000350: 875c 60bd b0e9 22bd f2e0 0a3c 6a05 2b3d
00000360: b073 4c3d e84b dabc d442 79bd 9a63 20bd
00000370: 0f51 b63c d070 10bd c49f 9dbc cb1f 0c3d
00000380: c79a 773d cc29 033c ac3d 60bd 18e1 683d
00000390: 162b 973c f764 65bd bcea fb3b 9df3 0fbd
000003a0: cbe1 223d 2368 2a3d 5ddc 6ebc 0e5b 063c
000003b0: d52f 39bd 3d99 28bd 18c7 66bd 0e8d 31bd
000003c0: 85e8 54bd 19d0 3dbc cb0d 023d 4696 d3bb
000003d0: a100 03bd d991 6fbc 90bc 883b c1e2 79ba
000003e0: a72a 31bd 9303 543b 838b 5fbd b88d 65bc
000003f0: 4e51 073c f3cc 793c 7a32 a63c 6c34 993b
0.007977536 -0.055241987 -0.03728218 0.012515218 0.05829536 -0.065832295 0.017881295 -0.05935053
0.02500166 -0.053277347 0.031671252 -0.0013693447 -0.0025083215 0.0115585625 -0.024417434 0.0065123537
-0.01231551 0.0440994 0.013351152 0.009940056 0.0064655086 0.029275155 0.04638649 -0.045143254
0.009650742 -0.010945855 -0.03890002 0.05077487 0.053545315 0.033571575 -0.06009364 0.01970958
-0.06431278 0.034254327 -0.023088796 -0.008730088 0.031173963 -0.008165485 0.038253017 -0.051220417
0.052602157 0.041870568 0.025813902 0.0025803 -0.04463351 0.017425362 -0.058609217 0.03963384
-0.0053367233 0.004763785 0.030524382 0.020702375 -0.00058544707 0.035985857 -0.021842444 0.01989766
0.03747677 0.042074606 -0.01731179 -0.014759552 -0.041426457 0.058782633 -0.03049247 0.053474523
0.04461198 -0.066448286 0.040619344 0.030354733 -0.05303609 0.051652163 -0.0034795743 -0.05575871
0.0005710741 -0.008900226 0.03411867 0.0065052873 -0.0037124017 0.025768405 -0.0090512475 0.020950863
0.01497349 -0.00013035446 -0.04148276 0.0010014373 -0.005491366 0.00390973 -0.04525487 -0.048552763
0.039375305 -0.008369394 -0.004535632 0.050664984 0.0043343855 -0.06163555 0.012170536 0.052122977
0.02221962 0.05946709 0.029075986 0.0013771394 0.054280274 -0.002058135 0.039640516 -0.05398934
0.022509731 0.0474496 -0.025235305 0.009439281 -0.020535054 -0.003171624 0.031675134 -0.0020704428
0.04171592 0.05735371 0.054756008 -0.0665375 -0.016415972 -0.052596375 -0.05269467 -0.045611452
-0.005472952 0.002737138 -0.034364663 -0.009092258 -0.0026155137 -0.0054187826 0.01683731 0.051347904
-0.064836465 -0.057639066 0.05215143 -0.04071715 0.012178802 -0.03323663 -0.05589883 0.054342635
0.05158533 -0.022919366 0.0011942462 0.039531205 -0.061387658 0.06028768 0.021877145 0.01288646
-0.06626961 0.052395433 0.046136707 0.0008460685 0.038433693 -0.026580215 -0.036937766 -0.020682165
-0.0073809368 0.03816235 0.050039932 -0.020901443 -0.02791382 -0.011001386 0.037866913 0.031068243
0.03784183 -0.016162397 0.051259898 -0.012972474 -0.013442866 -0.019516407 0.03584072 -0.0014565154
-0.035627346 -0.02912414 0.023470778 -0.016370015 0.050096653 -0.048202418 -0.051176503 -0.06060702
0.04965777 -0.029759942 0.0023551006 0.056218144 -0.049497094 0.060190544 0.060924605 -0.06658645
-0.014928529 -0.023159489 0.03544527 0.048925947 -0.03327269 -0.016558807 -0.030891307 -0.035966557
0.028859142 0.036716092 -0.04003485 0.060537923 0.0075828396 -0.029812979 0.041553542 0.061229594
-0.035573266 0.039710592 -0.0133836 0.03449642 -0.040271014 0.05648173 -0.02774485 -0.051024713
-0.043893065 0.058410387 -0.044648446 0.012637658 -0.05477574 -0.039773643 0.008476483 0.04175321
0.049915016 -0.026647523 -0.060854748 -0.039157487 0.022255449 -0.035263836 -0.019241221 0.034210008
0.06045034 0.008005571 -0.054746315 0.05685529 0.018453162 -0.05600449 0.0076878946 -0.035144437
0.039766114 0.04160322 -0.014578906 0.00820042 -0.04521163 -0.041161764 -0.056342214 -0.04334741
-0.05197956 -0.011585259 0.031751435 -0.006457123 -0.03198302 -0.014622175 0.004172869 -0.0009532385
-0.043253567 0.0032350763 -0.054576408 -0.014010839 0.008259131 0.015246618 0.020287741 0.0046754386

column1.0.bias f4 [8]
00000000: 040d 45bc 4a28 aebc 2416 5d3d 998c 243d
00000010: c4ee a63c 02ce 7f3d 3d55 583d 07af 58bd
-0.012027029 -0.021259446 0.053976193 0.040173147 0.020377524 0.062452324 0.052815665 -0.052901294

column1.3.weight f4 [16, 8, 7, 7]
00000000: 1e2a 393c 9e67 0fbd 6368 b33a 0d71 cd3c
00000010: 730a be3c 02a7 e53b c64e c73c 3496 2b3d
00000020: 567f 353d e1cb 09bb 88e9 e4ba 7d8a bb3c
00000030: f89f d7bc 171d 12bd 5107 14bb 9156 bc3b
00000040: 1f3b 1a3b b1c2 15bd 15c0 ffbc 7f66 da3c
00000050: 373b df3c acc4 013d 6d95 8139 cf16 41bc
00000060: 10d9 a73c 8a01 5c3c c5c3 b2bc c743 b73b
00000070: 1b8e 0a3d 6e3a 4abd 2644 49bd 3502 063d
00000080: 0fa0 613c be20 0b3d 9ebe 2ebc eb56 213d
00000090: d7f5 2cbc c82f efbb fe54 2d3d 3ec5 47bd
000000a0: 849b f43c db34 89bb 50bd 4ebd 8916 c43c
000000b0: 1a6d c4bc 41b1 853b 8683 043d f62d 733b
000000c0: 67b7 99bc 0190 3f3d 38d9 093c 2476 1d3b
000000d0: 5be9 f93c aa41 19bb 173b 96bb bb84 333d
000000e0: 4a0b 6f38 ead9 29bd dde1 c3bb 3c06 cbbc
000000f0: c830 0c3d d945 093d 2641 26bd 2555 ea3b
00000100: cfb2 c8bc 4780 263d a0f8 3c3c 038b 67ba
00000110: d3dc 483d 0b20 40bd d21d 0f3d b427 933c
00000120: fbd5 143b 0340 253d ca14 76bc 12ec 1ebd
00000130: b3fd 683c 9ef3 8aba b013 db3c 0015 eebc
00000140: 59c2 51bd 6b7a a6bc f898 da3c 9eeb 833a
00000150: 4e12 1abc b2fd 043c d565 f43c 1591 45bd
00000160: 178f 8e3c 6ffc 803c ba4e 1cbc 3d7d 0b3d
00000170: 4221 20bd 4b37 34bd 36cb 373d db68 8a3b
00000180: 930d 33bd ae5c e13c d4c4 3abd eeea 83bc
00000190: 5ce3 cbb9 de68 443d d978 0b3d 2559 853c
000001a0: ce5b 03bd 2df5 c9bb ec6e 7dbc ec34 1b3d
000001b0: 86ac 4f3b ccce 853b 60b5 453d b7a5 b73c
000001c0: 5297 1fbc 19e5 3ebd 4ece 90bc d390 473d
000001d0: 9b7f 24bd 4096 4b3d d857 8dbc 6b4f 323c
000001e0: 6a6c edba 5bcf f43c 48bd 2b3d 8ffb 24bd
000001f0: 663c a23c 0531 47bd 18a4 9ebc 8d0d ccbc
00000200: aa64 11bc c09b 6dbc 012b 083b 2c77 073c
00000210: 4b1e 4d3d a3a1 46bd 33bc 0b3c 9a1e 36bc
00000220: 87cd 25bd c25b 3a3c 339f 9e3c 93d1 453c
00000230: 682f e6bc 2192 29bd 4824 b2bc 6e69 07bb
00000240: cbdf a03c 2172 793c ed09 49bb 39b6 0a3d
00000250: 0526 bcbb 6a84 16bd 4137 df3c 572a 8fbc
00000260: 7495 823b b22e 86bb 89e2 b33c 8581 0f3d
00000270: 109b 34bd 5293 39bd 5c8c 2cbd 9286 c93c
00000280: 3b02 3dbd 6764 e83c 7c7e 243d 93b8 26bd
00000290: eda1 a6bc 2bd9 48bd 6f2f 8cbb 6c45 4bbd
000002a0: e1ee 133d c523 64bc 5bf4 123d de9b 2cbd
000002b0: a113 f0bb e9bf 70bc 0507 47bd 298a 2bbd
000002c0: 6351 bf3b 623f bf3c 6890 483b 8d2f fa3c
000002d0: 5273 343d 1eed 51bb b26c e7ba eb68 25bd
000002e0: 9dba d93c 65e5 2d3c 8f58 003c d3a1 193d
000002f0: 2be9 143d 68bd e43c dedd c73c 79ad c9bc
00000300: cdaa 52bb 3549 53bd 3183 353d ffbf d03c
00000310: 2777 36bc 552f 263d 8d3f 933c 1db4 233d
00000320: 1b44 c4bb 2307 21bc 29b5 d5bc e5fe 183d
00000330: bb10 27bd fcec 363d e4ac f93c d30d 023d
00000340: 6489 a7bc 200f 08bd f8ad 26bd b498 2dbd
00000350: eb5d 063d c678 9abc 5630 903b 3f3f 02bd
00000360: 6b21 c2bc 719d f53c 5b4b fabc f174 483d
00000370: fc97 963b 0ce3 16bc 82cf e2bc 82fb 05bd
00000380: 55ee 8bbb d341 89bc e0c0 103d 1df5 343c
00000390: 67cd debc 7eb6 97bb 59cd b73b c18e eabc
000003a0: 9eb1 0fbc 73cb b3bc 22c2 bd3c 1e69 a63c
000003b0: 6b70 59bb f5a5 2b3d eeda b73c b4fb eabc
000003c0: c69d 723b 1e1a 333d 8feb 2cbd 788c ec3c
000003d0: 0360 833b 4431 573d dc4b c13c 0ffd 28bd
000003e0: e4c2 003d 05b2 613d 3e2a f3bc 443f 813c
000003f0: ef51 0cbd 4c49 333c 95a1 613d f90e c7bc
0.011301545 -0.035010926 0.0013687726 0.02507832 0.023198342 0.0070084343 0.024329554 0.04189129
0.04431089 -0.0021026062 -0.0017464617 0.022893185 -0.026321396 -0.035672273 -0.0022587369 0.005747624
0.0023533774 -0.036562625 -0.031219522 0.026660202 0.027249916 0.0316817 0.00024716128 -0.011785223
0.020489246 0.013428101 -0.021821866 0.0055927965 0.03382693 -0.04937213 -0.049137257 0.03271695
0.013771071 0.033966772 -0.010665564 0.039389532 -0.01055666 -0.007299397 0.042317383 -0.04877209
0.029859312 -0.004187209 -0.05047351 0.023936527 -0.023977805 0.004079968 0.032351993 0.0037106252
-0.01876421 0.046768192 0.008413605 0.0024026716 0.03050678 -0.0023385086 -0.004584681 0.043827754
5.6992554e-05 -0.041467585 -0.0059778527 -0.024783246 0.03422621 0.033513878 -0.040589474 0.0071512633
-0.024499325 0.04064968 0.011533886 -0.0008832665 0.04903872 -0.04690556 0.03494055 0.017963268
0.002271055 0.04034425 -0.015019605 -0.038799353 0.014220643 -0.0010601168 0.026742786 -0.029062748
-0.051210735 -0.020322045 0.02668427 0.0010064726 -0.009403778 0.008117126 0.029833714 -0.048234064
0.017402215 0.01574537 -0.009540254 0.034054983 -0.039094217 -0.043998044 0.04487153 0.0042239255
-0.043714117 0.027510013 -0.045597866 -0.016103234 -0.00038888573 0.04795157 0.034050796 0.016277859
-0.032069974 -0.0061632604 -0.01546834 0.037892267 0.0031688525 0.00408349 0.048268676 0.022417886
-0.009740667 -0.046605203 -0.017676499 0.0487221 -0.040160757 0.049703836 -0.017253801 0.0108831925
-0.0018113975 0.029884031 0.04192856 -0.040278967 0.01980419 -0.048630733 -0.019365355 -0.024908805
-0.008874098 -0.014502466 0.0020777585 0.008268159 0.050077718 -0.048493993 0.008528757 -0.011115694
-0.04047921 0.011374416 0.019363021 0.012073892 -0.028098777 -0.041399125 -0.021745816 -0.0020662206
0.019637963 0.015224964 -0.0030676082 0.033865187 -0.005741837 -0.036747374 0.027248027 -0.017476244
0.0039851014 -0.004094922 0.021958606 0.03503563 -0.04409319 -0.04530651 -0.042126045 0.024600301
-0.046144705 0.028368188 0.040159687 -0.040703367 -0.020340884 -0.049035233 -0.0042781155 -0.049626753
0.036116485 -0.013924544 0.035877567 -0.042140834 -0.0073265587 -0.014694192 -0.04859068 -0.041879807
0.0058385595 0.023345653 0.003060365 0.030540252 0.04405529 -0.0032032202 -0.0017656295 -0.04038326
0.026578242 0.010613774 0.007833614 0.037507843 0.03635518 0.027922347 0.024397787 -0.024618851
-0.0032145262 -0.051583488 0.044314567 0.025482176 -0.011136807 0.040572483 0.01797464 0.03996669
-0.005989564 -0.009828362 -0.02608736 0.03735246 -0.04078744 0.0446596 0.030477948 0.031751465
-0.020451255 -0.03321755 -0.040693253 -0.042381957 0.03280441 -0.018856417 0.0044002933 -0.031798597
-0.023697576 0.0299823 -0.03055351 0.04893965 0.0045957547 -0.009209406 -0.027686838 -0.03271056
-0.0042703548 -0.01675502 0.03534019 0.011044768 -0.027197553 -0.004629909 0.005609196 -0.028632523
-0.008770375 -0.021947598 0.023163859 0.020313796 -0.0033178579 0.041906316 0.022443261 -0.028684475
0.003702031 0.04372608 -0.042216834 0.028875574 0.004009248 0.052537218 0.023595743 -0.04125696
0.031435862 0.055101413 -0.029683229 0.015777238 -0.034257825 0.010942768 0.055085737 -0.024299132

column1.3.bias f4 [16]
00000000: 2ae9 f339 7ba3 733c 29ed a83a 1b9e bc3c
00000010: 2aef 26bc 5c37 48bd 06ad 153c dcfb d6bc
00000020: b803 033d 0d74 7dbc d86d 10bd 5c60 053d
00000030: 8990 b93c b4ff 38bd 8e45 1dbd 413e 15bc
0.00046522293 0.01487052 0.0012888062 0.02302461 -0.010188857 -0.04888092 0.00913549 -0.026243143
0.03198597 -0.015469563 -0.035261005 0.0325626 0.022651928 -0.045165733 -0.03839641 -0.009109081

column1.6.weight f4 [32, 16, 7, 7]
00000000: fb08 bb3c d017 d03c ba5b fcbc db54 15bd
00000010: 2d1b 3f3c e2f6 d2bc 27a7 dabc 2c71 9e3a
00000020: 7aff 2b3c c771 51bc e8ad c53c d791 4d3c
00000030: 027c 8c3c 4f36 aa3c 17be a6bc b9af b4ba
00000040: a4a6 103c 4b98 c6bc 9df4 26bd 300e 5dbc
00000050: 331c 0ebd b712 11bd d9e0 893b e637 2d3b
00000060: 8f13 10bd 1cb7 023b 0c95 20bd 07c4 c63c
00000070: 391b 28ba bfcf 3f3c 7f9f 06bd 5cad 13bd
00000080: 5b9b 68bc 1e69 a03c 899d 0fbd 3022 e8bc
00000090: 9bfa 88bc 58b2 a13c f963 71bb 1aa9 c3bc
000000a0: 63b4 20bd 037b 903b 86ec e6bb 6519 a43c
000000b0: 8f90 cbbc 87f8 32bb 265c d0bc fda7 cb3c
000000c0: e52d c2bc e85f fabc dd82 e8bc 08db 803c
000000d0: 7096 fb3b ad62 29bd c5ce a13c 89f7 893c
000000e0: f1a8 8b3c 6dc1 943b 4fea e9bb 9d5b 0abd
000000f0: d115 0ebd 229e 8839 9c7b ecbc e4d5 893c
00000100: 08c8 5bbb 500e 163b d7bf ec3c b902 0fbd
00000110: 9182 80bc dfd9 04bd 92e9 7abc 6a41 1cbd
00000120: 5941 fe3b 9f8d d73c dc6b d73b 2757 3c3b
00000130: a881 5bbc 01fe 20bd c0a2 53bc 4cdf 25bd
00000140: 0352 29bc 22c4 3ab9 b865 adbc a352 1d3c
00000150: 1c7a a63c 7619 5ebc f49e 0cbd a231 a73b
00000160: 727e e8bc 22f5 963c 8fb4 13bd 819c 8bbc
00000170: af0c c83c 17f5 b53c d62e 04bd beaa dabc
00000180: a8a1 533b a2ec 74bb 8a59 1dbd a060 f33b
00000190: 4a8a 8d3c 8b75 25bd a653 02bd 7470 5e3c
000001a0: 659e f3bc c2ae da3a d1b9 22bd 46f6 0bbc
000001b0: 60cb c83c fa5c 973c e145 573c 5b27 47bc
000001c0: 1d19 16bc bd51 f13c d789 4a3b bcb5 23bd
000001d0: 52c2 7fba b23c cabc 377c 94bc 8542 28bd
000001e0: 6207 a9bb 7282 b43c 0651 be3c 9a0d d3bc
000001f0: cc4b 093b d16e 66bb b032 913c 7f50 d63c
00000200: 7dda bcbc 71fc 8e3c c05d 903c adcc aabc
00000210: 736b ae3c 9f83 d03c 7048 743c 766e 83bc
00000220: 6d6b 8a3c fc3e ee3c 2b44 193c 7fb6 f7bb
00000230: 5e17 72bc 87fc a9bb c571 86bc 48dc 27bd
00000240: 417b 483c 2afd edbc bee2 18bd 6eca 25bd
00000250: 2ec2 c03c e270 92bb 4e35 2cbb 8522 abbc
00000260: b90d f6bc 3028 26bd 7ff8 ec3c ea86 81bb
00000270: e940 713b 5655 82bc 433f 14bc 5971 0e3c
00000280: 6e30 4539 6ada a6bb f731 b3bc 33b4 9b3b
00000290: 893b 24bd c2f3 f3bb c028 16bc 4954 b13b
000002a0: c6b1 873c 57f6 ba3c 0614 9e3c a771 15bb
000002b0: 9853 d9bc 6ba7 ca3b 2b3b 08bc 7843 e93c
000002c0: a3c2 a33c 13d8 6dbb 5e31 c73c 66fd 15bd
000002d0: 988f 93bc c9ef 7abb 773c aabb 7132 d8bc
000002e0: 4eb1 a53c 803e 06bd 79c3 013c fa60 973c
000002f0: c567 dfbc dfbc 78bc 7e39 49bc 99fa 583c
00000300: 1485 b43c e4e8 d5bc 5b1c 1bbd 685c 84ba
00000310: b1ef 973b 1332 b33c 1b6e 01bd db83 ef3c
00000320: 4bea 87bc 7549 ba3c 118a c7bb d5a4 0fbc
00000330: bf99 cc3c 606b b23c 34fa 14bd 6eb4 c2bc
00000340: caa9 1abd ad44 dabc e6bf 253c c03a a2bc
00000350: bbe8 473c f67e 763c c071 943c 1828 bcbc
00000360: 67b3 27bd df11 0ebd 98ab 1dbc febf ea3c
00000370: c482 e2bc eb29 15bd bf66 8dbc 9016 b9bc
00000380: 7833 05bd 1c7a b7bc b4db 04bd baa1 cb3a
00000390: 3402 50bc 36c1 963c a453 553b b266 e23b
000003a0: 5d5e cc3c 5d51 0e3c 5d3e a5bb 30da be3c
000003b0: 799f 11bd 8f4d 1abc 2bc1 ab3c 5e71 943c
000003c0: 7588 25bd 0eba ab3c 6793 833c 3f5c e03b
000003d0: db49 28bd f0b1 19bc 1bcb 1cbd a94b b53c
000003e0: 32c0 d73c 0323 4f3c e01b 5f3c 6599 213c
000003f0: 23b3 dabc 1d16 58bc bd7d 5cbc 708a 2e3c
0.02283143 0.02540198 -0.030805457 -0.036457878 0.011664194 -0.025752489 -0.026691033 0.0012088171
0.010497922 -0.012783474 0.024130777 0.012546978 0.017148975 0.02077785 -0.020354314 -0.001378528
0.008828793 -0.02424254 -0.040760625 -0.013492152 -0.03469486 -0.03541824 0.004207712 0.0026431023
-0.035174903 0.0019945567 -0.039204642 0.024263395 -0.0006412748 0.011707245 -0.03286695 -0.036054
-0.014197196 0.019581374 -0.035062347 -0.028336614 -0.01672106 0.019738361 -0.003683327 -0.023884345
-0.03923453 0.0044091954 -0.0070472388 0.02003164 -0.024849204 -0.0027308778 -0.025434565 0.024860376
-0.023703525 -0.03056331 -0.028382713 0.015729442 0.0076778457 -0.04135387 0.019751916 0.016841667
0.017048331 0.0045396597 -0.0071385275 -0.033778775 -0.034688774 0.0002605776 -0.028867535 0.016825624
-0.0033535976 0.0022896715 0.02890007 -0.034914706 -0.015687259 -0.03243434 -0.015314477 -0.03814832
0.007759255 0.026312647 0.006574137 0.002873847 -0.013397612 -0.039304737 -0.012917221 -0.040496156
-0.0103344945 -0.00017811407 -0.021166667 0.009602222 0.020321898 -0.013555875 -0.034331277 0.0051023522
-0.028380606 0.018427435 -0.036060866 -0.0170424 0.02442011 0.022211595 -0.03227123 -0.026692744
0.00322924 -0.003737249 -0.03841547 0.00742729 0.017277855 -0.0403953 -0.031818055 0.013576616
-0.029738614 0.0016684162 -0.03972799 -0.008542603 0.02451104 0.018476952 0.013139219 -0.012155379
-0.009161261 0.029457921 0.0030904913 -0.039968237 -0.0009756434 -0.024687145 -0.018125637 -0.041079063
-0.005158351 0.022034857 0.023231994 -0.025763322 0.002094972 -0.0035161267 0.017724365 0.02616143
-0.023053402 0.017454358 0.017622828 -0.02084955 0.02129147 0.025453387 0.014909849 -0.016043883
0.016896928 0.029082768 0.009354631 -0.007559597 -0.014776079 -0.0051875743 -0.016411671 -0.04098156
0.012236417 -0.029051382 -0.037325613 -0.040476255 0.023530092 -0.004469023 -0.002627689 -0.020890484
-0.03003584 -0.04056567 0.028927086 -0.0039528506 0.003681237 -0.015909832 -0.009048286 0.008694016
0.00018805425 -0.005091955 -0.021874411 0.004751706 -0.04009584 -0.0074448297 -0.009164989 0.005411659
0.016564261 0.022822542 0.019296657 -0.0022803338 -0.026529118 0.0061845086 -0.008314888 0.028474554
0.019990271 -0.003629212 0.024315532 -0.036618613 -0.018012807 -0.0038289896 -0.0051951963 -0.02639124
0.020226147 -0.03277445 0.0079201395 0.01847886 -0.02727116 -0.015181749 -0.012281774 0.013243341
0.022036113 -0.026112027 -0.03786884 -0.001009834 0.0046367277 0.021874463 -0.031599145 0.029237678
-0.016591212 0.022740105 -0.006089457 -0.008767326 0.024975656 0.021779716 -0.036371425 -0.023767676
-0.03775958 -0.026644075 0.010116553 -0.019803405 0.012201483 0.015044918 0.018120646 -0.022968337
-0.040942576 -0.034685012 -0.009623431 0.028656002 -0.027650245 -0.03641693 -0.017260907 -0.022593766
-0.032519788 -0.022397093 -0.032436088 0.0015535869 -0.012695838 0.018402677 0.0032551074 0.006909215
0.02494734 0.008686391 -0.0050428347 0.0232974 -0.035552476 -0.0094179055 0.020966133 0.018120464
-0.04041334 0.020962741 0.016061498 0.006846934 -0.04108606 -0.0093808025 -0.038279634 0.022130804
0.026336763 0.012642625 0.013617486 0.009863232 -0.026696747 -0.013188866 -0.013457713 0.010653123

column1.6.bias f4 [32]
00000000: 60ff 10bd 2df7 383d 71d6 163c 11d4 dabc
00000010: ba7f 693c 4480 033d 3071 4abc 6c83 87bb
00000020: 2f5d ae3c a911 2a3c 7d29 823c e209 db3b
00000030: eb05 173d c6eb 983c ec68 e73b 0a1d 813b
00000040: 74d3 3a3d 113f fdbc 230a c93c 6e96 f03c
00000050: 40d4 0fbc a7a4 04bc 64f1 c93c ee35 3bbc
00000060: 61a1 143d c0f7 a53c c4d3 383d 20ce 743b
00000070: 0d5c 603c 6b1f d63b 9b97 173c 7fee a9bb
-0.035399795 0.0451576 0.0092064 -0.02671245 0.014251644 0.032104746 -0.012356088 -0.0041355398
0.021284668 0.010380187 0.015888924 0.0066845277 0.03687088 0.018667113 0.007062068 0.0039402293
0.045611814 -0.030913861 0.024540966 0.029368605 -0.008778632 -0.008095897 0.024651237 -0.011426432
0.036286715 0.020259738 0.04512383 0.0037354305 0.013693822 0.006534507 0.009252454 -0.0051859017

column1.8.weight f4 [16, 32, 7, 7]
00000000: 577a 57bb f472 1cbb c5fd 04bb 63b6 9abc
00000010: a153 f4bb 18fb c03b 7f2f c6ba 397f 7e3b
00000020: c92e 80bc 92a9 c1bc 0307 5c3b f2c6 3f3c
00000030: 508f 2e3c a845 743c 2ebf c5bc 67a5 2a3c
00000040: da00 d2bb 0216 81bb 3699 3c3a af0a 9d3c
00000050: d79b 88bc da86 853b 6dee f73b 4878 fdbc
00000060: 6159 cb3b b208 c83b 5917 a3bc 8614 1dbc
00000070: 5591 bfbc 3de1 8dbc d05f dfbb 9571 c43b
00000080: babe e2b8 b201 f9bc 11ab 823c bb8e 973c
00000090: b837 5e3c 1d8b 60bb 638e f63b 8f7b 1bbc
000000a0: 393d dfb9 7725 62bc af40 2a3c 3891 6cbc
000000b0: 5fea afb9 2e85 4aba d3d9 763c ce78 a5bc
000000c0: 0ad4 18bc a6b8 2c3c 7d12 3a3c c01c 8c3c
000000d0: 0423 a1bb 0808 afbc 95b4 acbc 9b3a df3b
000000e0: 9e6b b7ba 7e9c e7bc 2045 663c edd9 e53b
000000f0: 9b9a 5ebc 6d29 e8bb 16be 48bc c25a c2ba
00000100: 3161 89bc ad5a 4c3b ba2b 823c 9a86 8fbc
00000110: 3bb0 433c 8035 a93a b2e4 9f3a f71e 803c
00000120: 8810 bfbc e827 6abc 36a8 713c e71f 0f3c
00000130: 27e2 f1bc b830 203c a011 c6bc b8af 29bc
00000140: 10cd 573c 2514 99bb 5437 94bc 9fb9 aaba
00000150: 1fcc eebc f8cc a1bc 2d10 b0bb 40f0 b1bc
00000160: c29d 6e3b c986 4abc 9108 903c 3e52 aabb
00000170: 7751 8ebc cd36 083c cb34 6fbc 356d 6bbb
00000180: b68e bcbc 3566 c4ba 17ae a1bc ecbd d2bc
00000190: 7ed4 93bc 8cd6 5dbc 6b7f b1bc 07de dabc
000001a0: d05b 963b 8dca f6bc 156d 5abb 7a9b 3ebc
000001b0: 65eb 1bbc 74bc b93b 766a 2d3b ffa5 70bc
000001c0: 4858 883c 5614 aa3c d801 01bc f70a 693b
000001d0: 912f 4ebc b70d d1bc 9310 c7bc ebb0 b2bc
000001e0: 5624 aebb 9639 96bc fb77 82bb 54c7 8238
000001f0: 4d6c 1c3c 0baa b73c c02d 05bc 7eff b1bc
00000200: fcb9 5cbc 15bc b2bc 3886 093c d530 84bb
00000210: 51f5 7d3c 1fdb 85bc ac56 8abc 9b17 afbc
00000220: 2285 0ebc 19b5 c8bc 6b59 d0ba 337e 973c
00000230: a125 bcbc 543e dbbc 8967 a13c 08eb ecbc
00000240: 8568 ecbc 657e 0b3c 6f35 e0bb 3089 443b
00000250: d2e3 883b d6cd 533c 9504 76bb 52b3 ea3b
00000260: 669c 5a3b 2b4c 1733 fabc 22b9 8ff5 013c
00000270: b9ea 6d3c fa06 973b 6a0d d63b 130d 8a3c
00000280: b496 1138 3241 db3b eb7d 43bb 6bd2 efbb
00000290: f3fb 26ba 304c a93a ed5a 98bb 0d54 4eb9
000002a0: c483 73bb 1eda 783c 3af3 8f3b 5b43 ccbb
000002b0: 620e 203c 80e0 db3a 6417 643c 0a13 daba
000002c0: 708c bcbc ffde 893b a951 8abc 4c06 a4bc
000002d0: da40 bebb b4cc 95bc 1116 cdba c7bb a7ba
000002e0: a4cd 1abb 5493 7f3b 507c 8fb2 ff47 e833
000002f0: 0229 0d30 3389 bab6 a294 fd32 cf53 80b6
00000300: ee09 47bb 31fd 0bb8 c4fb 6eb2 c09b 4736
00000310: 48d7 f5bb e89d d23a ec8e 1fbc ef4a 39bc
00000320: d157 3f3c 2946 563c 2c48 9a3c dcc8 90bc
00000330: e9d5 e2bc a861 91bc 12ba d2bc b371 a3bc
00000340: 632c 003a 2bdb f3bb 15ee 88bc a13c 283c
00000350: 9d4c 05bc 110a 0cbc ba8f 48bc 0ca0 2bbc
00000360: 9b8f 453c 76f4 9a3c 9f0d ef3b 8451 c6bc
00000370: dd86 09bc 3e9a 86bb ba92 9dbc 836f 903c
00000380: 05f2 783a 594d 8c3c a65b 133b 46de c8bc
00000390: 8526 7b3c 05b7 e63b 450b bb3b aa2b 25bc
000003a0: 0423 efbb a2de c73b 1662 073c 8e6d 1b3c
000003b0: 9acc c3bc 4a9e 5b3b 9a3e ecbc 0777 8abc
000003c0: 5a44 6a3c 6d61 d5bc 7e95 39bc b558 4f3c
000003d0: 4ae9 9fbc cdc3 77bc 5005 ba3b 2991 fabc
000003e0: 11f9 e8bc 0e49 d4bc 83e9 85bc f57a 3cbc
000003f0: 741d 3c3c c0d6 05bc 2a06 3b3b 1801 37bc
-0.0032879317 -0.0023872228 -0.002029286 -0.018885797 -0.0074562584 0.0058893077 -0.0015120356 0.0038833155
-0.015647309 -0.023640428 0.0033573515 0.011705147 0.010654286 0.0149091855 -0.024139013 0.010415412
-0.006408793 -0.003939391 0.0007194461 0.019170133 -0.016675873 0.0040749134 0.0075662644 -0.030941144
0.006205723 0.006104552 -0.019908594 -0.009587413 -0.02338473 -0.017319316 -0.0068168417 0.0059949853
-0.000108120454 -0.030396316 0.015950711 0.018500676 0.013563089 -0.0034262605 0.007524298 -0.009489908
-0.0004257949 -0.013802878 0.010391398 -0.01443892 -0.0003355322 -0.0007725534 0.015066582 -0.020199206
-0.009327898 0.0105420705 0.011356947 0.017103553 -0.0049175043 -0.021366134 -0.021082202 0.0068124062
-0.0013993864 -0.028272863 0.014054567 0.007014504 -0.0135866655 -0.0070850165 -0.012252351 -0.0014828073
-0.016769977 0.0031181977 0.015889991 -0.017520238 0.011943872 0.0012909621 0.0012198894 0.015639765
-0.023323312 -0.014291741 0.014749577 0.008735633 -0.029526783 0.00977724 -0.024178326 -0.010356836
0.013171449 -0.004671591 -0.018092789 -0.001302529 -0.029150067 -0.019751057 -0.005373022 -0.021721005
0.003640995 -0.012361237 0.01758221 -0.0051977923 -0.01737283 0.008313847 -0.014599989 -0.0035923247
-0.023017269 -0.0014984073 -0.019736333 -0.025725327 -0.01804566 -0.0135399215 -0.021667203 -0.026717199
0.0045885816 -0.03012588 -0.0033329178 -0.011633748 -0.009516572 0.0056682173 0.002646116 -0.014688014
0.016643658 0.02076165 -0.007873975 0.0035559514 -0.012584583 -0.025519235 -0.024299895 -0.021812877
-0.00531439 -0.018338006 -0.003981588 6.236011e-05 0.009547305 0.02241995 -0.008128583 -0.021728273
-0.0134720765 -0.0218182 0.008393817 -0.0040341415 0.0155003825 -0.016339837 -0.016887031 -0.02137356
-0.0086987335 -0.024500417 -0.0015895789 0.018492794 -0.022967162 -0.026763119 0.01970269 -0.028920665
-0.028858433 0.0085140215 -0.0068423073 0.0029988997 0.004177549 0.012927493 -0.0037539352 0.00716249
0.003335738 3.52267e-08 -0.00015519923 0.007932081 0.014521294 0.004608986 0.006532361 0.016851937
3.4711047e-05 0.0066911215 -0.0029829692 -0.007318785 -0.0006369941 0.0012916382 -0.004649511 -0.00019677002
-0.0037157396 0.015188722 0.0043930085 -0.0062336153 0.009769054 0.001677528 0.013921592 -0.0016637754
-0.023016185 0.0042074914 -0.016884642 -0.020022534 -0.0058060708 -0.018286087 -0.0015646835 -0.0012797051
-0.0023621107 0.0038997727 -1.6703922e-08 1.0816438e-07 5.1353777e-10 -5.559204e-06 2.9520667e-08 -3.824454e-06
-0.0030370909 -3.3375985e-05 -1.3910668e-08 2.974397e-06 -0.00750247 0.0016068788 -0.009738665 -0.0113093695
0.011678652 0.013078251 0.018833242 -0.017673902 -0.027689891 -0.017746761 -0.02572349 -0.019951677
0.00048894266 -0.0074418983 -0.016715089 0.010268361 -0.008135942 -0.008547322 -0.012241298 -0.01047517
0.012058164 0.018915396 0.007295325 -0.024208792 -0.00839397 -0.0041077426 -0.019235004 0.017631298
0.0009496513 0.017126726 0.0022485047 -0.02452005 0.015329008 0.0070408606 0.0057081305 -0.010081211
-0.0072978754 0.006099538 0.008263132 0.009486569 -0.023901273 0.0033511096 -0.028838445 -0.01690246
0.014298523 -0.026047433 -0.011327146 0.012655427 -0.01952042 -0.015122366 0.005676903 -0.030586796
-0.028439077 -0.025913741 -0.016346699 -0.011503925 0.011481632 -0.008168876 0.002853761 -0.011169694

column1.8.bias f4 [16]
00000000: c47c 803c 1073 9d3b 64bb eb3c 44bd 8dbc
00000010: a896 febc d98a c4bc c302 f43b 4681 213d
00000020: a2fc c5bc aed9 7e3b aa89 44bc a047 79ba
00000030: 912f 323d 69a1 9abc e933 8abc 57c7 acbc
0.015684493 0.0048049763 0.028775878 -0.017302163 -0.031077698 -0.023991989 0.0074466183 0.039429925
-0.024168316 0.0038887071 -0.011995712 -0.0009509269 0.043502394 -0.018875794 -0.016870456 -0.021091146

column1.10.weight f4 [8, 16, 7, 7]
00000000: 3d10 9cbc 6288 183d 9c97 cebc b5a9 df3c
00000010: 7514 e8bc d836 103d 697d 9f3c 2be7 9dbc
00000020: e44c 073d 7ebb d33c d2d6 eb3c 1000 88bc
00000030: d0b9 c83c 603e 283d de2e 2bbb ca9c 8a3c
00000040: a7cb 263c fa12 56bc e31c 2b3d 678c 293d
00000050: 9eda e7bc cc7b d8bb c310 a9bc 569f ff3c
00000060: f3a6 48bc a890 a63c c4d9 bbbc 69c2 05bc
00000070: 5de4 d8bc ed84 3c3c 5ec3 943b 70f2 1b3d
00000080: a175 65b9 c855 273d 7926 9a3b 6e9d 25bc
00000090: ca79 2b3d a6ab 053d 9a2f 1d3d da71 f03b
000000a0: aaea 363b 3d44 89bb 0fbe b6bb f922 ecbc
000000b0: 30cd 3d3c 103a a73b c126 03bc b6ec 8fbc
000000c0: 3ff6 d33c 8635 933c 814e f83c 599b dbbb
000000d0: 931c 913c 8247 6e3c 2402 2f3c 5ae5 0530
000000e0: c997 ed3c 1899 df3c eeea 99bc 91fd fc3c
000000f0: 5125 823b fbdb 90ba 54dd 4eaf dc91 ee3c
00000100: 5bdb 53bb 7853 b33c 4617 1c3c a98c 12b1
00000110: da2e 26b1 926c e8b0 bb0f 8a3c 6dfb 143c
00000120: 29f9 d9ba 77bd 2db1 0abc afb0 45fa 2a31
00000130: 7f02 beb0 b7c8 20bb 620b ca3c 470d 8f3c
00000140: 8d68 5c2f 828e 54ba 604e ea39 44b1 3531
00000150: 98ce 853b 0ff4 5dbb 20ca 22b1 d8c5 5b2e
00000160: d235 8d3b f412 9a3a b02d 182e 5f47 8bbb
00000170: 0b2c 7f31 0ebc 87b0 d08e 2ab9 18a7 cbba
00000180: 39cd 8dad cb56 2bb0 b633 1c3d 6de2 f73c
00000190: 7597 ebbc 4cea 08bc 6994 9b3c d25b c63c
000001a0: 1606 463c d372 9abc fd89 82bc a830 1b3d
000001b0: dd89 93bc 7a47 0d3c 6c9c 993c 55c9 0b3d
000001c0: 9d7b 39bc e295 89bc 7408 c33c fcf7 093d
000001d0: b505 78bc cec2 753c b1d3 c2bc 3999 7fbc
000001e0: 60fd 133c fe37 083d 0c21 f43c bcb2 383c
000001f0: 0b7c b2bc f2c8 163c f475 ff3c f5f9 00bc
00000200: e6eb e73a ed90 0cbc 4470 823c ab6f ab3c
00000210: b706 113c a55e 93bc a981 2a3c e4ed 093d
00000220: da39 ad3c 5458 ba3b 39de de3b f16b 7d3c
00000230: cd17 813c 6b6b b6bb 9ecf fbbc cfe7 dd3b
00000240: fa9b 173d 09ff 8bbc 4870 3bbc 60d4 d730
00000250: 9765 cb3b a8d2 4e3b de15 ffaf 45ea 3231
00000260: 1902 0fae 8a9f d430 653d 01ae bdd6 6931
00000270: a86d f1ae 1ebb 0cb0 c406 662c 5041 26af
00000280: bfb2 5dae 8ea5 5d2f aed1 3c30 c904 6bae
00000290: 0e15 612f cd3c c8b0 32a8 b62f a7d6 e130
000002a0: 7072 10ad bf5f fab0 b963 9e30 0bc8 d7af
000002b0: 1d42 90af 220b 3ab1 34c5 4c2f 2d3f d6b0
000002c0: 718c 0fb1 7898 3531 b70e 9bb0 e9ba e9b0
000002d0: 89ec 2830 f5bd 033c 984b 863a 0fb5 35b1
000002e0: f048 a92f c99f 88ad ede6 2e31 b949 d9bb
000002f0: 1f62 863c 608f fdb9 aaab 9b2e 03e9 e530
00000300: 6154 092e e6f4 743b 67ee 403c 173b 7d3c
00000310: 257d c8af f579 4d30 16a8 2130 d5e1 d32f
00000320: 6e51 1930 0ad6 1fb1 516b b6b0 8dab 6daf
00000330: fc35 00b0 f71d 3d30 a5f7 0231 90b0 dd2f
00000340: 385b dcb0 ea26 87b0 2fc3 31b1 1726 e12f
00000350: b49e 8030 71b0 062f 4226 16b0 943e ebb0
00000360: 1034 1bb1 1bc7 b02d f8c8 42af 6a2a ddae
00000370: 487e 4e31 072f 5d31 56fd 04b1 b545 9c2f
00000380: db08 19af 7d05 a62e 244c fbb0 2977 5531
00000390: b8fc 19b9 c317 8aba 843c 29b1 ce20 a830
000003a0: 79cc 8530 3beb 2630 2550 8334 1151 57b0
000003b0: 396b 9e39 46c6 062f 72a3 c830 3c17 4d32
000003c0: 59c4 d9af ad66 3c31 f9ff 78af d76f 20b1
000003d0: 3f34 29b0 8316 cd3c 61ab cd3a c036 b53c
000003e0: 32b7 07bc 682c dd3c 0c31 02bd dd33 d0bc
000003f0: 8860 c5bc 94df 763c 49e6 b73c bb5b 54bb
-0.019050712 0.03723944 -0.025218777 0.027302602 -0.028330067 0.035208553 0.01946898 -0.019275269
0.033032313 0.02584624 0.028788958 -0.016601592 0.024502665 0.04107511 -0.0026120464 0.016920466
0.01018039 -0.013066048 0.041775595 0.041393664 -0.028302487 -0.0066065546 -0.020637875 0.031203907
-0.012246835 0.02033265 -0.022930987 -0.008164027 -0.02647608 0.011506301 0.004539891 0.038073003
-0.00021882962 0.04085329 0.0047042933 -0.010108335 0.041864194 0.0326344 0.038375475 0.007337791
0.0027910867 -0.004189043 -0.005576856 -0.02882527 0.011584565 0.005103357 -0.008004845 -0.017568927
0.025874255 0.017969858 0.030310871 -0.0067018685 0.01771382 0.014543416 0.010681663 4.8711046e-10
0.02900304 0.02729468 -0.018788781 0.030882629 0.0039717336 -0.0011051887 -1.8814222e-10 0.029122286
-0.003232679 0.021890387 0.009527033 -2.1325752e-09 -2.4182811e-09 -1.6911079e-09 0.016853204 0.009093148
-0.0016630042 -2.5282512e-09 -1.278637e-09 2.4880518e-09 -1.3825029e-09 -0.0024533698 0.02466363 0.017462386
2.0046027e-10 -0.00081083935 0.00044690352 2.643973e-09 0.004083466 -0.0033867394 -2.3688997e-09 4.9970555e-11
0.0043093944 0.0011754916 3.4601377e-11 -0.0042504515 3.713242e-09 -9.875991e-10 -0.00016265665 -0.0015537469
-1.6120981e-11 -6.233278e-10 0.038135253 0.030259335 -0.028758744 -0.008356642 0.018991666 0.024213705
0.012086412 -0.01885358 -0.015934939 0.0378882 -0.018010074 0.008622998 0.018751346 0.034127552
-0.011320976 -0.016795103 0.023807742 0.033683762 -0.015138079 0.015000058 -0.023782583 -0.015600496
0.009032577 0.033256523 0.029800914 0.011273082 -0.021787664 0.0092031825 0.031184174 -0.007872094
0.0017694205 -0.008579475 0.015922673 0.02092727 0.008851699 -0.017989466 0.01040689 0.033674136
0.02114575 0.005686799 0.0068013933 0.01546763 0.01575842 -0.0055670044 -0.030738648 0.0067720185
0.037013985 -0.017089384 -0.011440344 1.570367e-09 0.006207179 0.0031558666 -4.6399767e-10 2.6035576e-09
-3.25163e-11 1.5470374e-09 -2.9385733e-11 3.4028027e-09 -1.097889e-10 -5.1197613e-10 3.2688722e-12 -1.5120816e-10
-5.040834e-11 2.015865e-10 6.8691974e-10 -5.3437064e-11 2.0471111e-10 -1.4569196e-09 3.3225117e-10 1.6431912e-09
-8.2108625e-12 -1.8217107e-09 1.1524356e-09 -3.925041e-10 -2.6240424e-10 -2.707289e-09 1.8623753e-10 -1.5588505e-09
-2.088907e-09 2.6425635e-09 -1.1281917e-09 -1.7006104e-09 6.145418e-10 0.008040895 0.0010245917 -2.6441886e-09
3.0792746e-10 -1.5532369e-11 2.5451599e-09 -0.006631103 0.01640421 -0.00048362743 7.0790776e-11 1.6728169e-09
3.1225137e-11 0.0037377416 0.01177559 0.015455983 -3.6468709e-10 7.4751877e-10 5.8810323e-10 3.854114e-10
5.5776794e-10 -2.3259212e-09 -1.3272744e-09 -2.1615972e-10 -4.6642845e-10 6.880038e-10 1.905826e-09 4.032512e-10
-1.6033033e-09 -9.833603e-10 -2.586784e-09 4.0954326e-10 9.358332e-10 1.2249914e-10 -5.462405e-10 -1.7116286e-09
-2.2585063e-09 2.0097304e-11 -1.7715596e-10 -1.0057451e-10 3.0048728e-09 3.2186465e-09 -1.9352533e-09 2.8425765e-10
-1.3918415e-10 7.549781e-11 -1.8284294e-09 3.1063314e-09 -0.00014685362 -0.0010535646 -2.4627136e-09 1.2232932e-09
9.735138e-10 6.072473e-10 2.4458964e-07 -7.8331747e-10 0.00030215996 1.225767e-10 1.4598369e-09 1.1937853e-08
-3.9611583e-10 2.7415965e-09 -2.2646408e-10 -2.3346638e-09 -6.155609e-10 0.025035148 0.0015691334 0.022120833
-0.008283423 0.026998714 -0.031785056 -0.025415355 -0.024093881 0.015067954 0.022448676 -0.0032403308

column1.10.bias f4 [8]
00000000: e47d 01ba bd1e ebbb 2795 cf3c c95f 2f3c
00000010: f052 393d 553f 2a3b 2975 ebbb bae7 1a3c
-0.00049397186 -0.007175295 0.025339676 0.010703989 0.04524511 0.002597769 -0.0071855974 0.009454662

column2.0.weight f4 [10, 3, 7, 7]
00000000: 9d85 963d 56bf 04bd 98eb 6dbc a456 633c
00000010: a172 623d 4581 ee3b 485c 6e3d f0b9 8b3d
00000020: b314 02bd cbe1 41bd 762c 6a3d 7188 9d3d
00000030: 2a90 0abd 45ec 5dbd 232a 74bc ff46 34bd
00000040: 75e8 04bd 94d7 51bd 3173 993d d116 e339
00000050: d811 68bd 64e9 003d eb3d 2bbd 131d 9fbd
00000060: 8e5d d3bc 7b2f 1a3d f3b6 613d 4475 2bbd
00000070: 9573 853d d91e bd3c 79b4 8b3d 25f5 6bbd
00000080: d2bc 18bd eb6f 363d b5af babc c029 8a3c
00000090: 3d2a 73bd 04bf c6bc 221c 8bbd 55bf 5cbc
000000a0: 02b3 893d f47a 183d 3135 8cbd d36e 8e3d
000000b0: 24d4 abbd bd0b 4fbd ea22 e13c f6a4 46bc
000000c0: ac72 df39 d5f2 fbbc fc79 8b3d 1cb2 2ebd
000000d0: f807 863c a551 ad3c b3fd f7bc 1902 9cbd
000000e0: f368 95bd a988 fb3c 71e5 323c 84c4 343c
000000f0: 424d 4d3c f9de 973c fbaf b1bd 3433 bd3c
00000100: 46aa 983d cf42 5d3d 7cb1 1dbc 5d59 9dbd
00000110: 4707 763c 8be9 103c 1e18 5bbc eb35 603d
00000120: d2c9 61bc aaf8 8fba 29c0 0e3c 8ff2 a1bd
00000130: 4f2b edbc d0f3 88bb 3917 cabc 4bb9 073c
00000140: 5528 56bd 402a 79bd c3ab 81bd 147a 9cbc
00000150: 8663 8cbd 493b 933d 558e bdbc 6313 6bbd
00000160: c2c4 3c3d 4c76 6f3d 1b65 53bd 3656 94bd
00000170: 4472 97bd 6668 95bc 4f80 053b aa16 f0bb
00000180: 992c 843c 540f 563c 6146 d3bc ae16 3dbd
00000190: ec53 843d cbae 32bd 0a49 68bd 1714 973d
000001a0: 132d a0bd e5ca 9ebd 39dc 733d d915 823c
000001b0: 976e 173c 67e3 be3c 5682 c6bc d6ae 08bc
000001c0: d53a 8b3d 0d4d 843d e051 83bc 0fc7 283d
000001d0: 2480 5e3c 5d25 583d 7165 8bbd 40b8 8dbc
000001e0: 15c0 853d 44ae 6d3d 4330 80bd 6967 45bd
000001f0: 5d88 b6bc 51c1 923d 9934 5cbd 3bcc 15bb
00000200: fde0 d4bc 7fee b93b 61ed 77bd fe16 1d3a
00000210: d02a efbc c306 98bd 8619 4f3d bb5c 853c
00000220: 6a5b 98bd 9cb0 81bc ac12 783c 8b32 7dbc
00000230: 7fcc 0c3d b46c 933b 28b4 76bd 36bf 883c
00000240: 45bd 2bbc 7086 683d dfa3 de3c e2ee 383c
00000250: 942d 1f3d 9a89 a4bd a65a 78bd 0b87 35bd
00000260: b158 f4bb 559a a1bd bb9d 6d3d dff6 5c3d
00000270: 717e a93c 0767 4a3d 21d3 c7bc 3d58 20bd
00000280: 07d2 0d3d 9883 a03d b730 8a3d d0e6 2bbd
00000290: 2e1e aabd c192 553c 20b6 4f3d da3e 3dbd
000002a0: 5200 693b e84d b53c 2943 a1bd ca89 9d3d
000002b0: fa03 c23c d784 3c3b d91e 013d 05f0 ba3c
000002c0: 32bf cdbc 4c2a 99bd 92ec febc 65f7 933d
000002d0: e2c2 553c 7b14 553d 0baa 0fbd 9470 c3bc
000002e0: 1377 6f3d ff6e 9ebd 97db dc3c 5910 a3bd
000002f0: af12 643d f4f8 0d3d 8b81 2bbd 42ac a23c
00000300: e5b9 37bd 52e4 36ba 02c8 a03d 323a 86bc
00000310: 5f07 0d3d 038e c5bc 182c dcbc c832 79bd
00000320: 614e 1f3c 1922 113d 0ca5 91bd 33ee 1d3c
00000330: 72b5 99bc f0c0 e63c a7c5 7e3d 2b9f d1bb
00000340: f679 973c 771a 17bd 61b7 293d e50c 6e3d
00000350: 7cdc 013d 8786 943d d253 1f3c 8e1c f9bc
00000360: 6a3c 43bd e763 ba3c c74c 743d 0ee5 ea3c
00000370: bbac 933d 56fd 76bd 62ad 273b 194e 9a3d
00000380: 192b 88bc addd dfbc c93a 8e3d b5ac 87bd
00000390: 0890 8a3d 63fc 753d 242e 7fbd 2203 913d
000003a0: e118 703d 58bb 4d3d 3d7d aabd f629 793d
000003b0: 19ff 3bbd 2f9e 0d3d 3688 633d bb8a 143d
000003c0: 85c7 41bc 7577 8fbd a19c 163c 774e b5bc
000003d0: 60b2 6b3d 81e1 c13c 51db 523d 734c 7abd
000003e0: 62fd 6cbd d072 303d 495d 663d 6413 33bd
000003f0: 98f1 52bd 0494 063d 930f 5ebc 2fec 8e3d
0.073497035 -0.032409035 -0.014521502 0.013875637 0.0552851 0.0072785937 0.058193475 0.06822574
-0.03175802 -0.047334474 0.057171308 0.0769204 -0.03382889 -0.054180402 -0.014902624 -0.04401302
-0.03244825 -0.051230982 0.07492674 0.00043313814 -0.056657642 0.03147258 -0.041807096 -0.07769217
-0.025801446 0.037642937 0.055106115 -0.04185988 0.06516186 0.023085998 0.06821532 -0.057606835
-0.037289448 0.044540327 -0.022788862 0.016865611 -0.059366453 -0.024261005 -0.06792475 -0.0134733515
0.06723596 0.037226632 -0.06846083 0.06954732 -0.08390072 -0.050548304 0.027482469 -0.012124291
0.00042619312 -0.03075544 0.06810376 -0.042650327 0.016361222 0.021157095 -0.03027234 -0.076175876
-0.07295408 0.030704813 0.010918961 0.011033181 0.012530627 0.018538939 -0.08676144 0.023095705
0.07454352 0.05401879 -0.009624835 -0.0768306 0.0150163835 0.0088447435 -0.013372449 0.05473892
-0.013781028 -0.0010984142 0.008712807 -0.079075925 -0.028951315 -0.0041794553 -0.024669277 0.008283923
-0.052284557 -0.06083131 -0.06331589 -0.01910118 -0.0685492 0.07189042 -0.023139158 -0.057391535
0.04608608 0.058462426 -0.051610094 -0.07243006 -0.07394841 -0.018238258 0.0020370667 -0.0073269205
0.016134547 0.013065178 -0.025790395 -0.046164207 0.06461319 -0.043623727 -0.05671028 0.07376879
-0.07821097 -0.07753543 0.059536193 0.015879558 0.009242675 0.023301793 -0.02423207 -0.008342465
0.06798331 0.06460009 -0.016030252 0.041205462 0.013580356 0.052770007 -0.06806458 -0.017299771
0.06530777 0.05802752 -0.06259205 -0.048194323 -0.02228182 0.071657784 -0.0537611 -0.0022857327
-0.025986189 0.005674183 -0.060529117 0.0005992501 -0.02919522 -0.07423165 0.05056145 0.016279569
-0.07439311 -0.015831284 0.0151411705 -0.015453945 0.03437471 0.0044990424 -0.060230404 0.016692739
-0.010482137 0.056768835 0.02717775 0.011287423 0.038861826 -0.08034058 -0.060633324 -0.04431824
-0.007456862 -0.078907646 0.05801175 0.053946372 0.020690175 0.04941466 -0.024392666 -0.03914665
0.034624126 0.078375995 0.06747573 -0.041968167 -0.083065376 0.013035477 0.050710797 -0.046202518
0.003555317 0.022131875 -0.07874138 0.07692297 0.023683537 0.0028765702 0.03152356 0.022819528
-0.025115583 -0.074787706 -0.031118665 0.07224921 0.013046952 0.052021485 -0.035074275 -0.023857392
0.058463167 -0.077360146 0.026960177 -0.079621024 0.05568188 0.03466125 -0.04187159 0.01985753
-0.044855017 -0.00069767714 0.078506485 -0.016385172 0.034430858 -0.024115568 -0.026876494 -0.060839444
0.009723277 0.03543291 -0.07111558 0.009639311 -0.018763278 0.028168172 0.062200215 -0.006397148
0.018490773 -0.036890473 0.04143465 0.058117766 0.03170441 0.072522216 0.009724574 -0.030409124
-0.047665037 0.022752715 0.059643533 0.028673675 0.0721068 -0.060300194 0.0025585522 0.07534427
-0.016622113 -0.027327383 0.06944806 -0.06624738 0.06765753 0.060055148 -0.062299863 0.07080676
0.058617476 0.050227493 -0.083246686 0.060831033 -0.045897577 0.034574684 0.055549823 0.036265116
-0.011827354 -0.070052065 0.009192617 -0.022132142 0.05754316 0.023667099 0.051478688 -0.061108064
-0.057858832 0.043078244 0.056241307 -0.043719664 -0.051499933 0.032856002 -0.013553518 0.06978642

column2.0.bias f4 [10]
00000000: 5d9d 36bd f320 923d 16ae c4ba 984e 1cbd
00000010: 5410 aabd e9e5 2ebd 4ca5 95bd 4085 553d
00000020: 0ef5 7c3d 9ac6 48bd
-0.044583667 0.07135191 -0.0015005495 -0.03816089 -0.083038956 -0.04269973 -0.073069185 0.05212903
0.06175714 -0.049017526

column2.3.weight f4 [20, 10, 5, 5]
00000000: eb12 5bbd 2c72 1b3d b3ba ed3c 057d 27bd
00000010: 8804 51bd 8bb6 1a3d 295d 4abd fe87 44bd
00000020: c92e 64bc a424 813d d1d3 29bd 86db 8f3d
00000030: a475 c53b 609c 44bd b493 8c3c 1953 3cbd
00000040: 85d7 0a3d a88c ed3c 3108 87bc 0988 ed3c
00000050: d40d 13bd b7f2 70bc c7ea 663d 51e1 1b3d
00000060: 9f70 873d c930 df3c b72e 1fbd b406 453d
00000070: 1dbb d6bc 51c6 6fbd e9b8 413c f6ad 6d3c
00000080: 4653 343d 5903 e33c ad0e c63c 399e 5a3d
00000090: 9fbd 453c d5da 023d 0b98 f73c ef34 4f3d
000000a0: 211a 623d fe3b 4b3c a94f fabc 739f 27bd
000000b0: 2585 27bd 8d2f 08bd dd28 763d 47c1 c1bc
000000c0: 7d41 5a3d 695c 06bd bd64 f5ba e434 cb3c
000000d0: ec99 04bb 6351 363d def7 febb 2d20 043d
000000e0: d1d2 4f3d a1af 403d 395a 073c 0262 0c3d
000000f0: 57a2 a7bc e9ff 9c3b 9dee 26bd 63d4 523d
00000100: 6a38 6a3c f321 7d3d 401f 8c3d d0bc 97bc
00000110: 77d6 18bd 8656 50bd 94fd 17bc cdaa 09bd
00000120: 0ca9 0a3d 52da 81bc 8993 22bd aed8 a2bb
00000130: 310d 2a3d 304e 8ebc 3497 863c b537 4e3d
00000140: 0f97 a5bc f06f ba3c 11ec 493d c7ed 00bd
00000150: 1b33 753d 9699 683d e95c 07bd a5ad 0f3d
00000160: 991a 1abd b429 e93c f13c e3bc 52b1 833b
00000170: 75a7 f4ba 4954 38bd fdb8 81bc bac1 b7bc
00000180: 9c4e a43c 6504 fd3c 1aa2 813d 9c43 cc3c
00000190: 994d 74ba e8c1 9fbc 0866 353d c0c3 613d
000001a0: d43a d83a 3bf5 74bd 864f 2c3b 3275 703d
000001b0: a106 cabc 64e0 debc 9c3b bcbc 8c24 513d
000001c0: 679e fc3b c242 2ebd 404f 35bc 7652 33bc
000001d0: 1d32 b8bc 2ccc 6dbc ffbd 00bd a155 36bd
000001e0: b0cc 72bc d566 79bd 4dbc 7b3d 757f cc3c
000001f0: c8a8 143d ee66 7f3d 5a74 6abd b42c 333d
00000200: 0523 663d f5fb a13c 04c1 8d3c 87cb ddbb
00000210: d670 f6bc a77f cfbb 6c79 083d 6487 6f3d
00000220: 1301 c43c bca5 693c cf1a 08bd f842 603d
00000230: 2b3d 82bc 9f6c a1bc c5d5 2fbb 8251 cabb
00000240: 2f77 ff3a f933 68bd 6bc1 333d 7d80 e2bc
00000250: 79fd 17bd 0cdb 123d 65dd 73bd 5ae6 babc
00000260: 64fe 17bc 81b4 0e3c 0946 a63c 2231 48bd
00000270: eb32 c7bc b9b1 363d b479 4fbd 6e6b 38bd
00000280: 9381 c338 f601 673c 9d05 62bd feb5 823c
00000290: 7590 07bd 042a 863c 2fb6 1b3d 0c75 bbbc
000002a0: 496f 04bd a5f3 b13c e5ec 283d 868a 793d
000002b0: a154 8abb 572e babc 0eef 64ba 5861 1fbd
000002c0: a1ab 3e3d 05d9 27bd bd72 153b 7e94 6abd
000002d0: 298c 1fbc 031f 14bb 2f8c 683d bf83 40bd
000002e0: 2ebe 2d3d a6e6 883d 7d22 2bbd 0450 203c
000002f0: 3d40 883d 49e4 4a3d dbd1 29bd 3e78 2fbd
00000300: f5e6 3f3c 7db3 b6bc a5d3 98bc 6772 773d
00000310: a8f0 883d 21dd 883d b6f7 58bd 6077 073d
00000320: 3162 7dbd e529 73bc 5640 813d 74a4 803d
00000330: 2555 503c 7a79 d7bc 2ddd 523d f664 893c
00000340: 41e3 253d 4f37 18bd 147c 7e3d 2c1b 3c3d
00000350: c9f6 96bb 5210 b63c 7beb 193d 59ed 5f3d
00000360: 9308 25bc c7f6 3b3d 8139 9f3a 21c2 293d
00000370: 870f d8bc aeb6 193d fad1 4bbd 4a5f 953c
00000380: fdf1 54bd fb93 b0bc 62e5 ea3b a049 0f3d
00000390: 9be7 83bd 8259 b53c ac03 a5bc 877d a0bc
000003a0: 8bc6 293d eb47 433d c2ab b63b bd10 4bbd
000003b0: 5319 603d d666 5d3d a084 36bd 1ea5 24bd
000003c0: b2ff 17bd ffac 663d b02e 0d3d 36a3 ab3b
000003d0: 715d 513d d7f7 613d eb89 7b3d 33fb 2abd
000003e0: d8f3 b1bb 3619 8a3c c798 84bc da09 833c
000003f0: 0ebe 763d edd7 75bd 255e 3e3c 0abd 81bc
-0.05348484 0.03795068 0.02901969 -0.040890712 -0.051029712 0.037771743 -0.04940525 -0.047981255
-0.01392717 0.06305817 -0.04146177 0.07024293 0.0060259867 -0.048000693 0.017160274 -0.045977686
0.03389694 0.028997734 -0.016483398 0.02899553 -0.03590186 -0.014706305 0.056376245 0.038056675
0.06613278 0.027244942 -0.03886291 0.048102096 -0.02621227 -0.05853874 0.011823871 0.014506808
0.04402473 0.027711557 0.02417692 0.05337355 0.012069135 0.031946976 0.030223867 0.05058759
0.0552007 0.01240444 -0.030555563 -0.040923547 -0.04089846 -0.033248473 0.060097564 -0.023651732
0.05328511 -0.032802973 -0.0018722039 0.024805494 -0.0020233346 0.04451121 -0.007781013 0.032257248
0.05073816 0.047042493 0.008261257 0.034273155 -0.020463152 0.004791249 -0.040754903 0.05147208
0.014295677 0.061799955 0.06841898 -0.01852265 -0.037313905 -0.050863765 -0.009276766 -0.033610154
0.033852622 -0.015851174 -0.03969148 -0.004969678 0.041516487 -0.017371267 0.016429521 0.050346095
-0.020213632 0.022758454 0.049297396 -0.031476762 0.05986319 0.056787096 -0.03304759 0.03507771
-0.03762302 0.028462268 -0.02773902 0.004018941 -0.0018665629 -0.045002256 -0.01583528 -0.022431243
0.020057015 0.030885885 0.063297465 0.024934582 -0.0009319424 -0.019501641 0.044286758 0.055118322
0.0016497024 -0.059804182 0.0026292517 0.058705516 -0.024661364 -0.027206607 -0.022977643 0.051060244
0.0077093127 -0.042544134 -0.011066258 -0.010944953 -0.022484833 -0.01451401 -0.031431194 -0.044515256
-0.014819309 -0.060889084 0.061458874 0.02496312 0.036293775 0.06235402 -0.057239868 0.043743804
0.05618574 0.019773463 0.017303951 -0.006768647 -0.030083101 -0.006332356 0.033318922 0.058478728
0.023926293 0.014260706 -0.03322869 0.054751366 -0.015898308 -0.019705115 -0.0026830297 -0.0061742673
0.0019490476 -0.05669019 0.04388563 -0.027649159 -0.037106965 0.03585343 -0.05953731 -0.022814918
-0.00927696 0.008710028 0.020297067 -0.04887498 -0.024316272 0.044603083 -0.050653175 -0.045024328
9.32246e-05 0.014099589 -0.055181134 0.015955921 -0.03309675 0.016377456 0.03801554 -0.02288296
-0.032332692 0.021722624 0.041241545 0.060923122 -0.0042215143 -0.022727175 -0.00087331317 -0.038911194
0.046550397 -0.04097845 0.0022803985 -0.05727052 -0.009738007 -0.0022601492 0.056774314 -0.047000643
0.042417698 0.06684618 -0.041780937 0.009784702 0.066528775 0.049534116 -0.0414599 -0.04283928
0.011712779 -0.022302384 -0.018655607 0.060411837 0.066865265 0.06682802 -0.05297061 0.03307283
-0.06186122 -0.014841531 0.06311099 0.06281367 0.012715613 -0.026303042 0.05148046 0.016771775
0.04049993 -0.03716212 0.06213005 0.04592435 -0.004607056 0.022224579 0.037578087 0.05466971
-0.010072845 0.045889642 0.0012147875 0.0414449 -0.026374592 0.037527733 -0.049760796 0.018233914
-0.05198859 -0.021554938 0.007168458 0.034982324 -0.064406596 0.022137407 -0.020143352 -0.019591106
0.04144911 0.04767601 0.0055746743 -0.04957651 0.05471165 0.05405315 -0.044560075 -0.04019653
-0.037109084 0.056317326 0.034468353 0.005237962 0.051114503 0.055168 0.061410826 -0.04174347
-0.00543068 0.016857725 -0.016186131 0.015995909 0.060239844 -0.060020376 0.0116191255 -0.015837211

column2.3.bias f4 [20]
00000000: 0e71 58bd 1127 a5ba 0307 3dbd 2937 9ebb
00000010: 61df 4ebd bcee 0fbc 66fe 0dbd 297b 013d
00000020: 3b89 4bbb fdc8 bcbc 56ef 9c3c e5ca 7d3d
00000030: 8a0d 753d b93c 3a3d 2ded 1a3c f8be 2b3d
00000040: 844e 053d e739 da3c 288e 7dbd b91f f33c
-0.052842192 -0.0012600144 -0.046149265 -0.004828353 -0.050506 -0.008784946 -0.03466644 0.031611595
-0.0031057138 -0.023045057 0.019157093 0.061961073 0.059827365 0.045468066 0.009455961 0.04193017
0.03254558 0.026638938 -0.06190315 0.029678212
