src/crowd_counting.pth (torch, 583795 bytes, 31 tensors)

column1.0.weight f4 [8, 3, 9, 9]
000000 62 7f c6 3c a1 1c f6 bc 55 90 f4 3c 9b 6d 6a 3c
       0.024230663 -0.030042948 0.02985398 0.014308359
000010 a7 6e bc 3c 56 d9 27 bd 66 7a 2a 3d 09 3d 06 3d
       0.023001982 -0.040978752 0.041620634 0.03277305
000020 07 66 82 3b 68 e2 e8 b9 e5 bc 5f 3d e6 85 00 bc
       0.0039794478 -0.00044419174 0.054623503 -0.007844424
000030 66 f0 5b bd 47 76 92 bc b3 3c 0d 3c b3 15 c6 3c
       -0.05369606 -0.017878665 0.008620429 0.024180269
000040 64 7d bc bc bf de cf bc 63 44 02 bd c4 c6 dc bc
       -0.02300901 -0.025374768 -0.0318035 -0.026950248
000050 4d bd 14 bc 2c 90 c7 bc d7 71 03 bd 94 3a cb bc
       -0.009078336 -0.024360739 -0.032090988 -0.024808206
000060 64 c7 05 bc 4d 4c 7a bd 8d 99 62 3d 04 ae ac bc
       -0.008165214 -0.061107922 0.05532222 -0.02107907
000070 ec 44 88 bd 72 3f 46 3d 06 86 70 bc 5b 53 e1 bc
       -0.06653771 0.04840035 -0.014680391 -0.027505567
000080 7d f1 6d bd 16 21 94 3c ef 80 84 bd 3b 1b 63 3c
       -0.05809163 0.018082183 -0.06469905 0.013861473
000090 c6 68 9c 3b 04 f6 f5 bc f5 e9 3a bd a4 ab ea 3c
       0.004773232 -0.030024536 -0.045633275 0.028646298
0000a0 e8 ab c5 3c 8c 37 59 3d 38 83 5f bd 94 d1 e0 3c
       0.024129823 0.05303149 -0.0545685 0.027443685
0000b0 35 eb ab bc 37 20 85 3c 28 37 37 3d 61 4a 2c bd
       -0.020986179 0.016250713 0.044730335 -0.04206312
0000c0 3a b0 62 3c c4 c1 33 3d cc 10 c4 3b 99 6d 03 bc
       0.013835961 0.04388596 0.0059834477 -0.008021736
0000d0 bd 7b 8b ba 29 ec 75 3d ce 2a 28 bd 29 b9 3a bc
       -0.0010641735 0.060039673 -0.041056447 -0.011396685
0000e0 79 e8 55 bc 02 70 0d bd e1 72 86 bd fc 9a 8a 3c
       -0.013055914 -0.034530647 -0.0656488 0.016919605
0000f0 5f f5 88 bd 01 5e 96 3c 7f 95 49 3c 92 df 0a bd
       -0.06687426 0.018355371 0.012303709 -0.03390462
000100 7a 23 04 3d cd 84 da bc 74 cd dd bc 08 51 e1 bc
       0.032260396 -0.026674652 -0.027075507 -0.027504459
000110 96 c5 57 3c c9 4b 80 bd 9c 4b 04 ba c3 fe 4c 3d
       0.013169667 -0.06264455 -0.0005046667 0.050047647
000120 8e e3 0e 3d ec d2 d8 3c aa 6e fd bb 17 ba 1f 3d
       0.03488498 0.026467763 -0.0077341394 0.03899583
000130 91 7b 93 bb 3b a2 3c bd 55 73 91 3c f0 1d 6e 3d
       -0.0045008142 -0.046053153 0.01775519 0.05813402
000140 94 64 5a bd e5 f0 11 3d ab da b1 3a f7 4d a5 3b
       -0.053318575 0.035630126 0.0013569196 0.0050446945
000150 3d c7 1a bd ca 36 62 3d 34 33 bd bc 5d 11 09 3c
       -0.037787665 0.055228032 -0.023095705 0.008365956
000160 ec f4 d1 bb 1a ad 50 bd 78 08 04 3c be 00 4d bc
       -0.006407371 -0.050946333 0.00805866 -0.012512384
000170 70 8d a2 bc 30 19 8f 3c 18 79 c5 bc 51 39 e8 3c
       -0.019842833 0.017468065 -0.024105594 0.028347643
000180 6c 3b 3d bd 4b 8d 33 bd ee 47 44 bd b1 bb 0b bd
       -0.046199247 -0.04383592 -0.04792016 -0.034114543
000190 41 01 7a 3b 54 cd 14 3d eb eb 36 bd f2 0c 56 3d
       0.003814772 0.03632863 -0.044658583 0.05225844
0001a0 7c 66 07 3d a6 f8 10 bd 88 24 47 bd 3c 40 d0 bc
       0.03305672 -0.03539338 -0.048618823 -0.025421254
0001b0 7f 6a f8 3c c1 65 4f 3d 62 2d 19 3d a7 6d 49 3d
       0.030324219 0.05063415 0.037396796 0.04917684
0001c0 b1 b9 53 bd 93 c0 69 bd 24 64 22 3d 21 ea 1e 3d
       -0.05169076 -0.05706842 0.039646283 0.0387975
0001d0 59 b5 1a bc 3a 8c d8 bc 41 c2 4f 3c fa 21 11 bc
       -0.009442651 -0.026434053 0.012680591 -0.008858198
0001e0 3f 0a 81 bd 62 31 84 bb 6b d9 5d 3d 84 98 35 bd
       -0.063007824 -0.004034207 0.054162424 -0.044334903
0001f0 80 2c 8a bd d3 b7 6e 3d e5 98 5c bd d0 b8 56 3c
       -0.06746769 0.058280777 -0.05385675 0.013105586
000200 97 65 71 3b 2d 08 57 3d fb d8 94 bc f5 a2 d3 bb
       0.0036834234 0.05249803 -0.01816987 -0.006458635
000210 21 2a 3b bb 17 19 db bb c5 9c 35 3d 9d 97 62 3d
       -0.0028559046 -0.0066863406 0.04433896 0.05532037
000220 77 03 ed 3c 5f 46 77 bd d6 3e 10 bb 43 3d e6 3c
       0.028932316 -0.060369845 -0.002201011 0.028105384
000230 95 22 27 3c aa cd 43 3d 8f 8e 4f bd b1 a9 38 3d
       0.010201116 0.04780356 -0.050673064 0.045083705
000240 54 06 d4 3b 2a 67 a6 3c 96 8d c2 bb eb 00 33 3d
       0.006470481 0.020312864 -0.0059372885 0.043702047
000250 d9 b9 2c bd b2 5d ad 3c 7c 92 39 3c 10 04 c0 3c
       -0.042169426 0.021162841 0.0113264285 0.023439437
000260 7b dc 4b bd a5 e9 15 3d 71 83 21 bd b9 fc d5 3c
       -0.049770813 0.036599774 -0.039431993 0.026121484
000270 a9 19 50 bd 17 d4 a5 bb 20 86 2b bd 5f fa 6e bd
       -0.05080572 -0.0050606835 -0.04187596 -0.05834424
000280 b7 ca da 3c 22 4f 1b bd 09 4c 5b 3d f8 77 cc bc
       0.02670799 -0.037917264 0.05353931 -0.02495955
000290 6c 46 1a bd 81 2b 4d bd 4e 4a 21 bd bf 62 70 3d
       -0.037664816 -0.050090317 -0.039377503 0.05868792
0002a0 23 3e c4 3c 3d 34 50 bd 61 9a 53 3d 46 83 91 3c
       0.02395541 -0.05083107 0.0516609 0.017762791
0002b0 46 d6 d4 39 a5 7e 08 bd 87 8b 5f bd 8d 6a e7 3c
       0.00040595437 -0.033323903 -0.054576423 0.02824905
0002c0 b5 74 03 bb 1d 49 7c bd 2f 21 2b bd 49 fb 84 bb
       -0.0020058576 -0.061593164 -0.041779693 -0.004058276
0002d0 5e 69 6c bd e6 23 fb bc a8 81 f5 bc 4d 3f 22 bd
       -0.057717673 -0.030656766 -0.029969051 -0.03961115
0002e0 91 98 0a 3d f6 f4 8f bc 5f 96 82 3c f8 a1 b2 bc
       0.033836905 -0.017572861 0.015940843 -0.021805748
0002f0 be 1a 7b bd c7 b1 f7 3c 82 94 05 bc 7d ec 14 3b
       -0.0613048 0.030236138 -0.008153083 0.0022723966
000300 ff f4 59 bd 56 e5 5d bd 04 cf 05 bd 8a d1 85 bd
       -0.053212162 -0.05417379 -0.03266813 -0.06534107
000310 4c 67 37 bc 6d 24 0f 3c 39 be b3 3a a8 f4 2c 3c
       -0.0111940615 0.008736712 0.0013713307 0.0105563775
000320 f7 26 14 bd a3 63 58 bc 8e 7b 73 bd f6 37 72 bd
       -0.036169972 -0.013207349 -0.059444003 -0.0591354
000330 ec 2d 6c 3d 7e 26 7e 3c a0 34 49 3d d6 53 fa bc
       0.057660982 0.015512107 0.049122453 -0.030557554
000340 16 5d 2b bc 80 ae be 3c d4 ef 96 bb 79 ad 5b 3d
       -0.010459205 0.023276567 -0.0046062265 0.053632233
000350 29 e0 22 3d 6f ca a8 3c ff 70 10 3d 8f 49 7e bc
       0.039764557 0.02060434 0.03526401 -0.015520467
000360 34 58 97 3c d8 8b 17 3d 8b 65 7d bd ef 36 76 39
       0.018474676 0.0369986 -0.061864417 0.00023480853
000370 67 e0 cb bc 7c a3 b6 bb 2e 38 3d bd e0 9c f5 3b
       -0.024887277 -0.005573688 -0.046196155 0.0074955076
000380 58 b4 ca 3b e8 1f 80 bc dd b9 0b bc 4c 50 bb 3b
       0.0061860494 -0.015640214 -0.0085282 0.0057163592
000390 da 67 87 bd 02 75 87 bd ad 94 4d bd a3 d7 93 3c
       -0.06611605 -0.06614114 -0.050190616 0.01804716
0003a0 20 9a 84 bd 14 07 33 3c 2d f1 0e bd ed 38 9e 3c
       -0.064747095 0.0109269805 -0.034897972 0.019314254
0003b0 f4 30 d2 bc 16 27 99 bc 3e 3c 18 3d d5 b6 88 bc
       -0.025658108 -0.018695395 0.037166826 -0.016688744
0003c0 3e a8 2e bd 2c fe 62 bd da c2 16 bc f6 db f1 bc
       -0.042640917 -0.05541818 -0.00920173 -0.02952383
0003d0 83 c3 18 bd 8f 0f 14 3d 00 9b f8 3c 8e 6b 3d bd
       -0.03729583 0.03614765 0.030347347 -0.04624515
0003e0 16 40 fa 3a 3c 6a 36 bd a2 a4 03 bc 11 31 4b 3c
       0.0019092585 -0.044534907 -0.008034857 0.012401835
0003f0 e6 65 d3 bc 8f 13 87 bd ef da 0b bc 12 d8 1a 3d
       -0.025805425 -0.065955274 -0.008536085 0.037803717

column1.0.bias f4 [8]
000000 42 cc 36 3b 67 1d 85 3d 93 4b 32 bd 28 fe 05 ba
       0.0027892743 0.06499749 -0.043529104 -0.00051114196
000010 45 d9 32 bc 74 26 05 3d 57 36 2c bd 48 bd 2a 3c
       -0.010916059 0.032507375 -0.04204401 0.010421105

column1.3.weight f4 [16, 8, 7, 7]
000000 83 76 9d bc 5b 31 31 bd d0 5a 13 3c 93 4c 97 bb
       -0.01922155 -0.04325996 0.008993819 -0.0046172827
000010 52 e1 39 bd ef eb 14 bd f6 b5 e2 3c e3 77 0f 3d
       -0.045380898 -0.036357816 0.027674656 0.035026442
000020 34 84 2f ba 3e 0a 95 bc 69 5f dd 3a 4a f5 f7 3b
       -0.000669542 -0.01819336 0.0016889396 0.0075670825
000030 c3 3d 26 bd ab 7c c3 3a 28 26 0a 3d d2 5e d5 bc
       -0.040586244 0.0014914473 0.033727795 -0.02604619
000040 f8 fa ce bc 24 3c d1 3c 63 6f 0f 3d e4 b2 dc 3c
       -0.025266156 0.025541373 0.035018336 0.02694077
000050 ac b9 20 bd 84 2c 07 bd c6 63 a4 3c c7 3e 30 3b
       -0.03923957 -0.033001438 0.020067107 0.0026892887
000060 ae 28 39 3d af 0f 19 bd 3e ba 87 3c 19 3d 22 bd
       0.04520481 -0.037368473 0.0165683 -0.03960905
000070 a8 be 3e bd 2a e2 2d bd b8 ad 1b 3c 15 17 1f 3d
       -0.046568543 -0.042452015 0.009501867 0.038840372
000080 31 c1 8a 3a 59 50 05 3d 0f 72 15 bd 45 d7 08 3d
       0.001058614 0.03254733 -0.036485728 0.033408422
000090 c9 cb ae 3b 5c 77 1d 3d 6b 58 a3 bc 34 ed c2 bc
       0.0053343517 0.038443908 -0.019939622 -0.023794748
0000a0 89 45 0c 3c a0 d7 53 bd 54 f4 58 bb aa 62 dd bc
       0.0085615 -0.051719308 -0.0033104615 -0.027024586
0000b0 5f 1b ef 3c 8e f1 22 3d 8d 40 88 bc 1c ae 1d bc
       0.029187856 0.039781146 -0.016632343 -0.00962403
0000c0 f3 79 13 bd b1 de e5 3c a1 34 0a bd 5a 0f d7 bc
       -0.03600497 0.02806029 -0.033741597 -0.026252437
0000d0 28 c9 bd bc 2a 9e 20 3c 77 8d b4 bb d8 5b 4a 3b
       -0.023167208 0.009803334 -0.005510028 0.0030877497
0000e0 70 1a a3 3c 50 93 87 bb 33 60 67 bb ce 01 86 3c
       0.019910067 -0.004137434 -0.0035305142 0.016358282
0000f0 f9 24 41 bd cd 90 51 3c e2 54 1f 3d c4 c1 6e 3c
       -0.0471544 0.012790871 0.03889931 0.0145725645
000100 af 43 10 bd e4 93 10 3d 02 8d 14 3d e2 1c a9 3c
       -0.035220798 0.03529729 0.036267288 0.020643655
000110 31 b4 fa bc c4 4d 2d 3d ba 53 09 3d e8 25 4e bc
       -0.0306035 0.04231049 0.033527113 -0.01258228
000120 40 5c e6 3c 53 67 46 39 70 ea 4b bc ae 2d 06 3d
       0.02812016 0.00018921243 -0.012446031 0.032758407
000130 cd c6 3f 3c 62 be 10 bd c0 f2 1b 3d b0 ec c8 3b
       0.011705113 -0.035337813 0.0380733 0.006131731
000140 75 55 70 bc d3 df 16 3d 56 d3 98 3c be f4 32 bd
       -0.014668812 0.03683455 0.01865546 -0.043690436
000150 b8 63 bd bc 55 56 34 bd a9 ab 3f bd aa f6 25 3d
       -0.023118839 -0.044027645 -0.046794567 0.04051844
000160 a8 6e 7a bb 18 3a c6 3c 07 a5 1c bd de 0c 82 bc
       -0.003821293 0.024197623 -0.03824332 -0.015875276
000170 dc ca f5 bb 57 86 6c 3c f2 27 c9 ba 15 5a 91 3c
       -0.0075009894 0.014436326 -0.0015346988 0.01774315
000180 2a 42 b1 bc 66 5f 08 3d df d9 8d 3b 55 48 33 3c
       -0.021637995 0.033294104 0.004328951 0.010942538
000190 70 90 85 bc 86 c1 cd 3c 78 ba 0c bd 84 31 d3 bb
       -0.016304225 0.025116693 -0.034357518 -0.0064451117
0001a0 30 70 2e bc fa 31 f6 bc dc 0a 6a 3b da 9a 5a bd
       -0.010646865 -0.030053128 0.003571204 -0.053370334
0001b0 fa db 94 bc 31 3f 44 bd 89 4d 0c 3c 0b a2 76 bc
       -0.0181713 -0.047911827 0.008563408 -0.0150532825
0001c0 f8 b1 ba 3c bc e7 0c bb 3b ed 24 3d 13 29 c9 b8
       0.02278994 -0.002150043 0.040265303 -9.5920775e-05
0001d0 e8 0f db 3c 39 dd 03 3b c4 65 49 bd 00 6d 49 bd
       0.026740983 0.0020120873 -0.049169317 -0.049176216
0001e0 e9 14 cf bb 1d e5 37 bd 62 5b fc 3c 2f 6d 23 bc
       -0.0063196314 -0.044896234 0.030805293 -0.009974762
0001f0 d7 f1 ed bc ce b6 7c 3c f3 a6 ca 3c da 0e a0 3c
       -0.029045982 0.015424443 0.02473781 0.019538332
000200 7d 40 11 3d 0a 8d 17 3d 98 0b 53 3c aa 7d 5b 3c
       0.03546189 0.03699974 0.012881182 0.01339666
000210 34 68 f7 3b 86 de 2d 3d 5f 1d ac bc 7e eb 3c 3d
       0.007550264 0.042448543 -0.021010099 0.04612302
000220 8d 48 5a bd 05 38 2d 3d 7c f8 06 3d 87 62 b7 bc
       -0.053291846 0.042289753 0.032951817 -0.022385849
000230 e8 ee 2b bc 30 34 38 bc de 9e a6 bc 26 44 8e bc
       -0.010493971 -0.011242911 -0.020339426 -0.01736648
000240 6a 72 37 bd 79 26 81 bb 09 50 32 bb 8a df 39 3d
       -0.044786848 -0.003941354 -0.002720835 0.0453792
000250 b9 03 67 3c 20 dc bb 3c fe 54 00 bc 1d 44 0d bd
       0.014100009 0.022932112 -0.007832764 -0.034488786
000260 07 fe 44 3b b8 c0 5b bb bf d1 28 bc 75 c2 37 bd
       0.0030058639 -0.0033531617 -0.010303914 -0.044863183
000270 7a 8e 14 bd 96 3e 6c bc 92 de be bc 01 7f 73 3c
       -0.03626869 -0.0144192185 -0.02329949 0.014861823
000280 39 54 15 3d a9 9e 43 bc 5e 87 bf bc 79 a4 1b 3d
       0.036457274 -0.011939683 -0.023379978 0.03799865
000290 26 f2 1a 3d f8 94 45 bc b4 9b 03 3d fd 02 38 bd
       0.037828587 -0.012059443 0.032130912 -0.044924725
0002a0 65 98 22 bd b3 69 3f 3d 13 06 2c bd 9e 2e ac 3c
       -0.039696116 0.046731662 -0.04199798 0.021018323
0002b0 c5 0b 16 3d 03 71 18 3c 53 1b 27 3d e7 1f df bb
       0.036632318 0.009304288 0.040797543 -0.006809223
0002c0 08 0c f5 3c c7 19 ac bc fb fe e3 3b 9c 8f d0 3c
       0.029912964 -0.021008385 0.0069578863 0.025459103
0002d0 e2 b3 34 bd 92 60 95 3b e3 e8 7e bc c2 e0 da bc
       -0.044116862 0.004558631 -0.015558454 -0.026718501
0002e0 6f f6 ca bc e5 e8 29 3d eb 4a 4c bd 42 37 35 3d
       -0.024775712 0.04148187 -0.049876135 0.04424215
0002f0 7e ab 11 bc ce 5f bf bc 4a dc ee 3c 75 79 ae bc
       -0.008890985 -0.023361113 0.029157776 -0.02129815
000300 4f d2 91 bc fc a7 d2 bc 52 3c f4 3c 89 71 9e bc
       -0.017800478 -0.025714867 0.02981392 -0.019341247
000310 01 d8 1e bd 1b dd cf 3c 56 78 07 3d 11 ea fd bc
       -0.038780216 0.025373986 0.033073746 -0.0309954
000320 87 cc 36 bc 42 9d b8 bc fa 9a c2 bc fd 23 09 bd
       -0.011157162 -0.022535924 -0.02375554 -0.033481587
000330 92 83 1f 3d 4d 38 43 bc 0e 62 8a bc 54 a1 d5 38
       0.038943835 -0.011915279 -0.01689246 0.00010186681
000340 63 f2 2e bd ac a9 92 bc 59 c0 e5 3a 15 e5 14 3d
       -0.042711627 -0.017903171 0.0017528638 0.036351282
000350 3b 75 2d 3d fc 6c e6 3b 51 2a 48 3d f4 a2 7e bc
       0.042348128 0.007032035 0.04886848 -0.015541781
000360 bb 09 c4 3b 25 81 95 bb d6 40 52 3d 22 52 47 bc
       0.0059826053 -0.0045625144 0.051331364 -0.012165578
000370 d8 bd ad 3c 0b 88 04 bd 55 7e b0 3c e0 8d ca bc
       0.021208689 -0.032356303 0.021544615 -0.024725854
000380 e0 2c 9e 3c 92 6b 20 3d 81 b9 93 3b a8 d2 28 bd
       0.019308507 0.039165087 0.004508198 -0.041216522
000390 ea c0 bf 3b 23 d7 ca 3c d0 1d d0 bc 5e 41 0c 3d
       0.0058518546 0.024760788 -0.02540484 0.034242027
0003a0 d1 fd 43 3d 01 3f 5d bc ff 5b 0a bd a6 f6 69 bc
       0.04784948 -0.013503791 -0.03377914 -0.014279997
0003b0 f1 f4 13 3d 68 1b 21 3d 50 d4 44 bc 4b cd 86 3c
       0.036122266 0.039332777 -0.01201351 0.016455313
0003c0 4c 4a c7 3c a5 4d 44 3d ce 91 cc bc 33 de d5 3c
       0.02432742 0.04792561 -0.024971869 0.02610693
0003d0 00 6f 18 3d 09 b4 3b bd 95 69 3d bd bb 5e 2a bd
       0.037215233 -0.04582599 -0.04624327 -0.04159425
0003e0 4e 63 3d 3c b5 f5 06 3d d0 ac df 3c b1 ff df 3b
       0.011559321 0.03294917 0.027304083 0.0068359007
0003f0 4e 20 3c bd b7 65 c8 3c 5c 1d f1 bc 25 cf ce 3c
       -0.045929246 0.024462564 -0.029432945 0.025245259

column1.3.bias f4 [16]
000000 ea 7c ea 3c b6 cd 3c bd 6f fa 3f bd 8b 2e 5f 3c
       0.028624017 -0.04609462 -0.04686969 0.013621937
000010 77 c9 85 bb 17 3f 0a 3d c6 96 c0 bc 10 9b a4 bc
       -0.0040828544 0.033751573 -0.023509394 -0.02009347
000020 11 47 12 3d 58 f4 0f bd e7 0f 76 3c db 04 10 bd
       0.035712305 -0.035145134 0.01501844 -0.03516088
000030 41 94 f1 3c ff 12 8f bb 55 22 55 bd 0b 4c c0 bc
       0.029489638 -0.004366278 -0.052034695 -0.02347376

column1.6.weight f4 [32, 16, 7, 7]
000000 de 1d ee 3c fe 94 be bc c1 50 ab 3a b1 05 3d 3c
       0.029066976 -0.023264404 0.0013070331 0.0115370015
000010 c4 56 f0 3c 79 b3 fb 3c 3c ad c2 3c 02 ca 9b 3c
       0.029338248 0.030725228 0.023764245 0.019017223
000020 c5 42 39 3c cc d5 4a bc b3 17 0f 3b 1b 0f 50 bc
       0.011307423 -0.012380075 0.0021834194 -0.012698914
000030 ed eb cd 3c 51 ae 56 ba 1a d0 00 bd 65 fd c0 3c
       0.025136912 -0.00081894273 -0.03144846 0.023558328
000040 03 59 5c ba 5b c4 f1 bc 06 8a d9 bc 05 b8 4c 3b
       -0.0008405598 -0.029512575 -0.026555073 0.0031237614
000050 ef de 81 3c e2 ba 8c 3c 5c 7e 4d bb 3d 93 0d bc
       0.015853373 0.017178956 -0.0031355834 -0.008641061
000060 db 1e 84 3c 52 04 4b 3b 8a 75 14 bd 41 fc 00 3c
       0.016127994 0.0030977917 -0.036244906 0.007872642
000070 38 68 85 bc b3 43 51 3c 95 45 f6 3b 25 f8 7e bb
       -0.016285047 0.012772488 0.007515619 -0.003890523
000080 e9 d7 d4 39 6e 4c ca 3c bf 19 34 3b fa fa 19 bd
       0.00040596657 0.024694648 0.0027481166 -0.037592866
000090 2b b3 0b bd e8 f5 14 3c ae a3 10 bd ec e0 9d 3c
       -0.034106415 0.009091832 -0.035312347 0.01927229
0000a0 4e ab e3 3c 46 0e 83 3b 17 c6 e7 3c a9 8c 1f 3c
       0.027791645 0.0039995043 0.028292699 0.009738126
0000b0 2a 86 ed 3b 09 b6 df bc b4 e4 e7 3c b9 ec 95 bc
       0.0072486596 -0.02730848 0.028307296 -0.018301355
0000c0 89 51 dd 3c ca b2 a6 bc 7a 93 ae 3c ca 7e b2 3b
       0.027016418 -0.020348925 0.021310557 0.0054472433
0000d0 18 cf 42 3b b1 e3 e3 3c 94 7a 35 3c b1 ae 0c 3c
       0.0029725488 0.027818533 0.011076588 0.008586572
0000e0 cc 29 6b ba 3e c4 75 3c c7 0c c6 3c 36 78 94 bc
       -0.0008970767 0.015000401 0.024176015 -0.018123727
0000f0 7a 68 8b bb 95 b4 87 3c ee eb 98 39 59 01 e9 bc
       -0.004254398 0.0165656 0.0002916748 -0.028443025
000100 73 d7 81 3c 46 69 b2 3a 40 c2 92 3c 30 22 22 bc
       0.015849805 0.0013611696 0.017914891 -0.009895846
000110 96 bb 58 bc 26 77 ba 3c 48 aa b6 3a 08 c5 f3 bb
       -0.013228318 0.022761893 0.0013936246 -0.0074392594
000120 47 63 92 3c a4 69 3e bc 39 06 a1 3c a2 ec 54 3b
       0.017869605 -0.011621866 0.019656288 0.0032489677
000130 50 f5 b6 3c 01 3d 17 3c 25 4b 6b bb c2 95 d3 bc
       0.022333771 0.009230853 -0.0035902944 -0.025828246
000140 91 21 86 3c 8a e8 42 3c ec 4c f6 3c 14 3e fd bc
       0.016373428 0.011896262 0.030065976 -0.03091339
000150 c3 9f 22 3b f3 2a c0 bc e3 ee 5a 3b 89 1e b0 3b
       0.0024814464 -0.02345798 0.0033406548 0.005374734
000160 90 50 be 3c 3a 5a f1 bc 22 6a c0 3b 71 ff d7 bc
       0.023231775 -0.029461969 0.005872027 -0.026366921
000170 2e 99 19 bc 5e f7 60 bb c6 53 fa 3c 63 46 13 bd
       -0.0093749 -0.003432713 0.030557524 -0.035955798
000180 1f 41 51 bc 6b 81 46 3c 83 53 f5 3c ae 2d dc 3c
       -0.012771874 0.012115817 0.029947048 0.02687725
000190 bf fa cd 3a 99 fd 57 3c d7 26 bf bc 3e b8 e8 bc
       0.0015714987 0.013183021 -0.02333395 -0.028408166
0001a0 26 d3 1c bc 56 08 f3 3c 08 1c cb bc 3f 1b 76 3c
       -0.009571826 0.02966706 -0.02479364 0.015021144
0001b0 c8 20 55 3c 17 4c 31 bc b4 76 fa 3b 1f 3a c5 bc
       0.013008304 -0.010821364 0.007643545 -0.024075566
0001c0 50 d2 37 3c aa b5 94 ba 08 7c f3 bc ff 87 de 3c
       0.011219576 -0.0011345644 -0.029722229 0.027164457
0001d0 e7 7b dc 3c 85 28 e0 b9 6c bb e5 bc d1 f5 4e bc
       0.02691455 -0.000427548 -0.028043471 -0.012631849
0001e0 f0 b4 87 3b f7 8e c1 3c 19 a6 63 3c 84 fe e2 3b
       0.0041414425 0.023627741 0.013894581 0.0069273133
0001f0 14 f7 dd bc db 53 5f bc 9e 4a 04 3d 96 58 82 3c
       -0.027095355 -0.013630833 0.032297723 0.015911382
000200 21 e1 a4 3c e3 43 42 3c e0 cd 92 3c 7f 40 09 3d
       0.020126881 0.011857006 0.017920434 0.033508774
000210 bb c2 0e 3d b8 a5 8a bc b6 11 40 bc b7 c9 15 3d
       0.03485368 -0.016924724 -0.011722973 0.036569323
000220 bf e3 4c ba ac 77 93 bb 6a 7c f6 bc 66 28 4f 3c
       -0.0007815919 -0.00450035 -0.030088622 0.012643909
000230 31 ec 0b 3d 42 62 e8 bb 43 9c 29 bc b7 3e 2d 3a
       0.034160797 -0.0070917914 -0.010352197 0.00066087715
000240 fa e5 06 3d fa b1 8b bc 0f 86 b6 3c f8 7b 22 bc
       0.032934166 -0.01705264 0.022280721 -0.009917252
000250 ab 51 83 3b 2a d4 45 bc 39 96 dc 3c 10 12 df bc
       0.0040075383 -0.01207451 0.0269271 -0.027230293
000260 fe 94 03 3d e4 20 b0 3c 30 55 40 bc 23 38 48 3a
       0.032124512 0.021500058 -0.01173906 0.00076377596
000270 35 9f ed 3b 28 3d f7 bc 1b ce ff bc b7 47 95 bc
       0.007251645 -0.030180529 -0.031226208 -0.018222673
000280 3e 93 34 b9 93 51 a3 3c 86 83 ba 3c 3a c4 03 3d
       -0.0001722099 0.019936359 0.022767793 0.032169558
000290 2a c9 3b bc 19 97 b6 bc 45 0a d6 3c 89 a8 bd bc
       -0.0114615355 -0.022288846 0.026127944 -0.023151653
0002a0 d0 33 c9 3c 48 4e 23 3c cb 07 54 39 0b af f2 3c
       0.024560839 0.009967394 0.00020220799 0.029624483
0002b0 c4 65 d9 3c e5 e2 a8 bc 47 53 a5 bb ce 46 e0 bb
       0.026537783 -0.020616004 -0.005045328 -0.006844378
0002c0 59 50 87 3b 9a f4 99 3c f7 0e 15 bd 80 38 0b bd
       0.0041294512 0.018793393 -0.036391225 -0.03398943
0002d0 6d 2d 11 bd 63 16 02 3d c7 cf ba bb d2 69 65 3c
       -0.035443712 0.03175963 -0.0057010385 0.01400228
0002e0 99 7d 05 3d 0f 94 00 3c 8d 2e 08 3b a6 08 fb bc
       0.032590482 0.0078478 0.00207797 -0.030643772
0002f0 45 73 e2 bb aa 7e 29 bc 2e e1 86 3c 30 5d ea 3c
       -0.006910714 -0.0103451405 0.016464796 0.028608888
000300 c5 d7 3c bc 68 1f 2c bb 92 b3 04 bd c3 9f eb bc
       -0.011526053 -0.0026263837 -0.032397814 -0.028762704
000310 97 b9 c7 3c e7 9d fe bb a2 b7 0d 3c 04 81 bf bb
       0.024380488 -0.0077702883 0.0086497385 -0.0058442373
000320 6c 02 aa ba 00 0a 08 bc 1f 8f be bc 9b cd e1 3c
       -0.0012970692 -0.008303165 -0.023261605 0.02756386
000330 2d 99 bd 3c b0 29 ce bc 94 7d 57 3b bd 84 fb bc
       0.023144329 -0.025166363 0.0032881247 -0.030702943
000340 9d a6 86 3c 56 79 c3 3c 35 c5 03 bd ac 55 5a 3c
       0.01643687 0.023861568 -0.032170493 0.01332609
000350 c4 f3 a0 bc e4 2d 1e bc 35 ae 1a bd c8 1e f2 3b
       -0.019647487 -0.009654496 -0.037763793 0.0073889233
000360 db 92 98 bc fb 64 02 3c b7 5a 38 3b d6 89 a6 bc
       -0.018624714 0.007958646 0.0028130242 -0.020329397
000370 4e 95 ca bc 50 2b 35 bb 28 c9 c0 bc a1 a9 3b 3c
       -0.024729397 -0.0027644224 -0.023533419 0.011454017
000380 b9 5c 2b bc 6b 87 d3 3a 41 88 5f 3c 06 23 e2 3b
       -0.0104591185 0.001613838 0.013643325 0.006901148
000390 49 9d 6d bc 57 61 2d bc d9 1e ef 39 9f 51 a3 3c
       -0.014502832 -0.01058229 0.00045608616 0.01993638
0003a0 61 76 ae 3c 8e 3c 81 3c 54 31 e2 3c c6 bb 8c 3a
       0.021296682 0.015775945 0.027611412 0.0010737113
0003b0 6a 9a d0 bc 80 fd 3c 3c 04 39 43 ba 1b 32 5f bc
       -0.025464255 0.0115350485 -0.00074471557 -0.013622786
0003c0 66 d0 f7 bc 74 b3 13 bc e5 52 0a bd df fb dc bb
       -0.03025074 -0.009014953 -0.03377046 -0.0067438926
0003d0 84 fa 6a 3c 18 94 b5 3c 4e 20 06 3d b9 ca b1 bc
       0.014341954 0.022165343 0.032745652 -0.021703111
0003e0 4c 1a 88 bb 77 f0 21 bc de 59 c5 bc 4f 9f f9 3a
       -0.0041535255 -0.009883991 -0.024090704 0.001904467
0003f0 32 47 3d bc 45 69 02 bd 13 52 01 3d 8b e5 bd bc
       -0.011552619 -0.031838674 0.031572413 -0.023180744

column1.6.bias f4 [32]
000000 b9 2c b2 3b 2d 9a 16 bd 2f b1 16 3d c2 2f 66 3c
       0.0054374603 -0.036768127 0.03679007 0.014049472
000010 00 0e f0 3c d5 bf 80 3b fc 62 f1 bc 1c 89 86 bc
       0.02930355 0.003929118 -0.029466145 -0.0164228
000020 3e ef 89 3c 89 25 29 bd f9 f0 13 bd 99 f8 ed 3c
       0.016837712 -0.041295562 -0.03611848 0.029049205
000030 b1 e7 5d 3c f9 0e 1e bd ff 5d af 3c 8c 7e e2 3a
       0.013544009 -0.038588498 0.021407126 0.0017280146
000040 70 9a ef 3c 84 e4 52 bc af 8c 16 bd ad 36 00 bd
       0.029248446 -0.012871865 -0.03675526 -0.031302143
000050 35 d3 a5 bb 1b 73 ad 3b 69 14 62 bc a9 6b 2a 3d
       -0.005060578 0.0052932627 -0.0137988115 0.04160658
000060 92 3a 6f bc 59 11 09 bd 17 5d 87 3b 2d cf 28 bd
       -0.014601367 -0.03346381 0.00413097 -0.041213203
000070 55 bc 88 bc 26 72 b5 bc 6a fb cc bc 79 4e 04 3c
       -0.016691366 -0.022149157 -0.025022227 0.00807535

column1.8.weight f4 [16, 32, 7, 7]
000000 ea cf c1 bc a5 8e 98 3a e4 37 68 3c 58 32 e4 3b
       -0.023658711 0.0011639191 0.014173482 0.0069640093
000010 05 03 87 bc 65 8c 15 3c 4e ee a2 3c 88 d2 fe bb
       -0.016480932 0.009127711 0.019889023 -0.007776562
000020 9c a7 51 3c 50 8f 3b 3a a9 11 bf ba cd be 56 3c
       0.012796309 0.0007154839 -0.0014577407 0.013107014
000030 da 69 c9 bb 15 82 a1 bc 57 18 67 bc 1d 9b 80 3c
       -0.0061466517 -0.019715348 -0.014104924 0.015698964
000040 1a 22 65 bc d6 db 92 bb 41 a1 93 3c bf 17 0f 3c
       -0.013985181 -0.004481773 0.018021228 0.008733689
000050 a9 fe 57 bb 26 20 89 3c 20 34 0a 3c c8 4c 3e bc
       -0.0032958186 0.016738962 0.008435279 -0.011614986
000060 b4 55 6a 3b f6 18 1b bc c8 d8 b2 3c d5 ef 29 3b
       0.003575665 -0.0094664 0.021831885 0.0025930305
000070 0e fa 98 3b ee 08 55 3c 5a 22 bd 3c ec 06 02 bb
       0.0046684807 0.013002617 0.02308767 -0.0019840552
000080 bd bd ba bb 77 26 9b 3b 9d 90 cb bc ee 17 01 3c
       -0.005698888 0.00473481 -0.02484923 0.00787924
000090 e4 51 81 bc d8 ea 5d bc 24 7e ac bb c3 df 29 3c
       -0.015786119 -0.013544761 -0.0052640606 0.01036829
0000a0 37 9c 1f 3c 85 27 72 bb bf 56 b3 3c 1f 96 29 bc
       0.009741834 -0.0036949825 0.02189195 -0.010350733
0000b0 46 99 ef 3a 3c 06 9c 3c a6 3e fe bb 44 da c6 bc
       0.0018279932 0.019045942 -0.007758933 -0.024273999
0000c0 39 2e 99 bb a3 1b 62 3c bd 10 a8 ba 40 a6 a3 bc
       -0.0046746996 0.013800534 -0.0012822371 -0.019976735
0000d0 87 42 18 bb d0 02 42 3c 31 59 06 3c 94 fb 61 3c
       -0.0023233013 0.011841491 0.008199976 0.013792891
0000e0 7f a3 c9 bc e7 eb 5f bc 2f 8e 1f 3c 22 a6 67 3c
       -0.024614094 -0.013667083 0.009738489 0.01413873
0000f0 b2 8e 1f bc df 1d 6d 3c 41 b9 ec bb 8c 2c d1 bc
       -0.009738611 0.014472454 -0.0072242324 -0.025533937
000100 4b d2 08 bb e4 8d f7 39 24 14 9a bc 7b f6 a2 3c
       -0.0020877298 0.00047217228 -0.018808432 0.019892922
000110 4b bd 1c 3c c6 75 fa 39 a6 79 84 3c 3f f1 ad bb
       0.009566615 0.00047771464 0.016171288 -0.0053083
000120 7d b4 2f bb 11 9e 3b 3b 38 0f 25 3c 04 28 de bc
       -0.002681046 0.002862815 0.010074429 -0.02711869
000130 22 28 d3 3b 40 0c bb bc d6 78 ab bc f3 e7 a2 3a
       0.006443993 -0.02283299 -0.020931643 0.0012428745
000140 c1 37 05 3c d1 48 86 3b 44 95 84 3c 62 e6 b2 3b
       0.008130969 0.004098036 0.016184457 0.0054595927
000150 52 19 66 3c 6a 64 d0 bb f0 b5 2d bc 9e 06 37 bc
       0.014044123 -0.0063596265 -0.010602459 -0.011171011
000160 2f d8 dd bb ea 2c 63 3c 5c 05 bb bb 03 08 24 3c
       -0.006770156 0.013865689 -0.005707426 0.010011676
000170 f2 f7 88 3a 6a 3c 6f 3b 59 7c 05 3c ba c9 87 3c
       0.001044987 0.0036504515 0.008147323 0.016575683
000180 d7 b1 c6 bc 70 0e b1 bc 94 64 b5 3c 56 ec 83 3c
       -0.024254723 -0.02161333 0.022142686 0.016103905
000190 52 89 ae 3c c8 d1 ad 3c 62 6a b1 3c d8 c6 91 bc
       0.021305714 0.021218196 0.021657173 -0.017795011
0001a0 9c 2b b9 3c f2 67 ad bb 35 c8 80 bc 65 81 b1 3c
       0.022603802 -0.0052919323 -0.015720466 0.021668145
0001b0 41 18 b9 3a 7a da ba bc a4 27 b3 bc da 66 42 bc
       0.0014121608 -0.022809256 -0.021869488 -0.011865342
0001c0 1a c7 75 bb a6 bc a5 3c fe 64 d3 bb 11 22 28 bc
       -0.0037502707 0.020231556 -0.006451248 -0.010262028
0001d0 0a c3 72 bc 65 95 99 3c 58 22 e1 bb 55 41 12 bc
       -0.014817009 0.018747995 -0.006870549 -0.008926709
0001e0 21 f6 33 bb 7c 78 95 bc d6 11 a0 3c a0 36 80 3c
       -0.0027459937 -0.018245928 0.019539755 0.015651047
0001f0 95 ee 42 bc 2b 93 c1 bc 16 65 a4 bb 60 3a d2 bc
       -0.011897703 -0.023629745 -0.005016933 -0.025662601
000200 41 26 9e 3c e3 a4 a8 3c 12 01 85 bc 51 cd a8 bc
       0.01930535 0.020586437 -0.016235862 -0.020605715
000210 e6 6f c3 bc 3e 48 85 bb fb 13 8c bc 9e 37 6d bc
       -0.023857068 -0.00406745 -0.017099371 -0.014478592
000220 0e 72 32 3c ec 15 03 3c 29 32 91 bb d5 20 1d bb
       0.010891451 0.008000832 -0.0044310284 -0.0023975868
000230 ae 48 fe 3b 94 2e 19 3b 3b 02 97 3b 6e 3f 6d bc
       0.007760129 0.002337371 0.00460842 -0.014480455
000240 06 bc 48 bc c2 9a ad 3c 83 80 92 3c 3e d9 00 3c
       -0.0122518595 0.021191958 0.017883545 0.007864295
000250 a8 c4 17 bb e6 47 cd 3b 44 f3 54 bc 21 a5 83 3a
       -0.0023157988 0.0062646745 -0.012997452 0.0010043719
000260 23 f9 49 bc 48 38 bc bb 89 36 8c bc 0b be 66 bc
       -0.012327465 -0.005744014 -0.017115848 -0.014083396
000270 99 40 c1 3a 66 29 9e bb 0f a5 d1 bc 87 e5 24 3c
       0.0014743983 -0.0048267124 -0.025591401 0.010064489
000280 72 af 25 bc b5 0f 69 bc 3d c9 1a bb e7 e2 c7 3a
       -0.01011263 -0.014224936 -0.0023618483 0.0015250117
000290 6f 8f e0 39 18 77 d6 3a 12 24 8c 3b 19 2d d1 bc
       0.00042831476 0.0016362397 0.004276761 -0.0255342
0002a0 6f a7 81 bc 75 1f 38 bc 5f 62 52 3b 78 06 bb 3b
       -0.015826909 -0.011237969 0.003210209 0.0057075582
0002b0 a3 7c a7 bc 6b ea c0 bc 6f dc 5c 3c 81 a9 3e bb
       -0.020445174 -0.02354928 0.01348029 -0.0029092731
0002c0 16 06 a4 bb de 17 ab 3c f5 7b 33 3b 05 7a d5 bc
       -0.0050056083 0.020885404 0.0027387117 -0.02605916
0002d0 f0 d1 89 bc 38 9e d0 3a eb 52 b6 3c 78 f3 1f bc
       -0.016823739 0.0015916293 0.022256335 -0.009762637
0002e0 00 82 4b 3c 57 e4 c7 bc fa 13 c4 3a 0b ce 06 bb
       0.012421131 -0.024400873 0.0014959567 -0.0020569589
0002f0 d5 ca b8 3c f3 cc bb bc 73 eb a8 3c 7a 09 83 bc
       0.022557655 -0.022924876 0.020620083 -0.01599573
000300 5e 89 ad 3c b8 0d 0d bc 92 85 2a 3c 57 9a d8 bc
       0.021183666 -0.008609228 0.010407822 -0.026440782
000310 db 93 bc 3c af f6 22 3c df a3 0c 3b 3a 4e a3 bc
       0.023019722 0.009946509 0.002145998 -0.019934762
000320 cb d4 d1 bc d3 fa a1 3c a8 9c c3 bc ed 9f ba 3c
       -0.025614163 0.019772923 -0.02387841 0.022781337
000330 94 d3 88 bc d8 46 d8 bc 70 61 68 3b 5c b2 b9 bb
       -0.01670245 -0.026400968 0.0035458468 -0.005667014
000340 d6 58 78 3c 28 68 b9 bc 23 83 6c bc 69 b6 9c bb
       0.015157899 -0.022632673 -0.014435562 -0.004782487
000350 9d 9a 30 bc 6e 0b ad bc bb 82 5f 3b 07 a1 9f bc
       -0.01077905 -0.021123614 0.003410502 -0.019485964
000360 a0 40 ae 3c 4b 24 88 bc 11 a8 97 3c a3 ff 18 3c
       0.02127105 -0.016618868 0.018512757 0.009338292
000370 25 b0 d1 3a 2d 4f b3 3c 88 e4 d4 bc e7 37 2a ba
       0.001599793 0.02188834 -0.025987878 -0.00064933154
000380 f9 0e 9d ba 44 c9 9d 3c 5f d0 a9 3c d2 27 21 bc
       -0.0011982612 0.01926101 0.020729242 -0.009836154
000390 89 18 c7 bb 99 2b 33 bc 81 3f 0d bc 87 82 77 bb
       -0.006075923 -0.010935687 -0.008621098 -0.003776701
0003a0 e5 8d 90 ba 36 c5 77 bc 90 14 ce bc 16 89 3b 3c
       -0.0011028616 -0.015122702 -0.02515629 0.011446258
0003b0 84 d7 51 3c 86 ca 79 3c 9b 93 39 3c 3a b1 c4 3c
       0.012807731 0.015246039 0.011326696 0.02401029
0003c0 a5 3c 09 3c 56 f0 ad 3c 26 e8 82 bb 66 80 15 bc
       0.008376275 0.021232765 -0.0039949594 -0.009124851
0003d0 48 4a 87 3c 89 6e 67 3c e5 4d 4e 3c a6 86 86 bc
       0.016514912 0.014125475 0.012591814 -0.016421627
0003e0 95 33 bf 3b 58 0f 41 3c e1 80 22 bc f2 75 ab ba
       0.0058350065 0.011783443 -0.009918422 -0.0013081415
0003f0 d6 25 9d 3c 30 a8 c1 bc c7 4c c6 bc cf 13 a3 3c
       0.01918308 -0.023639768 -0.024206532 0.019906906

column1.8.bias f4 [16]
000000 9c 09 1f ba 65 96 10 3d d0 f4 80 bc c4 53 29 3c
       -0.00060668006 0.035299677 -0.015741736 0.010334913
000010 8e 84 6a 3c 41 6c 6d bc a3 f7 0b 3d db b8 7b bc
       0.01431383 -0.014491142 0.03417171 -0.015363897
000020 3b 42 61 3c 28 37 8e 3c d5 3f 19 3c 05 0d 0f 3c
       0.013748701 0.017360285 0.009353598 0.008731131
000030 24 61 65 bc 6a aa c0 bc 32 4c 24 bc d7 81 5f bc
       -0.014000211 -0.02351876 -0.010027932 -0.013641796

column1.10.weight f4 [8, 16, 7, 7]
000000 0b 1e 70 bc e2 9f 04 3d b2 67 68 bc d7 9a cb bc
       -0.0146556 0.03237904 -0.014184879 -0.024854107
000010 1c 07 49 bc 8c c3 03 3d 3f f6 e6 bc 40 33 10 3c
       -0.012269761 0.03216891 -0.028193591 0.008801281
000020 47 ef f0 3c 41 08 b7 bb 81 b3 04 bd 18 9e e5 3c
       0.029410971 -0.0055857007 -0.03239775 0.028029487
000030 8e ba d5 3c 71 0c 62 3b ce 54 95 3a 56 7f 95 3c
       0.026089933 0.003449228 0.0011393072 0.018249195
000040 dd ab 00 bc 0e b8 75 3c 5a af 78 3b a6 04 80 3b
       -0.007853475 0.014997495 0.0037946315 0.003906804
000050 3d c7 99 3b f5 13 f0 3c 3a 96 0f bd 33 52 99 bc
       0.0046929405 0.029306391 -0.035055377 -0.018715953
000060 06 2d 40 bb 03 c5 e0 bc db 5d cb 3c b5 e9 e3 bc
       -0.002932371 -0.027437693 0.024825027 -0.027821401
000070 c9 7c a8 bc 9e 44 11 bd 93 cd 91 bc 67 51 71 3c
       -0.020567315 -0.03546583 -0.01779822 0.0147288805
000080 4f de d9 bc 27 f4 89 bc 31 81 ea 3c ab f3 da bc
       -0.026595263 -0.016840054 0.028626056 -0.026727518
000090 f3 71 30 3c 53 50 d5 3b fc c6 cd bb 1d bd f6 bc
       0.010769355 0.0065098195 -0.0062798243 -0.030119473
0000a0 ec 13 f3 bc 8e 6a 90 bc 8e d1 09 bc af 39 50 bc
       -0.029672585 -0.017628934 -0.008411778 -0.012709065
0000b0 d8 69 e9 b9 ed 49 1e 3c fb 24 a1 ba 55 33 c8 3c
       -0.00044520083 0.00966118 -0.0012294346 0.02443854
0000c0 d3 a7 d4 3c 36 fc b4 3b 65 65 38 3c 32 e0 93 3c
       0.025958931 0.00552323 0.011254643 0.01805124
0000d0 0f 69 80 bb 88 a2 db bb 76 8d d9 bc 13 99 17 3d
       -0.003918774 -0.006702725 -0.026556712 0.037011217
0000e0 07 70 49 bc 42 98 21 3d 67 5e da 3c b3 0b 2c 3b
       -0.012294776 0.039451845 0.026656343 0.002625209
0000f0 50 cf f0 3c 1a e2 51 bc 00 ea d6 3b 45 ec 7d 3c
       0.02939573 -0.0128102545 0.0065586567 0.015498226
000100 95 dc 3a bb 25 09 aa 3c 52 99 83 bc d6 19 f0 bb
       -0.0028512825 0.020756314 -0.01606432 -0.0073272986
000110 bf 9e bc 3c 19 b9 87 3c 0e e0 5f bb bd c0 c8 3b
       0.023024915 0.016567754 -0.0034160647 0.006126492
000120 69 5b 48 3c cc d9 fc 3c 5a f4 c5 bc c2 d1 af bc
       0.012228825 0.030865572 -0.024164367 -0.021462325
000130 6b 9e d6 bc 5f e5 f2 3c e5 ee 12 3d 69 6b ec 3c
       -0.026198586 0.029650388 0.03587236 0.02885981
000140 4b d4 78 bc c9 93 79 3c 6b 66 08 3d e1 0f ff 3a
       -0.015187333 0.015232989 0.0333008 0.0019459688
000150 28 9c ce bc 84 0e 40 bc e6 5b b7 ba 7a f8 a4 bc
       -0.025220945 -0.011722211 -0.001398918 -0.020138014
000160 8a 9f 76 bc f0 41 ca bc c2 70 f7 bc 90 27 c5 bc
       -0.0150526855 -0.024689645 -0.030205134 -0.024066716
000170 50 ee e2 3b 04 a3 ce bc 18 7e ad 3c c5 80 e2 bc
       0.0069253817 -0.025224216 0.02117829 -0.027649293
000180 8f 05 a6 3c 5f f7 7a bb d5 30 77 b9 85 f5 25 3c
       0.020266322 -0.0038294417 -0.00023573947 0.010129337
000190 6e 62 fc 3c 24 a9 82 bc 1b 8d 71 3c 6b 25 94 3c
       0.030808654 -0.015949793 0.014743115 0.018084249
0001a0 68 f0 e1 ba d8 97 ed bc 03 25 36 3c 4d f6 89 bc
       -0.0017237784 -0.029003069 0.011117223 -0.016841078
0001b0 3b 22 9f 3c 78 51 c4 bc 38 e5 a2 3b ef 51 a0 bb
       0.019425502 -0.023964629 0.0049711727 -0.0048925797
0001c0 02 46 e5 3c ba be 46 bc 71 a4 ba bc 91 e7 14 3b
       0.027987484 -0.012130434 -0.02278349 0.0022721032
0001d0 b0 92 32 3c 13 d9 e0 37 df 3f 04 bd 72 b8 d8 3c
       0.010899231 2.6803964e-05 -0.032287475 0.026455138
0001e0 2c 20 a2 3b 03 d2 fa bb 1a a3 3a bc 52 89 f0 bc
       0.004947683 -0.00765443 -0.0113914255 -0.029362354
0001f0 b7 5b e6 3c 98 6a fb 3c 83 99 12 bd 19 e9 19 bb
       0.028119905 0.030690476 -0.03579093 -0.0023484884
000200 5e 68 0b bd c3 c7 9d 3c d3 c0 8c 3c 76 6e b8 bc
       -0.03403508 0.019260293 0.01718179 -0.02251361
000210 85 dc c4 bc cd 21 01 bd e5 80 b8 bc 2b 8a 23 3c
       -0.024030933 -0.031526376 -0.0225224 0.009981672
000220 ff 0d 17 bb 30 c1 0a bd d3 d3 ee 3c e1 c4 44 bc
       -0.0023049114 -0.033875644 0.02915374 -0.01200983
000230 9c 33 f7 bc 59 ab 03 bd b9 2b d7 bc 0c 29 e6 3c
       -0.030175976 -0.03214583 -0.026265966 0.028095745
000240 16 c2 fe 3c 0d 82 36 3b da 21 87 bc 23 fc ab bc
       0.031098407 0.0027848512 -0.016495634 -0.020994252
000250 a8 48 cb 3c fa 29 38 bc 31 b5 ec bc 09 b2 e2 bc
       0.024814919 -0.011240477 -0.028894993 -0.027672784
000260 e2 6f c3 3b 82 e0 88 3b d5 59 a4 bc cf f9 d4 bc
       0.005964265 0.004177154 -0.020062367 -0.025998024
000270 cf fc 7a 3c 81 94 98 3c e1 a8 08 3c 07 b0 d9 bc
       0.015319063 0.0186255 0.008341045 -0.026573194
000280 64 16 5b 3c 18 6c 7f bc de 3a f6 3c 62 db 00 bb
       0.013372038 -0.015589736 0.030057367 -0.0019662012
000290 10 eb 02 3d 97 62 e6 3c 4c c8 03 3d 4e ae f7 3c
       0.031962454 0.028123183 0.03217344 0.030234482
0002a0 7c 11 90 3c 7e 61 ed bc 4c e7 f7 bc 14 f9 54 3c
       0.017586462 -0.028977152 -0.030261658 0.012998838
0002b0 e2 b6 b8 bc fb 4d d1 3c c4 e7 8a bc d9 a0 78 b9
       -0.022548143 0.02554988 -0.016956218 -0.00023711043
0002c0 0f f5 a2 bc 88 5b db bc 86 7f f7 bc d7 e6 c6 3a
       -0.019892244 -0.026777044 -0.030212175 0.0015174997
0002d0 08 ad c4 3c be 1d e7 3c 71 e1 d8 bc dc 9f 9c bc
       0.024008289 0.028212424 -0.026474686 -0.019119196
0002e0 dc 9f 68 3c bc 7b fe 3c 89 86 96 bc c0 02 c9 bc
       0.01419827 0.03106486 -0.018374698 -0.024537444
0002f0 99 ed eb 3b 04 b4 ee 3c 61 ed 80 3a d4 73 fe 3b
       0.0071999547 0.029138573 0.000983637 0.0077652726
000300 28 ef 9b bc e4 49 09 3d 19 4c 78 bc 74 e8 cc 3c
       -0.019034937 0.033517733 -0.015154862 0.025013186
000310 e8 27 53 bc e1 d5 6c bc 50 4f 9d bc 2d 08 92 b8
       -0.012887932 -0.01445529 -0.019202858 -6.9633454e-05
000320 86 1e b2 3c 42 db e7 3c 0b e8 1d bc 98 c4 ad 3c
       0.02174307 0.028302792 -0.009637843 0.021211907
000330 2c 92 94 bc 97 ef 05 bc f9 1e b1 bc 4d b3 0a 3c
       -0.018136106 -0.008174798 -0.021621214 0.0084656
000340 f5 00 c9 3c 38 21 9c bc 71 a3 b0 bc 46 ee a6 3b
       0.02453659 -0.019058809 -0.02156231 0.0050943224
000350 db da 04 3d 28 23 83 bc 5b 1d 09 3d c9 99 34 3c
       0.03243528 -0.016007975 0.03347526 0.011022993
000360 dd 61 26 3b 40 d7 1f 3c 40 87 29 3d 62 a7 92 3c
       0.002538792 0.009755909 0.04138875 0.01790208
000370 e9 08 e8 bc f7 4f bb bc 88 15 62 3c 9b db 2a bb
       -0.028324561 -0.022865279 0.013799079 -0.0026070836
000380 7f d3 c2 bc ee 8f da 3c 65 6c 96 3c 39 8d 28 bb
       -0.02378249 0.02667996 0.018362233 -0.002571894
000390 da 8a 18 3d 9e 24 69 bc e2 20 0c bc 0c e0 5c 3c
       0.037241794 -0.014229922 -0.008552762 0.013481151
0003a0 4f 15 01 3d 78 7e cc bb 84 77 ef bc bf 0b 91 bc
       0.031514462 -0.006240662 -0.029231794 -0.017705796
0003b0 91 70 df bc a6 3e d3 3b 0d ee ac 3c 77 e1 7c bb
       -0.027275356 0.0064466773 0.021109605 -0.0038586536
0003c0 ec a0 4d 3b 07 33 c1 3c 75 90 1e 3c e8 1d fb 3c
       0.0031376434 0.023583902 0.009677996 0.030653909
0003d0 31 50 a8 bc 15 98 a0 3c af c1 97 3c b7 a4 d4 3c
       -0.02054605 0.019603768 0.018524973 0.025957448
0003e0 fd 00 3f ba 70 d8 23 ba 9e f7 a8 3b 38 3f 11 3d
       -0.0007286219 -0.0006250208 0.0051564714 0.03546068
0003f0 25 7d c8 3b 80 2f f8 3c 59 8a 34 bc 04 db 03 3c
       0.006118434 0.030296087 -0.011019313 0.008047823

column1.10.bias f4 [8]
000000 8b 13 32 3d 1b 24 c9 bc 94 91 5b 3d 4d d4 24 3b
       0.04347567 -0.02455335 0.05360563 0.0025150955
000010 b4 60 c1 3c 47 76 c2 3c 17 9b e9 bc 67 d0 73 3c
       0.023605682 0.02373804 -0.028516335 0.01488123

column2.0.weight f4 [10, 3, 7, 7]
000000 07 c5 d2 bb 70 80 8a 3d 11 54 94 3d 37 5a 61 bd
       -0.006432179 0.06762779 0.07242597 -0.055017676
000010 3b 79 25 3c 25 0c 67 bd 68 e9 77 3d 1e e0 4f bb
       0.010099704 -0.056408066 0.060525328 -0.0031719278
000020 9f a1 8d bd b0 11 9e 3d 54 73 06 bd ef b9 66 bd
       -0.069155924 0.077182174 -0.03282483 -0.056329664
000030 21 c6 94 bc d1 c5 43 bd 81 db 89 bd 8f 62 ac bd
       -0.018160881 -0.047796074 -0.0673132 -0.08417236
000040 42 19 9b 3b 62 54 34 bd 4f 8b 8d bd 0b 75 5e bd
       0.0047332356 -0.044025786 -0.06911337 -0.05431084
000050 79 e1 27 bc 40 55 85 bd fd 70 2d bd 9c f2 ef 3c
       -0.010246628 -0.06510401 -0.042344082 0.02929049
000060 8c 1a 1c 3d 57 13 45 3d 00 e0 5a bd ee 18 a4 bd
       0.038111255 0.048114147 -0.05343628 -0.080125675
000070 24 f2 32 bd 8d e5 7f 3d 67 1e a1 3c 4c be a7 bb
       -0.043687955 0.062474776 0.019667817 -0.0051191207
000080 18 37 9b 3d 98 32 0d 3d dc 82 6b bd 1d 36 13 bc
       0.07578868 0.034472078 -0.057497844 -0.00898507
000090 92 18 74 3b b1 4a 45 bd d2 17 8c bc be 84 ac 3c
       0.003724609 -0.048166934 -0.017101202 0.02105939
0000a0 cf 4f ee 3b d2 b0 39 3d cc 57 42 bd ef 3b 2f bd
       0.0072726975 0.045334645 -0.04744701 -0.042781767
0000b0 7e 62 94 ba ce d7 34 bd 2b 3d 8d 3d a2 b7 8c bd
       -0.0011320857 -0.04415112 0.068964325 -0.06870963
0000c0 cb 62 78 bc 91 70 63 bd d1 28 98 3d f9 da f6 bc
       -0.015160273 -0.055527274 0.0742966 -0.030133711
0000d0 93 61 24 3d ee 26 aa 3c 5c 57 b1 bd 14 ac 4e bb
       0.040132117 0.020770516 -0.086592406 -0.0031535672
0000e0 4f 3b 08 bd 94 48 aa bd ed 18 a8 bd 6c a5 ca ba
       -0.033259686 -0.083146244 -0.08207879 -0.0015460677
0000f0 72 18 a9 bc ee 3d 21 bd 44 84 56 bd f2 86 82 bc
       -0.02064154 -0.0393657 -0.052372232 -0.015933488
000100 e7 c9 cb 3b da e2 7c bd 7d 11 22 bd b4 fa 85 bd
       0.006219137 -0.06173978 -0.03956746 -0.065419585
000110 b4 f6 f5 bc 75 37 9e bd b6 94 03 bd 2e b1 0d 3d
       -0.030024864 -0.07725421 -0.032124244 0.0345928
000120 86 81 8b bd fe 79 95 bd 4c c4 9e bd 04 6b e8 3c
       -0.06811814 -0.07298659 -0.077522844 0.028371342
000130 d6 86 ae bc 94 e1 6d 3d 77 c8 81 bc d8 d9 1a 3d
       -0.02130453 0.058076456 -0.01584266 0.03780541
000140 50 14 f0 3c 00 52 40 bd ef 59 94 3d c2 a3 c0 3b
       0.02930656 -0.0469532 0.07243716 0.0058788965
000150 ac f6 90 3d e2 12 c8 3c b1 24 01 3d ac d1 dc bc
       0.07078299 0.024423067 0.031529132 -0.026955448
000160 76 7e a5 bd a0 93 20 3d 8e 0e 7d 3c 02 84 cb 3b
       -0.08080761 0.039203286 0.015445365 0.006210805
000170 b7 2d 9c bd 45 38 91 bc 48 23 93 bd b2 62 49 3d
       -0.07625907 -0.017727027 -0.07184464 0.04916639
000180 e1 7d 78 bd 29 8b 8c 3c d2 10 06 3d 75 7a 6a bd
       -0.060666922 0.0171562 0.032730885 -0.05724569
000190 1e a1 a2 bd 8d bb 2b bd 61 1e 1b bb 92 d5 bf ba
       -0.07940887 -0.04192691 -0.002366923 -0.0014635792
0001a0 00 85 92 bd b2 bb bc bc d2 bf a9 bd f7 a9 5a 3d
       -0.07154274 -0.023038719 -0.0828854 0.053384747
0001b0 5c 37 a9 bd c8 c1 67 3d 1b aa 14 bd 5f ca 1b bc
       -0.08262512 0.05658129 -0.036295038 -0.009508698
0001c0 0f 12 84 bd 04 37 b2 bc bb f9 72 3c 99 2a 0d bd
       -0.06448757 -0.02175475 0.014830048 -0.034464452
0001d0 00 a3 dd 3c b4 a8 a9 bd f9 d4 8f 3d fa 18 43 bd
       0.027055264 -0.08284131 0.07023043 -0.04763124
0001e0 5a 26 0b bc c8 5b ee bc cf df 48 bd 30 17 91 3d
       -0.00849303 -0.0290965 -0.049041566 0.07084501
0001f0 3c 8f 05 bd 8c f8 d0 b8 92 58 49 bb e1 1b 1f 3c
       -0.032607302 -9.964508e-05 -0.0030722958 0.009711237
000200 57 0a 7f bd 57 68 90 3d ba 1b b0 bd e1 2d 9e 3c
       -0.06226572 0.07051151 -0.085990384 0.019308986
000210 9b aa d5 bc 8a e7 4d bd bf 94 16 3d fd 0c 76 bd
       -0.026082328 -0.05026964 0.03676295 -0.06007098
000220 12 11 91 bd 93 50 ff bc b1 9b 82 3d 11 2c 37 3d
       -0.07083334 -0.03116635 0.06377352 0.04471976
000230 bc 00 98 bd 02 e0 83 bd d7 dd 18 3d 5f f9 81 3d
       -0.07422015 -0.064392105 0.037320938 0.06346392
000240 c9 6e b1 bd f6 c0 05 3b de f3 96 bd da 34 90 bc
       -0.08663709 0.0020409203 -0.07370733 -0.017603327
000250 09 4f 69 bc 22 2a a2 bd ad 93 94 3d a6 b9 8f bd
       -0.014240035 -0.079181924 0.072547294 -0.070178315
000260 2d ec ff 3b 28 23 7e bd de b4 8d 3d fd 77 35 bd
       0.007810137 -0.062045246 0.06919263 -0.044303883
000270 7d c3 62 3d 85 cb 91 3d 3e 09 2e 3c 89 f6 97 3d
       0.055362213 0.071188964 0.010622321 0.0742007
000280 6a bb 14 bd 88 e4 9a 3d 71 85 6f bc 6b f2 62 3c
       -0.036311544 0.0756312 -0.014619217 0.013851742
000290 c1 11 ce 3c 89 a9 89 3c c6 be 68 bd 1c 80 fd bb
       0.02515495 0.016804473 -0.05682256 -0.007736219
0002a0 ca a9 7f bd 47 9d a7 3c 60 14 03 3d 01 7e 60 3d
       -0.062417783 0.020460738 0.032001853 0.054807667
0002b0 31 3a bc bc df f9 ab bd 04 44 00 bc 3b a9 62 3c
       -0.022976967 -0.083972685 -0.007828716 0.013834293
0002c0 60 17 8b bd 2b e9 44 3c 18 26 a8 bd f1 2f 7a 3d
       -0.06791568 0.012018482 -0.08210391 0.061080877
0002d0 75 a6 a1 3d b4 f4 57 3d 38 08 bf 3c 1a 5b c3 bc
       0.07893077 0.0527236 0.023319349 -0.023847152
0002e0 79 48 24 3c de c6 7a 3d 92 fb 49 3d 2a 98 5c bd
       0.010027044 0.06122481 0.04931218 -0.053856052
0002f0 e8 90 7b bd 92 67 a0 bc 20 03 a5 bd 4a 59 ea bc
       -0.06141749 -0.019580636 -0.08057237 -0.02860703
000300 d9 27 90 bd e6 2c 12 3d 8a 87 3f 3c 70 10 96 3b
       -0.0703885 0.03568735 0.01169003 0.004579596
000310 27 d8 ab bd 35 9d 99 bd ff 0b 0f 3d 23 bc 5f 3d
       -0.08390837 -0.07500688 0.03492355 0.05462278
000320 97 74 4b 3b f6 ed 64 3c 4b 64 94 bd 01 5a 20 bd
       0.0031044835 0.01397275 -0.07245692 -0.039148334
000330 b3 6f 84 3c 6f 76 62 bd 76 96 1a 3d 9a dc a9 bc
       0.016166544 -0.05528873 0.037741147 -0.020735074
000340 fa f3 2b 3d c2 c3 53 3d 86 20 de bc 8b fd 5c 3d
       0.04198072 0.05170036 -0.027115118 0.053952735
000350 4d ad 8b bd 02 11 02 bd 60 25 cd 3c 87 9b 73 bc
       -0.06820164 -0.0317545 0.025042236 -0.014868624
000360 cb fa 47 3d b2 07 a6 3b 5f 66 a2 bd 77 b2 95 3d
       0.04882316 0.0050668353 -0.07929682 0.0730943
000370 1b 26 89 bd b0 87 e6 bb 0a 77 0f bd fe de 64 3d
       -0.06696721 -0.007035218 -0.035025634 0.055876724
000380 9e 4c 9c 3d 36 86 fa 3b eb 4d 79 3c 92 e4 81 bb
       0.07631801 0.0076453937 0.015216331 -0.0039640153
000390 01 49 6b 3d 4c 06 a2 bd 76 1f 7f bd 2f 0e c7 3c
       0.05744267 -0.07911357 -0.062285863 0.024298755
0003a0 e1 34 81 3d ec e4 b3 3c 5d ad f8 bc b2 a5 74 3d
       0.06308914 0.021959744 -0.030356104 0.059728332
0003b0 2f 4e 8b 3d 6a c4 76 3b 83 d3 1d bd fa 3a ae bc
       0.06802022 0.0037653693 -0.03853179 -0.021268357
0003c0 0d 1f 23 3d 17 15 80 3d 23 f2 3c 3c a1 d2 0c bd
       0.039824534 0.062540226 0.011532339 -0.03438056
0003d0 af b2 3f bd 2f 21 1e 3d 26 50 55 3d 9c 98 9a 3d
       -0.046801265 0.038605865 0.05207839 0.07548639
0003e0 0d 6f 46 bc c4 67 c3 bc c1 0d 99 3d 4c 5d 37 3d
       -0.0121114375 -0.02385319 0.074733265 0.04476671
0003f0 39 90 0a bd 0a 48 99 bd a3 81 9f bd 17 a3 79 3b
       -0.033828948 -0.074844435 -0.07788398 0.0038091594

column2.0.bias f4 [10]
000000 53 7c 48 3d 7d a1 36 3d dc 5d 96 bd 2d ac 1b bd
       0.04894669 0.0445876 -0.07342121 -0.038005996
000010 57 f4 7c bd a9 66 19 3d 52 3a 36 bd ed 78 79 3d
       -0.061756458 0.03745142 -0.044489212 0.06090634
000020 08 ac 6f 3d 42 e6 8b 3d
       0.05851367 0.068310276
