src/crowd_counting.pth (torch, 583795 bytes, 31 tensors)

column1.0.weight f4 [8, 3, 9, 9]
000000 74 2a 1b 3c 35 a5 fa bb 5e aa 99 bd d1 a5 d1 bc
       0.009470571 -0.0076490887 -0.07503198 -0.025591763
000010 41 11 6b 3b c4 1e 71 bd fa 5e 38 bd b9 71 95 bd
       0.0035868438 -0.05886723 -0.04501245 -0.072970815
000020 04 2c 8a bd 3a ff 2b bd f2 ef 02 bc f2 19 c4 bd
       -0.067466766 -0.04199145 -0.007991778 -0.09575261
000030 7d 37 97 bc 53 3c 97 bd d1 cd 81 bd 8a c7 c1 bc
       -0.018459076 -0.07384553 -0.063380845 -0.023654718
000040 1b ea fb bb f2 c7 c9 bb 65 38 80 bd b1 a1 a5 3b
       -0.0076878197 -0.0061578685 -0.062607564 0.0050546755
000050 75 2f 15 bc 74 73 df bc ac f8 64 bd 51 a6 4e 3b
       -0.009105553 -0.027276732 -0.055901214 0.0031532238
000060 2f 65 17 bd 13 4c c6 3c 52 26 ac bb 1b d8 c1 bd
       -0.03696173 0.024206197 -0.0052535916 -0.09465047
000070 d6 92 a0 bd 92 4b 9e 3a d7 4c 1f bd 48 91 26 bd
       -0.07840507 0.0012076965 -0.03889164 -0.040665895
000080 17 b2 e6 bc 85 cc 9c bd dc c7 96 3b e0 d8 0a bd
       -0.028161092 -0.076561965 0.004601462 -0.033898234
000090 0e a7 87 3a 45 d4 ba bd 1a c6 81 bc 87 9b 23 3c
       0.0010349469 -0.091225185 -0.015841532 0.009985811
0000a0 7a 5f 81 bd b8 7b 8d 3c a7 da 97 bc 28 06 f3 bb
       -0.06317039 0.017270908 -0.018536879 -0.0074165054
0000b0 06 8d 19 bc bb 89 8c bc 42 a2 5f bd 03 1e 27 3c
       -0.0093720015 -0.017155519 -0.0545981 0.010200026
0000c0 44 68 07 bd c2 36 c4 3c 73 bc a3 bd 46 a9 81 bd
       -0.03305842 0.023951892 -0.07994928 -0.063311145
0000d0 e9 65 da 3c 8b e9 a9 bd 75 2e b0 bc 5b e2 a0 3c
       0.026659923 -0.08296498 -0.021506527 0.019639185
0000e0 3e 54 95 bd ee 2d c6 bc cd 95 94 bc 39 c7 41 3c
       -0.072914585 -0.024191823 -0.018137837 0.011827284
0000f0 64 1f 97 bd 6c 60 06 3d 9b 1c 0a bd 3a 58 87 bd
       -0.07379034 0.0328068 -0.033718687 -0.06608625
000100 c8 c2 64 bd 61 d7 c1 3c c2 2e fb bb 1d 55 4d bd
       -0.05584982 0.023662271 -0.007665486 -0.05013
000110 90 be 6e 3b 80 c1 f7 ba a5 62 a0 3c 80 b2 cb bc
       0.0036429502 -0.0018902272 0.019578287 -0.024865389
000120 99 4e fb bc ee 14 b0 bd 24 7c 0b bd 18 c7 d9 3c
       -0.030677127 -0.08597742 -0.034053937 0.026584193
000130 f8 32 ad bd 2d 8a 2b 3b f0 bb 40 bd a5 c3 d7 bc
       -0.08456987 0.0026174888 -0.04705423 -0.026338408
000140 f4 3c d8 bc c4 81 34 bd d9 0e 81 bd f7 1d b9 bd
       -0.026396252 -0.044069067 -0.0630166 -0.090389185
000150 22 7a aa bd 26 a8 b0 bc 9e 14 12 bd c3 91 a6 bd
       -0.08324076 -0.021564554 -0.035664193 -0.081332706
000160 1d 27 c6 3b 0c 18 a2 bd 67 b1 a9 3c 98 76 7b bc
       0.006047143 -0.07914743 0.020714475 -0.015348099
000170 3a c6 b6 bd 9d 05 b7 bd 0f a3 9c 3c f7 cd 4b bd
       -0.089245275 -0.089366175 0.019120721 -0.04975697
000180 96 d9 c5 3c 35 35 4c bd 9e 57 bd bd 4c c2 79 bd
       0.024151605 -0.04985543 -0.09245227 -0.06097631
000190 86 a3 34 bd c8 21 c1 bd a2 2c c2 3c 1d d2 8a bd
       -0.04410126 -0.094302714 0.023702923 -0.06778357
0001a0 54 13 13 bc 32 e3 ba bc 1a 7c 8e bd a0 26 54 bd
       -0.008976776 -0.022813413 -0.06957264 -0.05179465
0001b0 94 00 db bc 28 c5 83 3c eb a0 57 bc 04 7e 84 bd
       -0.026733674 0.016085222 -0.013160924 -0.06469348
0001c0 7f 27 ad 3c 49 07 2d bd 36 a6 b7 bd 64 c3 8a bd
       0.021136997 -0.042243276 -0.08967249 -0.06775549
0001d0 fe 8e b9 3c 39 6b a7 bc cf ea b3 bd 51 f0 65 bd
       0.022651192 -0.02043687 -0.087850206 -0.056137387
0001e0 d5 bd ce 3c 56 50 0d bc 21 52 a6 bd 01 56 c4 bc
       0.025237003 -0.008625111 -0.081211336 -0.023966791
0001f0 77 cf a3 bd 7f 8a 93 bc 74 ed f7 3c d5 09 6d bd
       -0.07998555 -0.018010376 0.030264594 -0.057870705
000200 60 55 58 bd 3d 28 c6 3c 5b ef 9f bb 4d a9 59 bd
       -0.052815795 0.024189109 -0.0048808283 -0.053139973
000210 ec 18 9a bc 7e 48 0d 3d 22 89 7b bc 59 5e 61 bd
       -0.018810712 0.034492962 -0.015352519 -0.055021618
000220 e1 bd 92 bd e8 1e ce bb b1 ef ae bd 8c 48 98 bc
       -0.07165123 -0.0062903054 -0.08541811 -0.01858928
000230 ad e8 2f bb 2b c7 a5 3c f6 c3 d4 bc 6c 15 5c 3b
       -0.0026841566 0.020236572 -0.025972348 0.0033582104
000240 28 84 68 bd ec a1 72 bd ba ec 6c bc 7a 67 35 bd
       -0.05676666 -0.059236452 -0.014460737 -0.044288136
000250 4e 51 e2 3c d7 11 3d bd 5e 2d 05 bc 3a 86 a7 bd
       0.02762666 -0.04615959 -0.008128492 -0.081798986
000260 b4 1e a6 bc bd 1d 9d bd 99 4e 1b bc 4b 1a 6e 3c
       -0.020278312 -0.07671688 -0.009479188 0.014532636
000270 98 29 60 bc 72 df 03 bd 85 74 f6 3c b1 e9 9c bd
       -0.013681792 -0.032195516 0.030084858 -0.076617606
000280 dc ac 4f bd cb a1 67 bd 88 8c bc bb 3c 22 c4 bd
       -0.05070196 -0.056550782 -0.0057540573 -0.09576842
000290 e0 51 85 bc 4c 42 bf bd eb 2c b2 3c c3 07 fe bc
       -0.016274393 -0.09338817 0.021749934 -0.03100956
0002a0 6b cb 80 bc 46 83 85 bd 4f a6 68 bd eb c5 2f 3b
       -0.015721997 -0.06519179 -0.05679923 0.002682085
0002b0 0c cc a2 bd 3e a4 9e bd 31 50 97 bd 70 d3 7b bd
       -0.07949075 -0.077461705 -0.07388342 -0.06148094
0002c0 2d e3 c1 bd 74 4b 70 bd 4f 1d 52 3b b0 80 14 bd
       -0.094671585 -0.058665708 0.0032060926 -0.03625554
0002d0 00 72 56 bd 6d 21 7a bd b1 62 58 3c 0e eb 9b bd
       -0.052354813 -0.061067034 0.013207124 -0.076131925
0002e0 c6 9d b4 bd a6 36 b8 bd 42 0b 46 bc 64 ee 2c bd
       -0.088191554 -0.08994798 -0.012087645 -0.042219535
0002f0 71 30 6c bb de d3 23 bd a3 e7 4e bd 20 62 be 3b
       -0.0036039616 -0.039996974 -0.050513875 0.0058100373
000300 93 af 85 bd a8 40 8a bc fe 07 aa bd 87 f0 9a 3c
       -0.06527629 -0.016876534 -0.08302306 0.01891352
000310 2b f9 74 3b a2 a9 15 3d f4 a3 89 bc 83 61 6c bd
       0.003737996 0.036538728 -0.016801812 -0.057710182
000320 f5 55 56 bd 3b 1b 1f bb b2 93 46 bd 55 31 9e bd
       -0.05232807 -0.0024277705 -0.048480697 -0.07724253
000330 e8 bd ac bd 73 11 a8 bc c2 b0 1e 3c cf c0 04 bd
       -0.08434659 -0.020516133 0.009685697 -0.03241044
000340 b2 45 7e bd 11 78 c6 bd fa 6b 97 bd ca b7 91 bd
       -0.062078185 -0.096908696 -0.07393642 -0.07115133
000350 be 35 a1 bd 03 71 87 bd 6e c6 bb bc 17 e7 9e 3c
       -0.07871579 -0.06613352 -0.022921767 0.019397302
000360 40 aa df 3c 68 63 a8 bd 63 bc 13 3c 66 62 b7 bd
       0.027302861 -0.08222085 0.009017083 -0.08954315
000370 64 fb c1 bd 03 a2 a3 3c 9e b7 08 3d dc 0a 11 3d
       -0.09471777 0.019974714 0.033378236 0.035410747
000380 f9 19 12 3d 35 01 9a bd 4b 14 83 bd 33 d5 20 bd
       0.0356693 -0.075197615 -0.06400355 -0.039265823
000390 1c cb 34 bd ba 42 98 3b ac 35 ba bd 13 2e eb bc
       -0.044139013 0.0046466263 -0.09092268 -0.028708493
0003a0 87 99 90 bd 14 49 94 bd 48 09 95 bd fc b1 62 bd
       -0.07060533 -0.07240501 -0.07277161 -0.05534552
0003b0 25 55 c1 3b 11 33 88 bc 53 6d 85 bc 41 3d e3 bc
       0.0059000426 -0.016625913 -0.016287481 -0.02773917
0003c0 37 17 44 bd b7 30 ef 3c 3f b2 93 bc ac ad 9e bd
       -0.047873702 0.029198034 -0.01802933 -0.07747969
0003d0 92 35 c6 bc be e5 69 bd 76 f0 a8 b9 36 0a 3a bd
       -0.024195466 -0.057103865 -0.00032222614 -0.045419894
0003e0 1a fb 95 bc 64 97 71 3c 0f b6 27 bd 63 e6 4b 3b
       -0.018308211 0.014745567 -0.04094511 0.0031112663
0003f0 b2 06 1a 3d ca e5 48 3d ba e9 23 3d cb a7 4b bd
       0.03760404 0.04904727 0.04001782 -0.049720567

column1.0.bias f4 [8]
000000 ca 4c ee bc 49 26 c2 3c aa 9e 73 bd b0 1e 8e bc
       -0.02908935 0.023699896 -0.059477486 -0.017348617
000010 b8 73 34 3e 3d 8c 1a 3c ff 35 47 bc 1e 8a 52 3d
       0.17622268 0.0094328495 -0.01215887 0.05140125

column1.3.weight f4 [16, 8, 7, 7]
000000 73 ea 85 3d 23 ad 03 3d 16 19 b0 3b b7 96 95 3d
       0.06538858 0.032147538 0.005374084 0.07304137
000010 ef 6f 42 3d ad a2 0d 3d 4b b3 30 3c 6a 53 10 3d
       0.04747003 0.034578968 0.010784934 0.0352358
000020 5c 0b de 3b 14 c5 b3 3c 5c 83 42 3d eb 1a 02 3d
       0.0067762565 0.02194456 0.047488555 0.031763952
000030 15 6b 59 bc 61 fd d1 3c 44 94 5a 3d f4 39 5e 3d
       -0.013270159 0.025633516 0.053364053 0.054254487
000040 70 18 42 3c 05 1f e1 3c d6 1c bc 3c d7 e9 3d 3d
       0.011846647 0.027480612 0.022962969 0.046365585
000050 87 26 af 3c 82 b9 d8 3c 84 6c 63 3d 71 a4 47 3b
       0.021380676 0.026455645 0.05552341 0.0030463005
000060 da a4 ea bb ef a2 cb bb d6 f8 36 3d e1 89 89 3c
       -0.007160765 -0.0062144916 0.044670902 0.016789379
000070 02 96 9f 3c c0 42 3d 3c a2 98 84 bc f2 6e 9f 3c
       0.019480709 0.011551559 -0.016186062 0.019462083
000080 56 6b 19 3a de f4 ce 3c 98 ab 8c bc 7b db 8d bc
       0.0005852481 0.025263246 -0.017171666 -0.01731657
000090 fd 96 bf bb 84 c0 24 3d 2c 75 7e 3d 2e 4e 9d bb
       -0.0058468566 0.04022266 0.062123463 -0.0048005795
0000a0 6b 62 5b 3c d3 97 ee bc eb ba d5 bc 53 01 29 3d
       0.013390164 -0.02912513 -0.026090106 0.04126103
0000b0 5a 8d 27 3d 1f d9 74 3d 2a 5a 13 bd 91 8c 68 3d
       0.040906288 0.059777375 -0.03597466 0.05677468
0000c0 d0 7a a3 bc 97 4d 61 bc 89 9e 2f bd 46 cc 3c bd
       -0.019956023 -0.013751409 -0.0428758 -0.046093248
0000d0 2b b3 04 bd b3 a3 1c 3d 25 47 9e 3a 84 b7 33 bd
       -0.03239743 0.038242053 0.0012075646 -0.043876186
0000e0 52 45 55 bd f9 b0 23 bd 8d 61 1d bd 5a 44 8c 3c
       -0.052068062 -0.039963696 -0.03842311 0.017122436
0000f0 f2 d3 0a bd 79 a2 0d 3d 86 86 89 3c cf 53 81 3c
       -0.033893533 0.034578774 0.016787779 0.015787033
000100 36 90 3e bc b3 cf 82 3b 39 06 c7 bb 6f c4 b6 bc
       -0.011631062 0.003992045 -0.00607374 -0.022310464
000110 b3 d3 29 3c 83 76 50 bd c8 ad 31 3d c4 df 8f bb
       0.010365414 -0.05089427 0.04337862 -0.0043906886
000120 27 1a 98 3c 64 5e 0b 3d bc 90 a6 bc d0 7a d0 3b
       0.018567158 0.034025565 -0.020332687 0.0063622966
000130 30 f4 39 bd 54 70 8d 38 39 94 f8 3b fd 70 3c 3d
       -0.04539889 6.744327e-05 0.007586029 0.04600619
000140 d0 41 1a 3d 93 f8 0c bc 27 7b 46 bd 07 a1 21 3c
       0.03766042 -0.008604187 -0.04845729 0.009865052
000150 05 6a 06 bd aa 57 46 bc 93 ef 10 bd d2 53 36 bc
       -0.03281595 -0.012105862 -0.035384726 -0.011128383
000160 9c c6 0d bd 87 97 f6 3c d6 66 c6 3c 04 cb f7 bb
       -0.034613237 0.03010155 0.024218958 -0.007562043
000170 64 42 4f 3c f5 77 c6 3b 64 58 11 3d 6b b3 63 3c
       0.012650106 0.0060567805 0.035484686 0.013897757
000180 9f 82 25 3d d3 96 8f bc ba b4 10 3c ed 54 23 bd
       0.040407773 -0.017527973 0.008832151 -0.039875913
000190 6c 32 8d ba 47 a1 e8 3c b9 d8 b2 bb 82 f9 0d 3d
       -0.0010772473 0.028397216 -0.0054579643 0.034661777
0001a0 e7 6e 86 3c cb 93 3b bd 3b 8a bd bc 1c 8b 36 bc
       0.016410304 -0.045795243 -0.023137202 -0.011141565
0001b0 39 4e 17 3c aa d1 18 bd f7 4d d3 3c 62 f0 fd bc
       0.009234958 -0.037309326 0.025794012 -0.030998413
0001c0 46 21 6f 3c 96 c2 83 3c e9 27 15 bd 0a 12 18 bd
       0.014595335 0.016083997 -0.036415014 -0.03712658
0001d0 bd c1 e5 3c 03 d8 d2 3a 20 8a 85 3b 23 3c 04 3d
       0.028046483 0.0016086105 0.0040753037 0.032283913
0001e0 57 60 e9 bb 0c 4e e2 3a 56 13 c2 3c 8c 49 d0 bc
       -0.0071220803 0.0017265691 0.02369086 -0.025425695
0001f0 5d b0 01 3d 57 50 dd bb cf 65 10 bd 09 74 16 3b
       0.031662334 -0.006753962 -0.035253342 0.0022957346
000200 d9 cd ec bc a9 7b c3 3c ab 9c 21 bb 34 f2 2e bc
       -0.02890675 0.023862677 -0.0024660032 -0.010677863
000210 44 e1 9d bb e0 b1 03 bd 2e bd 89 bc 2e e0 ec bc
       -0.0048181135 -0.032152057 -0.01681384 -0.028915491
000220 ee 42 e6 3c d9 1e 8c bc 76 f8 fb 3c 94 fb 92 bc
       0.028108086 -0.017104553 0.030758124 -0.017942227
000230 1b 55 90 bc a0 76 af 3b 15 b5 04 3d 35 17 b5 bc
       -0.017618706 0.0053547174 0.032399256 -0.022105793
000240 c8 db eb bc 43 d4 60 3c 12 07 37 3c 83 1e 1e 3c
       -0.028791323 0.013722482 0.011171119 0.009650829
000250 5a a1 14 bd fc bb 47 3d b8 b0 23 bd 53 1c 3e 3d
       -0.03628669 0.04876326 -0.039963454 0.04641373
000260 60 28 ef bc 44 4f ae 3c 75 e1 49 bc dd ae 07 bd
       -0.029194057 0.021278031 -0.01232182 -0.033125747
000270 88 6a a3 bc 36 29 e2 bc 2c e9 22 3c 20 31 86 3b
       -0.019948259 -0.027607542 0.009943288 0.0040952116
000280 d5 bc f8 3b 67 34 e6 3c 45 98 01 3d 47 61 c0 3c
       0.00759087 0.02810116 0.031639356 0.023483885
000290 00 bd bc 3c ac 4f b9 3b ff d8 38 bd f5 25 24 3d
       0.023039341 0.0056552496 -0.04512882 0.04007526
0002a0 70 5e 07 3d 7b d7 9c bb 14 67 0a bd db 9f 0b bc
       0.033049047 -0.0047864295 -0.03378971 -0.008521999
0002b0 6d 59 23 bd 59 2d 81 bc c6 95 dc 3c ae 01 07 3d
       -0.039880205 -0.015768694 0.026926886 0.032960586
0002c0 a3 fa 84 3b 3a a3 40 3d 6e af 47 3d b2 22 f2 b9
       0.0040581985 0.047030665 0.048751287 -0.00046183687
0002d0 ce 28 26 bb 58 1e c5 3c 6c cb 2d bd b6 24 13 3d
       -0.0025353911 0.02406232 -0.042430326 0.035923682
0002e0 d8 0a 57 3d 71 78 0a 3b 1c fa 20 bb 84 1c 13 bc
       0.052500576 0.0021128918 -0.002456314 -0.008978967
0002f0 85 b7 1c bd bb ed 04 3d 00 61 48 3d 8f 7b 0b bd
       -0.038260955 0.03245328 0.04892063 -0.03405338
000300 70 4c 16 3c a4 c0 f3 3c 1a bf 3b 3d 96 f5 35 bd
       0.009173498 0.029754944 0.045836546 -0.044423662
000310 54 67 76 39 5c 1b 5a bd 8f 4d 8a bd 7b ab 65 3c
       0.00023498881 -0.05324875 -0.067530744 0.014017935
000320 7c 00 64 bd 69 5a a6 bd 84 ee d6 bc 5e 45 c8 bc
       -0.055664524 -0.08122713 -0.02623678 -0.02444714
000330 42 85 fc bd df 52 0c 3d 9e f9 8f 3c 65 c9 ed bd
       -0.123301044 0.03425872 0.017575081 -0.116106786
000340 c8 0a ff bc 68 c9 0c bd 07 ca 13 bd cf 68 36 bd
       -0.03113307 -0.034371763 -0.03608134 -0.044533547
000350 9a 7f 2d 3d 1b 12 3c bd bd 38 98 bd 40 a6 98 bd
       0.04235802 -0.045915704 -0.07432697 -0.07453585
000360 f2 77 9e bd 98 7d 62 bd 68 3b 6f 3c 4a 78 ab 3d
       -0.077377215 -0.055295557 0.014601566 0.08372553
000370 e9 f9 67 bd af c5 fc bc 41 1b bb bd cb b1 68 bd
       -0.056634817 -0.030855982 -0.09136058 -0.05681018
000380 e8 7b 63 bd c6 7a 20 3d a9 af 81 3d 2e 65 35 be
       -0.055538088 0.039179586 0.06332333 -0.17714378
000390 dc c6 4e bd bb 44 1f bd 92 5d b2 bd 5c 9d fd bd
       -0.050482616 -0.038883906 -0.08709253 -0.123835295
0003a0 f9 b8 6a 3d 18 c4 ce ba 70 4f 26 be 4c 7e 9a bc
       0.05730531 -0.0015774993 -0.1624124 -0.018859051
0003b0 6a 24 4e bd 56 a0 15 bc b0 d5 ae bd 9e 53 ac 3c
       -0.050327696 -0.009132465 -0.085368514 0.021035966
0003c0 cb 94 b7 3c 60 52 c4 bd c7 36 86 bd 3d cc 8f bd
       0.022409817 -0.09586024 -0.06553417 -0.07021377
0003d0 88 38 dd 3c 99 50 1e 3d 5d 25 fd 3c c5 07 a4 3c
       0.027004495 0.038651083 0.030901605 0.020023236
0003e0 a7 02 38 bd d5 bf ea 3c 59 c0 17 bb eb 8f 14 3d
       -0.044924404 0.028655926 -0.002315542 0.036270063
0003f0 85 0c eb bc 2e 6f 1f bb 16 a8 46 bc 15 19 5b 3d
       -0.028692493 -0.0024327743 -0.012125036 0.053490717

column1.3.bias f4 [16]
000000 a3 23 f7 bb 18 07 c9 bc 83 be 3b 3c 19 29 8b bd
       -0.00754209 -0.024539515 0.011458996 -0.06794948
000010 9d d5 ea bd 3c 18 c0 bd 8c 7b 7e bd 4e 39 b2 bd
       -0.11466525 -0.09379622 -0.062129542 -0.08702336
000020 4f 2f a2 bd 00 57 b5 bc 91 9a 6b bd 69 c5 71 bd
       -0.0791918 -0.022136211 -0.057520453 -0.059026156
000030 a9 6b c8 bc 0d 0f c3 bd 31 05 f5 bd d8 f8 06 bd
       -0.024465399 -0.09524355 -0.11963881 -0.03295216

column1.6.weight f4 [32, 16, 7, 7]
000000 c3 0d 9b bd e3 3d 09 bd 3e d3 d4 3b 07 17 1f 3c
       -0.07570984 -0.033506285 0.0064949086 0.00971008
000010 71 c8 0e bd 8f f6 6d 3c c4 cb 15 bc 24 17 50 bd
       -0.034859125 0.014524116 -0.00914282 -0.05080332
000020 a4 2d d6 bc 53 82 48 bd 4a 16 33 3d d3 c2 f8 bc
       -0.02614481 -0.04895241 0.04372243 -0.030366337
000030 e1 d7 85 3b c2 6b 36 bd 61 e8 14 bd 99 b7 fe 3c
       0.0040845727 -0.04453636 -0.036354426 0.031093406
000040 d5 9a 10 b9 91 a1 da 3c 23 85 7f bc 93 f3 b6 3c
       -0.0001379059 0.026688369 -0.015595707 0.022332942
000050 f5 26 ea bc b5 82 a2 3c 69 c7 86 bc 50 3e 08 bd
       -0.02858303 0.019837717 -0.016452508 -0.03326255
000060 ff ff c5 3b 92 5c 9a 3b 5d bc 1d bd cf 62 84 3c
       0.00604248 0.0047107423 -0.038509715 0.016160397
000070 0d 6a 33 bd b1 72 0f 3c 39 13 ab 3c ff 68 8d bc
       -0.04380231 0.008755372 0.02088319 -0.01726198
000080 aa 7e 55 bd 30 05 6f 3a f8 cf a0 3c 20 6a 0c bd
       -0.05212275 0.00091178995 0.019630417 -0.034280896
000090 c1 43 a7 bc de 75 ea 3a f3 af da 3b fa 10 e0 bc
       -0.02041805 0.001788791 0.006673807 -0.027351845
0000a0 6e c0 7e bd f2 12 b4 bb 85 81 50 3c 36 a6 74 bd
       -0.062195234 -0.0054954225 0.012726192 -0.059728824
0000b0 a9 ed 0b 3c 0b 4f 32 bc ce c3 45 bd db 9b 08 bd
       0.008540549 -0.010883103 -0.048282437 -0.03335176
0000c0 d0 24 09 3b 26 98 a2 bd 8d 35 d7 3d c0 6c b2 3c
       0.0020926483 -0.07939176 0.10508261 0.021780372
0000d0 f0 13 6f bc ec 94 4e bd c8 39 49 3e ab 21 60 3d
       -0.014592156 -0.05043499 0.19650948 0.05471961
0000e0 1a 2f 2f be b9 d6 77 3d a2 9f 59 bd 7b 04 58 3d
       -0.17107812 0.06050751 -0.053130753 0.052738648
0000f0 ca 30 df bc 5f 75 3d 3e a9 fb 6e 3a 93 7d a4 be
       -0.027244944 0.18501805 0.000911648 -0.32127056
000100 b4 f4 51 3d 25 13 0f be fd 02 df bb c9 1b b5 bd
       0.051258758 -0.13972147 -0.006805776 -0.0884319
000110 79 79 57 3d b7 85 d1 3b ca 8f 78 be 80 5b 3e 3c
       0.05260608 0.006394114 -0.24273601 0.011618495
000120 38 7c 98 bd 3a bb 9b bc cc 1a d3 bc b1 ba 5e 3d
       -0.07445568 -0.019010175 -0.025769614 0.05437726
000130 5a 91 86 bb 89 9d 83 be bd da 86 3c 57 86 2b bd
       -0.0041066827 -0.25706127 0.016461724 -0.041876163
000140 d3 31 9b 3c e8 11 a1 bd 8d cc b0 3c 8f e2 4b bb
       0.018944656 -0.078647435 0.021581912 -0.0031110381
000150 de d4 ef bd dd 83 c1 3b 02 84 e3 3d 12 0d 1f bd
       -0.11710523 0.005905612 0.11109163 -0.038830824
000160 d8 bf 5c bc 13 e4 44 bd 0b 8e 99 3c 3f d6 a5 bc
       -0.0134734735 -0.04806907 0.01874449 -0.020243762
000170 5e 74 47 bd e0 ae 06 3e d6 91 14 be 67 a4 03 3d
       -0.04869496 0.13152647 -0.14508757 0.03213921
000180 4e be a8 bd ed 92 82 3c 9c 20 35 bd c6 59 d2 bc
       -0.08239423 0.0159392 -0.04422055 -0.025677573
000190 f9 f5 69 bc 76 2c 5d bd 2a a5 64 3c 8a 90 1b 3c
       -0.014279836 -0.05399748 0.013955394 0.00949491
0001a0 fd 14 66 bd 6f a5 b3 3a 6e 7e 0b bc 0a d4 4c bd
       -0.05617236 0.0013705919 -0.00851403 -0.050006904
0001b0 47 3d 50 bc a4 42 14 3d ce 5a 47 bd 23 f0 46 bd
       -0.012709922 0.036196366 -0.048670582 -0.048568856
0001c0 2d 51 85 bc 18 eb 12 3c 41 d1 68 3c 33 42 bc 3c
       -0.01627406 0.0089671835 0.014210046 0.022980785
0001d0 6e 5a 75 3c 99 90 56 bc 6b 24 bf bd fe b6 19 bd
       0.014975173 -0.013095998 -0.09333118 -0.03752803
0001e0 90 0d af 3c 34 03 04 3b 62 99 04 3c 4e ef 22 bd
       0.021368772 0.002014351 0.00809321 -0.039779
0001f0 e4 9e 5f bb 24 40 af bd 11 b5 96 3c c6 4e 09 3d
       -0.0034121806 -0.08557156 0.018396886 0.03352239
000200 76 8b b0 3c 80 8b 00 3d b5 77 96 3c 8d f0 a5 bb
       0.021550875 0.031383038 0.018367628 -0.0050640763
000210 f9 96 8f bd f1 af 17 3d 32 b6 ce 3c 68 b5 d3 3c
       -0.070112176 0.037033025 0.025233362 0.025843337
000220 a3 20 d1 3c 57 1a cb bc 9f 09 a5 bc 36 80 8a bd
       0.025528258 -0.024792833 -0.02014619 -0.067627355
000230 6e 9d 05 3d d3 3c ee bc bb c5 c1 3c ba 5a 61 bc
       0.03262084 -0.029081738 0.023653856 -0.013754541
000240 fb 29 8a bd b7 98 26 bd 8f 46 ea bc 05 1c a9 bd
       -0.067462884 -0.040672984 -0.028598098 -0.082572974
000250 90 49 46 bd 7f 6b 01 bc bb c2 ef 3b e5 92 9e bc
       -0.04841 -0.007899164 0.007316915 -0.019357154
000260 ab fc 54 bd 91 31 d9 bc f4 79 36 bd 35 98 a1 bd
       -0.051998775 -0.026512893 -0.044549897 -0.07890359
000270 cd cc cd 3b 8b e1 b4 bc 9d 73 53 3c 15 dd af bd
       0.0062805177 -0.022080204 0.012905982 -0.0858709
000280 8c 74 45 3c f8 9f 97 bc 7e ab b6 bd 70 03 5f 3d
       0.012051713 -0.018508896 -0.08919428 0.054446638
000290 83 09 90 3b ee eb ed 3a 77 85 b8 bd 8d e7 e0 bc
       0.004395665 0.0018151978 -0.090098314 -0.027454162
0002a0 18 ed 49 bd dc 59 ac bd a4 a1 e5 3c 4f 27 2a bb
       -0.049298376 -0.08415577 0.028031178 -0.002596337
0002b0 70 ec a8 bc 23 3c 67 bd ab e9 bd bc da ff 96 bc
       -0.020620555 -0.056453835 -0.02318271 -0.018432546
0002c0 5d 2a 91 bd 65 79 35 3c 8b 63 75 3c 6f 69 2e 3d
       -0.07088158 0.011076306 0.014977346 0.042581018
0002d0 23 68 b8 bd 92 28 27 bd 18 3a 12 bd 69 be 98 bd
       -0.090042375 -0.040810175 -0.035699934 -0.07458193
0002e0 7f ca 17 bc f7 5f fa 3c d4 7b 60 bc 0e dc b6 bd
       -0.009264587 0.030563338 -0.013701398 -0.08928691
0002f0 86 bb 45 bd 94 d9 fd bc 1b 44 41 bd c9 fc 33 3c
       -0.04827454 -0.030987538 -0.04718409 0.010985562
000300 2c 5f 85 3c de 1f 52 3d 09 e3 3f bd 1c c1 bf bd
       0.016280733 0.051299922 -0.046847377 -0.093630046
000310 14 58 7e bd 0e 4e 79 bd dd f0 10 3d 19 46 ec 3b
       -0.062095717 -0.060865454 0.035385955 0.0072105047
000320 ac d0 e4 bb 6f cd 25 3d 89 af 61 bb c8 a9 6c bd
       -0.0069828834 0.04047912 -0.0034436902 -0.057779104
000330 85 e7 01 bd d3 03 47 3d cf 64 63 3d 2b 51 fa 3c
       -0.031714935 0.04858763 0.05551606 0.030556282
000340 38 bf 16 3c 44 aa c4 bc fe de 64 bc f6 e2 36 bd
       0.009200864 -0.02400697 -0.013969181 -0.04465004
000350 a3 8e 4b 3d 6a fb 0a 3d df 1d 10 3d c4 49 db 3c
       0.049696576 0.033931173 0.035184737 0.026768573
000360 e4 22 9f bc 17 49 e4 bb f9 7e fa bb 1c 63 0f 3d
       -0.019425817 -0.006966721 -0.007644531 0.035006627
000370 d4 9b 57 3c 1a 46 28 3d cb 71 cb 3b ad 35 b6 3c
       0.013159711 0.04108248 0.0062086335 0.022242391
000380 7b 44 45 bd 91 47 5b bd 6c af c3 3c 74 26 8b 3c
       -0.04816101 -0.053535048 0.023887359 0.01698611
000390 e7 8d 66 3c 1e 47 20 3d 80 76 d2 3c ef fa 83 bd
       0.014071918 0.039130323 0.02569127 -0.06444346
0003a0 c1 22 96 bd c1 73 45 bd ef 5c d7 bc a4 b2 85 bb
       -0.073308475 -0.048206095 -0.026289431 -0.0040801335
0003b0 bb 98 04 3d e7 56 10 3d 53 6c 41 bd 3e 90 a4 bd
       0.032372218 0.035239127 -0.047222447 -0.080353245
0003c0 d2 f1 04 bd 12 f3 94 bb 21 d2 4f ba a9 be 16 3d
       -0.03245718 -0.004545578 -0.0007927735 0.03680292
0003d0 31 4a 35 3c c5 d6 39 bd 21 ae 53 bd 94 b3 8f bd
       0.011065052 -0.045370836 -0.051679734 -0.07016674
0003e0 58 f5 08 bc 99 7d 18 bd 8e 19 a6 bc e8 b2 b2 bd
       -0.008359276 -0.037229154 -0.020275857 -0.0872553
0003f0 d7 14 54 bc e6 b5 68 3b b2 4c 94 3c ea ce 08 bc
       -0.012944422 0.003550881 0.018102977 -0.008350113

column1.6.bias f4 [32]
000000 cd d6 20 3c 6b 44 aa 3c 9e fe c4 bd 02 2e 3b bd
       0.0098168375 0.020784577 -0.09618877 -0.045698173
000010 68 33 3c 3a 7a ba 8d bd d9 c0 ba bd f5 9e 7e bd
       0.0007179291 -0.06920333 -0.09118814 -0.062163312
000020 fa c5 8f bd bc f3 fe bb 8b 57 48 bc 10 57 12 be
       -0.07020183 -0.0077805202 -0.012227903 -0.14291024
000030 15 1b 21 39 a9 02 e2 bc 16 da d7 bc 0e 21 a7 bd
       0.00015364245 -0.02758916 -0.026349109 -0.081606016
000040 ff 45 5f bd eb 19 39 bd 89 18 a1 3d f1 e2 cc 3c
       -0.054510113 -0.045190733 0.07866008 0.025010558
000050 54 ac bd bd 9e 1f 6b bd 73 58 e8 bc 12 1d 9f bd
       -0.092613846 -0.0574032 -0.028362488 -0.077692166
000060 59 3b d3 bd 02 e6 1b 3d dd 52 f5 bd 18 1d 9f 3c
       -0.10314054 0.03806115 -0.119786955 0.019423053
000070 43 0c 0e bd d1 3b 90 bd a7 c8 a1 bd 8d ed a2 bd
       -0.034679662 -0.07042659 -0.078995995 -0.079554655

column1.8.weight f4 [16, 32, 7, 7]
000000 84 f0 42 bd cd 75 74 bc 0d 3f bb 3c b2 0e 17 3b
       -0.047592655 -0.014920664 0.022857213 0.002304953
000010 7a 9c 38 bd 2c 51 93 bd 20 f9 0f bc cb 01 65 bd
       -0.045071103 -0.07193217 -0.008787423 -0.055909913
000020 ac e4 5d bd 35 fc bf bc 4f 55 32 bb db d7 3f bd
       -0.054173157 -0.023435691 -0.0027211492 -0.046836715
000030 da 18 91 bd 1d a6 0f 3c b3 d1 c5 bd 8c bf 66 bd
       -0.07084818 0.008767632 -0.096591376 -0.056335017
000040 90 16 43 bd 57 99 4f bd 93 cd e2 bd 14 0a e5 bd
       -0.04762894 -0.050683346 -0.110743664 -0.11183563
000050 07 6c 98 3c 7f d0 74 bd c3 70 59 bd 45 1a 53 bd
       0.018606199 -0.05976915 -0.053086054 -0.051538724
000060 39 64 e0 bd d3 ad 06 be e2 d6 82 bd cc a3 1b 3c
       -0.10956616 -0.13152246 -0.06388642 0.009499501
000070 12 a2 61 bd 00 b4 96 bd 0c 1c 5c bd 59 64 a3 bd
       -0.055086203 -0.07358551 -0.053737685 -0.07978124
000080 72 63 00 be 23 c0 b8 bd 31 d4 96 ba 25 e1 49 bc
       -0.12537935 -0.09021022 -0.001150733 -0.012321745
000090 fb bf 98 bd bb fe b0 bd ce b1 0d be 4a 3f aa bd
       -0.07458492 -0.08642336 -0.13837358 -0.08312853
0000a0 43 9a 82 bd 0a 01 47 bc 22 8b 51 bb 2e 54 46 bc
       -0.06377079 -0.012146244 -0.0031973799 -0.012105031
0000b0 68 d5 8a bd ee 44 13 be 10 5a d5 bd 6f 01 01 bd
       -0.06778985 -0.14381763 -0.10417569 -0.031495508
0000c0 51 13 f7 3c e0 fa ed 3c c6 6d 99 bb 92 40 fa bc
       0.030160578 0.02905029 -0.0046822755 -0.030548368
0000d0 21 08 12 bc ee 07 25 bc bb ce 07 bd ba 18 26 bd
       -0.008913071 -0.010072691 -0.033156138 -0.040550925
0000e0 d0 8d 80 3c af f4 a6 3c 22 fa 89 3c fc 03 02 3d
       0.015692621 0.020380346 0.016842905 0.03174208
0000f0 3a 6c ef 3b 4c 13 71 bd e9 b6 0f bd 3d 95 06 3b
       0.007306603 -0.058856294 -0.035086546 0.002053573
000100 7d 24 2a bc aa db 07 3b 97 50 82 ba fd 8c a7 3b
       -0.010384676 0.0020730295 -0.000994223 0.0051132427
000110 1d d1 71 bc 9d 4a 59 bb 14 fc f7 bc 18 8d 0e 3c
       -0.014759329 -0.0033156045 -0.030271567 0.008700632
000120 21 52 12 bd 5c d0 ee 3b 39 09 d1 bc 22 a8 70 3c
       -0.035722855 0.007288022 -0.025517093 0.0146885235
000130 64 aa 79 bc c7 fd b1 bc 18 ad f3 3b 35 ce fc bb
       -0.015238378 -0.021727456 0.007436406 -0.0077150115
000140 e5 bd 60 bc 2b f3 5b bd 80 45 9e bc a4 65 03 ba
       -0.013717149 -0.0536987 -0.01932025 -0.0005012399
000150 1b 49 e2 3b 10 33 37 bc 13 34 b9 bc 8d 61 44 bd
       0.0069056875 -0.011181608 -0.022607839 -0.047944594
000160 d2 ae 18 bd b5 a9 4b bd c5 fe d0 bc d9 a5 09 bc
       -0.037276097 -0.049722392 -0.025512109 -0.008401358
000170 35 b6 81 bc e9 c6 e1 bb 55 da 36 bd c3 ac 60 bd
       -0.015833953 -0.006890167 -0.04464181 -0.05485226
000180 ed 7b 67 bd 54 83 2f bd 22 0c 3b bd e3 2e 31 3e
       -0.05651467 -0.042849854 -0.045665868 0.17303042
000190 a7 f6 d6 3d a4 c1 7b 3e 3f 0b c2 3d 87 56 8c 3e
       0.10496264 0.24585587 0.09474801 0.27409765
0001a0 c1 56 a6 3b 37 5b 07 3d 82 23 a4 3d ea 69 95 3e
       0.00507626 0.033045974 0.08014585 0.2918237
0001b0 a6 01 a5 3e 01 16 10 3e 54 a3 f4 3d 89 c7 88 bd
       0.3222782 0.14070894 0.11945215 -0.06678683
0001c0 eb 5e ae 3d 6c d4 3c 3b cc 81 be 3e d2 39 ce 3e
       0.08514198 0.0028813137 0.37208402 0.40278488
0001d0 56 39 51 3e dc 86 02 3b b0 5b 03 be 75 03 2e 3d
       0.20432028 0.0019916808 -0.12827945 0.042483766
0001e0 7e 31 8f bd da 4f b7 3e 82 66 e0 3e 01 65 92 3e
       -0.06991862 0.3580311 0.43828207 0.28592685
0001f0 a3 43 98 3d 6f d7 5d be 66 7e 46 3d ae 76 67 bd
       0.07434776 -0.21664213 0.048460387 -0.056509666
000200 8d 03 9e bc 9a 76 c9 3e 7c f4 8d 3e d7 03 e2 3c
       -0.019288803 0.39348298 0.2772559 0.027589722
000210 db 81 66 be 85 66 33 3e 91 17 ed bc 1b c6 39 be
       -0.22510473 0.17519577 -0.028941901 -0.18141977
000220 62 59 68 3e 9a 2f 32 3e c8 56 8c 3d 25 d0 12 be
       0.22690347 0.17400971 0.0685249 -0.14337213
000230 7d 39 33 3e 9a d7 7d bd a9 cb 52 be e2 3c 96 3d
       0.17502399 -0.06197319 -0.20585503 0.07335831
000240 46 fa 8b 3c 35 42 28 3d f7 ae 9d bd 37 22 fa b9
       0.017087113 0.041078765 -0.076993875 -0.00047709208
000250 03 65 d9 bc 0a 8a 87 ba 9c 8f fc 3b 69 a2 94 bc
       -0.026537424 -0.0010340821 0.0077075493 -0.01814385
000260 85 92 48 3d 2c 69 91 3c 6c 7d ad bc 3d af fd bc
       0.048967857 0.017750345 -0.02117797 -0.03096735
000270 0e f2 98 bc 19 a0 a5 bc 42 29 01 bd 5c 21 bd b9
       -0.018670108 -0.020217942 -0.031533487 -0.00036073744
000280 16 1a 78 3c bf e1 33 bd fd 65 6c bd cc 72 30 bc
       0.015142938 -0.04391646 -0.05771445 -0.010769557
000290 7b 44 31 bd 8f d2 b1 bc f9 6f 6e bc 78 c9 e5 bc
       -0.0432782 -0.021706847 -0.014553064 -0.02805017
0002a0 ee ab e8 bc 02 94 90 bd d0 4d df bc cf f7 6a 39
       -0.028402295 -0.0705948 -0.027258784 0.00022408295
0002b0 af 63 aa bb 9d 5c 73 3c d6 e0 86 3c 8b 8e b6 3c
       -0.0051998715 0.014853624 0.016464632 0.022284767
0002c0 30 3b 5c bd e5 fc c3 bc 0a 33 3c bd 65 b9 2e bc
       -0.053767383 -0.0239243 -0.045947112 -0.010664319
0002d0 d8 82 f6 bb 58 48 ed bc ef 15 3a 3d 3c 99 16 bd
       -0.007522922 -0.02896516 0.045431074 -0.03676723
0002e0 fa f5 17 bd 8a 73 f9 bc c4 32 c3 bc 6e cf 58 bc
       -0.037099816 -0.030450601 -0.023827918 -0.013233049
0002f0 7c 3a 09 bc ac 4f c1 3c 7c aa 2c bd 56 b1 81 bc
       -0.00837576 0.02359756 -0.042154774 -0.01583163
000300 8f 53 18 bd 43 a7 29 bc 9e f8 fb 3b ba 24 24 bd
       -0.037189063 -0.01035482 0.0076895496 -0.040074088
000310 c3 2e 8c bc 2d 42 09 bc 3e 5f f7 bc ad 17 17 3b
       -0.017112141 -0.008377594 -0.030196782 0.0023054883
000320 d1 0c 44 bc 54 28 2b 3c 12 92 16 bc 7d c2 0a bd
       -0.011965946 0.010446627 -0.009190099 -0.033876885
000330 79 c3 0b 3c 35 b1 b0 3b 2d d6 9d bc 04 b2 ac 3c
       0.008530491 0.0053922185 -0.019267166 0.021080978
000340 9d 3f 6b bc 18 1e 8f bb fd 94 5a bc cf b7 87 bc
       -0.014358428 -0.004367601 -0.013341186 -0.016567139
000350 75 ae 32 bc b3 4d 14 bd 94 20 c1 bb 75 e4 bf 3c
       -0.010905852 -0.036206912 -0.005893776 0.023424366
000360 bd d9 1e bc fe 05 25 3c b1 6c af bc 4e c1 e8 bc
       -0.009695468 0.010072229 -0.021414133 -0.028412487
000370 db 70 91 3c f6 1f 95 bb 88 34 e9 b9 a6 f7 9a 3c
       0.017754009 -0.004550929 -0.00044480362 0.018916916
000380 da 86 4c 3c 21 0a df bb 23 3e 17 bb ee 0f 96 bc
       0.012483323 -0.0068066274 -0.0023077808 -0.018318143
000390 60 1a ca 39 a5 1f 18 bc d9 57 5a 3c 78 93 86 3a
       0.00038548093 -0.009284888 0.013326609 0.0010267338
0003a0 d4 95 81 bc 66 b7 59 3c 02 c6 1a bc f0 44 9a 3c
       -0.015818514 0.0132883545 -0.009446623 0.0188317
0003b0 51 86 fb bb 57 3c a4 bc f0 a7 d5 bc 96 06 26 bc
       -0.007675924 -0.020048304 -0.026081055 -0.010133406
0003c0 7c 34 a8 bc e7 f1 e7 ba aa 03 f4 bb 21 04 dd bb
       -0.020532839 -0.0017695994 -0.007446726 -0.006744877
0003d0 3d 8e 2f bc fa a5 04 ba c4 47 a5 3c 5a 79 93 3c
       -0.010715065 -0.0005060133 0.020175822 0.0180022
0003e0 de d5 ae 3b 03 0a 5c 3b b5 f2 d4 3b e4 25 52 bc
       0.0053355535 0.0033575303 0.0064986595 -0.012826417
0003f0 30 04 88 bb 3c e0 91 3c 98 29 8d bc 98 3f 6f 3c
       -0.00415089 0.017807119 -0.017231748 0.014602564

column1.8.bias f4 [16]
000000 cc 3f a6 bd 42 ae 99 bd 29 59 4e bd 29 5d e6 ba
       -0.08117637 -0.0750394 -0.050378 -0.0017575371
000010 de 7e c6 bc 3b e1 9f bd a4 e0 39 bc e1 4d d6 bc
       -0.024230417 -0.07806631 -0.011345062 -0.026160182
000020 ed b6 17 bd 6e cd d4 bb b2 a3 84 3d fc df be 3c
       -0.037039686 -0.0064942157 0.06476535 0.023300163
000030 07 d7 ae 3c c8 ed d9 bc ba 4f df 3c 3a 41 68 bd
       0.021342767 -0.02660264 0.027259696 -0.05670283

column1.10.weight f4 [8, 16, 7, 7]
000000 b6 e6 a5 bd ff c2 2e bd e8 08 e1 bc 03 3c 6f bb
       -0.08100645 -0.04266643 -0.027470067 -0.0036504276
000010 ff e7 21 bc 05 17 93 ba c6 e9 08 3d fa 65 d2 bc
       -0.009881972 -0.001122207 0.03342607 -0.025683392
000020 5e 1d 0f 3c b7 fc ba 3c 69 78 a4 3c 45 cf 0f 3d
       0.008735029 0.022825582 0.020076947 0.035109777
000030 cc 71 20 3d 7a 63 20 3d 49 eb ad bc a9 64 fe bc
       0.039171025 0.03915737 -0.021230357 -0.031053858
000040 cf a6 ea bc 7d 1f b8 ba 7e 42 4b 3d cd 40 1a 3d
       -0.028643994 -0.001404747 0.04962396 0.037659455
000050 35 f8 cc 3c 9d 32 80 bd e3 19 0a bd c1 54 40 bc
       0.025020698 -0.06259654 -0.033716094 -0.011738957
000060 c2 5e fa bb f0 4c 1c 3d 5b 4f 29 3d 44 88 30 3d
       -0.0076406905 0.03815931 0.041335445 0.043098703
000070 94 ec 58 bd af 1c 49 bc 7c 04 76 bb 8c 1b 90 3c
       -0.052959993 -0.012274905 -0.0037539294 0.01759126
000080 99 b7 88 bb 89 c9 b2 3c 0c df bc bc e9 26 0b bd
       -0.004172277 0.021824615 -0.023055576 -0.033972654
000090 13 07 57 bd 7d 46 e2 bc dd 13 02 bd b3 7e d5 3c
       -0.05249698 -0.027621502 -0.031757224 0.026061391
0000a0 2b d8 37 bc 86 35 a1 3c 37 8d 9c bd 0c 99 5e bd
       -0.011220972 0.019678842 -0.07644122 -0.054345176
0000b0 8f 81 a4 bc d3 81 02 3c cf d3 24 bc 2f 39 99 bb
       -0.02008131 0.007965523 -0.010060265 -0.0046760063
0000c0 a0 16 80 3c 96 1d 9a bd 3d d4 bc bc 68 f1 df bc
       0.015635788 -0.07525174 -0.023050422 -0.027336791
0000d0 14 2b a2 3c 43 a2 93 bb d0 f0 30 3d 83 15 2a 3c
       0.019795932 -0.004505427 0.043198407 0.010381105
0000e0 62 ba 80 bd ad b0 8c bc d5 3d 7d 3c b0 c0 88 3c
       -0.0628555 -0.01717409 0.015456636 0.016693443
0000f0 8f ad 8b bb 7f ba 68 3d fe fd 5c 3d 42 4a 8d bd
       -0.004262633 0.05681848 0.053953163 -0.06898929
000100 94 a7 e2 bc f3 ab 8a 39 2b 9a ca bc 38 ad 8d 3c
       -0.027667798 0.00026449523 -0.024731716 0.017294511
000110 42 42 10 3c 05 f7 94 3d 43 b2 4d bd 3d 45 20 bd
       0.00880486 0.07273678 -0.05021883 -0.03912853
000120 93 c1 94 3a e4 15 ad 3c f7 e3 02 3d 20 5e 99 3d
       0.0011349194 0.021128602 0.031955685 0.07488656
000130 eb c6 70 3d 55 7b 25 bd 73 59 9f bc c4 25 42 bd
       0.058783453 -0.04040082 -0.019451832 -0.047399297
000140 96 e5 0a 3c fc af 3d 3d 92 0d 67 3d 8f ca 9d 3d
       0.008477589 0.04631041 0.056409426 0.077046506
000150 be 72 af bd f3 21 f9 bc ed 49 13 bb 79 a3 ad 3c
       -0.08566807 -0.030411696 -0.0022474483 0.021196114
000160 49 17 1f bc 3b 17 70 3c 2a 24 3e 3d 86 96 24 bd
       -0.009710141 0.014653976 0.046421207 -0.040182613
000170 3a 78 91 bd 7d 93 26 bd 1c 1e 83 3c e9 24 1c 3d
       -0.071030095 -0.040668 0.016005568 0.038121138
000180 bf 86 f7 ba 9c 8e 62 3d 2d 7b eb bc 23 eb 52 bd
       -0.0018884762 0.055311784 -0.028745258 -0.051493775
000190 f8 09 9a bc d7 6a a3 3c 70 ae b2 3c 93 99 6c bc
       -0.018803582 0.019948406 0.021811694 -0.014440912
0001a0 f9 58 4e 3d 32 72 3f bd de c5 10 bd b6 ea 32 bc
       0.05037782 -0.046739765 -0.03534495 -0.010920217
0001b0 42 d0 83 bb 6c fc 04 bc 27 da 36 bc 6a cd 32 bc
       -0.004022629 -0.008116823 -0.01116041 -0.010913232
0001c0 00 4e a5 bc 5d 02 0c bd b7 cd 34 bd 45 bf 4b 3c
       -0.020178795 -0.03418194 -0.044141497 0.012435739
0001d0 d4 ea 76 bb 72 e5 aa 3a a3 5a 06 3b 51 05 3e bd
       -0.003767659 0.0013038351 0.00205008 -0.04639179
0001e0 65 59 22 bd 78 3e 8b 3c 58 69 ce bb 48 b5 96 3c
       -0.039636035 0.01699756 -0.006299179 0.018396989
0001f0 b8 c6 95 bc df 9b d0 3c 5d ce 22 bb 63 d3 be bc
       -0.018283233 0.02546495 -0.002484224 -0.023294156
000200 43 d2 cd 3c 23 c8 a4 bb 48 50 bd bb 5d ed 7e 3c
       0.025124675 -0.005028741 -0.0057773925 0.0155595215
000210 52 1b 21 3d 40 d6 34 bd 7f e0 23 3a bc 7b 23 bb
       0.039332695 -0.044149637 0.0006251409 -0.0024945578
000220 ba 0f 04 3d dd 76 55 3c ea 42 bc 3c 35 3d bf 3c
       0.03224156 0.0130288275 0.022981126 0.023344615
000230 cc ab 88 bc 0d 05 98 bb c1 a0 e5 bc 1e c7 c4 3c
       -0.016683482 -0.004639274 -0.028030755 0.024020728
000240 cf e8 d4 bc 3f 35 dc 3c 50 05 fe 3c 21 6b 3a bd
       -0.025989918 0.026880858 0.031008393 -0.045512322
000250 2e 87 30 bd 68 cf b0 bd 9d 41 0e bd bb 00 a7 bd
       -0.043097667 -0.086333096 -0.034730542 -0.08154436
000260 e4 93 89 bd 1f 2f 9f bd 7d 3d 2f bd 65 d4 d1 bb
       -0.06717661 -0.077726595 -0.04278325 -0.006403493
000270 73 cd 33 bd 6f 5a d4 bc 5c 8d 37 bd 65 d4 3d bd
       -0.043897104 -0.025922028 -0.044812545 -0.046345133
000280 62 e2 be bc 1d bb 4b 3b df 4f d0 bb 9c 9f dc bc
       -0.023301307 0.003108687 -0.0063571776 -0.026931576
000290 9a 9a 99 bc c7 6c 63 bd 6d 94 00 bd 7e 37 96 bd
       -0.018750478 -0.05552366 -0.03139155 -0.07334803
0002a0 c3 70 9f bc 1f 86 52 bc 8f 5a 68 bd 99 26 88 bd
       -0.019462949 -0.01284936 -0.05672699 -0.06647987
0002b0 ea 5f 9c bc a3 f0 6d bd 27 66 26 bd 6d 39 44 bb
       -0.019088704 -0.058090817 -0.040624764 -0.0029941455
0002c0 3d 7d 71 bc 17 ea 0d bd d4 d5 86 bd bf d3 9b bd
       -0.014739332 -0.034647074 -0.06583753 -0.07608747
0002d0 b8 e4 7d bd cc 39 77 bd e7 2a eb bc 65 d3 6f bd
       -0.0619857 -0.060357854 -0.02870698 -0.05855121
0002e0 c9 40 81 bd 09 51 6c bd 6f 3f b0 bd 09 7c 90 bd
       -0.06311185 -0.05769447 -0.08605849 -0.07054908
0002f0 bc b9 8d bd 0f 38 90 bd 87 c2 ac bd 2e 71 86 bd
       -0.06920192 -0.07041942 -0.08435541 -0.06564556
000300 d3 d7 7c bd 9a 37 a0 bd a9 e8 89 bd 45 95 69 bd
       -0.061729264 -0.07823105 -0.067338295 -0.05702712
000310 ea 46 92 bb a6 4a 6b bc 14 49 92 bc 4a 96 6a 3b
       -0.00446402 -0.014361059 -0.017857112 0.0035795146
000320 22 08 b0 bd a8 df a9 bd 36 bc a8 bd f4 35 fc bc
       -0.08595301 -0.08294612 -0.082390234 -0.030787446
000330 73 42 19 bd dc 9c 89 3b ab 50 f1 3c b9 8d 73 bd
       -0.037416887 0.0041996073 0.02945741 -0.05946133
000340 f2 89 e3 bd 26 a8 ed bc 08 a7 ce bc 95 13 d3 bc
       -0.11110295 -0.029010843 -0.025226131 -0.025766173
000350 c1 5c 92 3b 65 43 8a bc 7f 12 84 bd 00 27 d1 bd
       0.0044666235 -0.01687784 -0.0644884 -0.10212517
000360 e7 90 85 bd d6 77 24 3d 7b 3b 92 3a db f8 d5 3c
       -0.065217786 0.040153347 0.0011156643 0.02611964
000370 f1 f2 62 bc 90 af 66 3b 8c 86 75 bd b6 5f 8d bd
       -0.013851867 0.0035199858 -0.059942767 -0.06903021
000380 dc 03 81 bc 15 39 cd bb 04 4e ea 3c 54 47 8b bb
       -0.01574891 -0.006262908 0.028601654 -0.0042504463
000390 54 d8 2b bc 91 f8 63 bd 4d 5f 70 bd 3c 9a 82 3c
       -0.010488588 -0.055656973 -0.058684636 0.015942685
0003a0 f6 81 93 bc ef 15 2e bc b2 99 4e 3d 69 29 6a bd
       -0.018006306 -0.010625347 0.050439544 -0.057168398
0003b0 e5 a2 83 bd aa 36 7f bc f8 44 3d bc 41 aa c9 3c
       -0.06427554 -0.015576998 -0.011552088 0.024617316
0003c0 73 5b d4 3c 70 9b f4 3c 3c 19 d4 bc ef db 82 bd
       0.025922513 0.029859275 -0.025890939 -0.06389605
0003d0 8c 8e 79 bd 2b 74 14 bd 47 14 03 bd b0 c4 1e bd
       -0.06092696 -0.0362436 -0.03200176 -0.038761795
0003e0 f8 3c 20 bc a5 97 9f bb 86 b6 70 3c 36 45 99 bc
       -0.009780161 -0.0048703724 0.0146919545 -0.01870976
0003f0 09 cf ce bc 0f f6 82 bb c4 37 fd bb 62 15 e5 bc
       -0.025245206 -0.0039966176 -0.007727595 -0.027964298

column1.10.bias f4 [8]
000000 72 ac b0 3d 00 9f 2e bd 13 5f 6e 3d ca 74 90 bd
       0.08626641 -0.042632103 0.05819614 -0.07053526
000010 55 e8 bb bc a9 27 d1 bd 5e 3f 31 bd 22 87 86 3d
       -0.022937933 -0.10212643 -0.043273322 0.06568743

column2.0.weight f4 [10, 3, 7, 7]
000000 7c fb bc bd 6b 3f ce 3b 1a 7d b6 bd 9e 81 84 bd
       -0.09227654 0.006294181 -0.0891058 -0.06470035
000010 2e 03 08 bd b8 14 0b 3d 9e b5 8f bc ce 36 83 bd
       -0.033206157 0.033955306 -0.017542657 -0.064069375
000020 96 df 6a 3d 00 97 ab bd 49 3f 3c bc e8 b9 a7 bd
       0.057342134 -0.0837841 -0.011489698 -0.08189756
000030 18 bc 08 b9 51 00 82 bd b5 ea 45 bd b2 d2 96 bd
       -0.00013040041 -0.063477166 -0.048319537 -0.07364406
000040 a9 5f 85 bd 2e 96 fc bc f8 a9 b4 3c 0b 77 c4 bd
       -0.06512386 -0.03083333 0.022053704 -0.09593018
000050 00 c1 1b 3d 8d db 44 bd 00 41 5f bd d3 b2 a3 bd
       0.038025856 -0.048060942 -0.05450535 -0.079930924
000060 40 ef a7 bc d9 a4 5b bc 77 de 68 bd a7 94 c6 bb
       -0.020499825 -0.013406002 -0.056852784 -0.006060201
000070 4e 74 44 bc 9d 83 6f bd d9 d3 30 3c b0 f4 da bd
       -0.01199062 -0.058475126 0.010792696 -0.10691202
000080 a4 a9 1e 3d 52 79 12 bd 91 86 5c 3d a3 36 3f bd
       0.038736 -0.03576023 0.05383927 -0.046682965
000090 7c c0 ac bd 97 09 e3 3c d4 6e c5 bd 61 76 7e 3c
       -0.08435151 0.027714534 -0.096402794 0.015531153
0000a0 c2 31 94 bc 8d 30 5d bd 1b b5 80 3c cf ee 94 3b
       -0.018090133 -0.05400138 0.015711358 0.0045450698
0000b0 63 32 d2 bd 22 f2 92 3c 6c cc 7d bd 68 5b cc bd
       -0.10263517 0.017937724 -0.06196253 -0.09978372
0000c0 75 fa 9d bd ed a8 f7 3c 59 63 3c bd 4a ec cc bc
       -0.077137865 0.030231917 -0.045993183 -0.025015015
0000d0 53 64 bb bc 4e 67 e3 3c c3 2f 9f bd d5 59 b1 3c
       -0.022874987 0.02775922 -0.07772782 0.02164928
0000e0 1d 7f 25 3c 51 82 a5 3c fb f4 d4 bd 9d 4e 9e 3c
       0.010101107 0.020203741 -0.10398289 0.019324595
0000f0 49 ec 47 3c 2c 7c b2 bd 39 bc 35 3d d0 9b c3 bd
       0.012202331 -0.0871509 0.044368956 -0.09551203
000100 ba a2 04 bd 28 19 d7 bd 40 ae 3b bd 13 3d 4c bd
       -0.03238175 -0.10502845 -0.045820475 -0.049862932
000110 62 6c fc bc f3 8e e8 3c 1b d2 b5 bd f9 87 a0 bd
       -0.0308134 0.028388476 -0.08877965 -0.07838435
000120 f6 01 32 3d d4 33 24 bc ac fb 0f bc f6 f8 23 bc
       0.0434589 -0.010022122 -0.008788031 -0.010008087
000130 6c 18 c0 bd 3b 63 38 bd 86 5a 42 3d 2b 26 23 bc
       -0.09379658 -0.04501651 0.04744961 -0.00995783
000140 67 cc 2a bc 93 6c 7d bd 53 b2 1d bd 6c 2f c4 bd
       -0.01042471 -0.061871123 -0.03850014 -0.095793575
000150 5c 29 14 3d 59 f6 e2 bc 81 a6 d9 3b 07 3f 29 bd
       0.036172256 -0.027705358 0.0066421633 -0.041319873
000160 01 93 9d bd 0f ae 43 bd d7 36 67 bd 06 92 6b bd
       -0.076940544 -0.047773417 -0.056448784 -0.057512306
000170 f3 e8 8e bd 24 15 37 3d 60 00 72 bd fa 75 6c 3b
       -0.06978025 0.044697896 -0.05908239 0.0036081062
000180 80 d4 1c bc 83 d9 cc bd b6 b3 d0 bd 44 d2 11 3d
       -0.009572148 -0.100024246 -0.10190527 0.035600916
000190 5f 63 73 bd ef 1d be bd 1e 5d 42 bd a1 1b a6 3c
       -0.05942094 -0.09283053 -0.047452085 0.020276846
0001a0 ef 7a b1 bd 9d 8c f2 bc 2b 45 26 bd 7d 95 a1 3c
       -0.08666026 -0.029608065 -0.040593307 0.019724602
0001b0 ae 89 57 3d 40 5b 2f 39 f4 24 a6 bc db d2 68 bd
       0.052621536 0.00016723294 -0.020281292 -0.056841712
0001c0 e7 16 0d bb 5c 13 0b bc 60 bc 2c 3d eb 26 7c 3c
       -0.0021528543 -0.008488502 0.042171836 0.015390138
0001d0 6d b2 61 bd d1 63 de bd fa af c1 bb 26 14 e5 3c
       -0.0551018 -0.10858882 -0.0059108706 0.02796371
0001e0 f1 fa df bd 8a 79 d9 bd e1 2c 9a bd 6e 17 e0 bd
       -0.10936535 -0.10618885 -0.07528091 -0.10941969
0001f0 62 0e 45 bc 77 bf b9 bd 36 38 bc bd 64 57 2a 3c
       -0.012027355 -0.09069722 -0.09190409 0.010396812
000200 36 1a 02 3d 53 fe b6 bd c5 8b d5 bd 5a 14 3b 3d
       0.031763278 -0.08935227 -0.104270495 0.045673706
000210 cd 19 9c bd 66 19 88 bd 45 c1 5c bc 56 9b d4 bc
       -0.076221086 -0.06645469 -0.013473813 -0.025952976
000220 96 c7 9b bb 3a f0 34 3c 13 dc 7f bc 83 23 b5 bd
       -0.004754017 0.011043603 -0.015616435 -0.08844664
000230 1d db 50 bd 87 43 10 3d 76 79 27 bd 75 90 8b 3a
       -0.050990213 0.03522065 -0.04088732 0.001064791
000240 a3 ae 33 3d f5 0c c2 3c 1e d0 ae bd a3 c1 d8 3c
       0.04386772 0.023687819 -0.08535789 0.02645952
000250 9b 99 c3 bc 1a e3 95 bc b1 87 ce bc 0b fc 83 bc
       -0.023876956 -0.018296767 -0.025211187 -0.016111394
000260 76 ca 10 3d 44 44 22 bd 81 4f 91 3d ae 3c 21 3c
       0.03534933 -0.039615884 0.07095242 0.009841127
000270 4f 9c d7 bb 57 c3 a6 3d f9 6f d9 bb 57 f7 6e bd
       -0.0065799127 0.08142727 -0.0066356626 -0.05834135
000280 99 a8 0b 3d 77 39 46 3c 83 a0 76 bd f5 df 0d 3d
       0.034096334 0.012098662 -0.06021167 0.03463741
000290 cb 77 cd bc 52 5f 80 3d 87 5e 66 3d 80 8f 8c 3d
       -0.025081536 0.06268181 0.056242492 0.06863308
0002a0 d3 0f a0 bc ee 14 9a 3d 31 d5 98 bd 05 1c bd 3c
       -0.019538796 0.07523523 -0.07462538 0.02308465
0002b0 95 7b 5d bd b7 12 0d bc d9 43 7b 3d 94 e5 a5 bd
       -0.054072935 -0.008610419 0.061344 -0.08100429
0002c0 70 c1 51 bd 28 fd 86 bd 1d 98 4a 3d 48 0c 9f bc
       -0.051209867 -0.065912545 0.049461473 -0.019415036
0002d0 90 df 25 3d 24 85 26 3d 36 1d 6d 3c 66 2f 17 3d
       0.04049641 0.040654317 0.014472296 0.036910437
0002e0 45 7f 33 bc 2d 0d 9b bd 04 c2 6a bd dd 4a 4d bd
       -0.010955636 -0.075708725 -0.057313934 -0.050120223
0002f0 e0 55 44 3d 90 cc 88 bd 93 bb 22 3d 63 24 30 3c
       0.04793346 -0.06679642 0.039729666 0.010750863
000300 76 a5 eb 3a cb 78 2e bd bb c9 93 bd 13 26 bc 3c
       0.0017978388 -0.042595666 -0.072162114 0.022967374
000310 92 eb 65 bd 48 43 c0 bd ae d0 24 3c a9 98 1c bd
       -0.05613286 -0.09387833 0.010059519 -0.038231526
000320 30 38 81 bd 3e a3 9e bc 3a bc c2 bd a1 a2 11 ba
       -0.06309545 -0.01936495 -0.095085576 -0.00055555446
000330 9a 8f 98 bc cb 18 21 bd f6 12 c7 3c 6a 31 a0 bd
       -0.018623162 -0.039330285 0.024301033 -0.07821925
000340 2f 01 24 bd 0c 32 a8 bd 27 fa 92 bd 65 c9 bc 3c
       -0.04004019 -0.08212671 -0.07176619 0.023045251
000350 5b d7 7a bc 8f b7 d9 bd f5 d0 db 3b d8 bf dc bc
       -0.015310134 -0.10630714 0.006708259 -0.026946947
000360 98 2e 5a bd 68 44 c1 bd 8c 4b cc 3b 94 47 17 bd
       -0.05326709 -0.094368756 0.006234592 -0.036933497
000370 fe d4 a6 bb 00 20 ac bd 3e 0b 9e bd 7b 6c 5f 3d
       -0.0050913086 -0.08404541 -0.07716988 0.054546814
000380 e4 85 d2 bd eb b7 df 3c bb 86 0b bb d3 7e db bd
       -0.10279444 0.027309379 -0.0021290022 -0.10717549
000390 1b b8 5a bd 1c dd ba bc a9 f3 cd bd 69 83 45 3d
       -0.053398233 -0.022810511 -0.1005624 0.048221026
0003a0 14 d2 56 3d 27 45 b4 3c 16 e8 d3 3c 04 1b 54 bd
       0.05244644 0.02200563 0.025867503 -0.051783577
0003b0 07 9b 67 3c 7b b6 27 3d 91 10 a0 bd 67 57 b8 3c
       0.0141360825 0.04094551 -0.0781566 0.022502614
0003c0 7c 5e 0a 3d ab f7 49 3d e5 d4 f3 3c 34 04 c0 3b
       0.033781514 0.04930846 0.029764602 0.005859876
0003d0 80 3e bd bd 8f 62 a5 bc d8 fc 4d 3d 50 47 c1 bc
       -0.092404366 -0.020188598 0.05028996 -0.023593575
0003e0 dd 02 54 bd 3a d1 43 3c f0 fe d4 bd c0 b2 45 3d
       -0.051760543 0.011951739 -0.10400188 0.048266172
0003f0 ce 8a 86 3b 67 b0 2f bd 8b a5 d9 bd 8b c4 a4 bd
       0.0041059023 -0.04289284 -0.10627278 -0.080453

column2.0.bias f4 [10]
000000 6b 50 6d 3d 73 c1 04 3e 50 7b 09 bd 89 05 d4 bb
       0.05793802 0.1296442 -0.033564866 -0.0064703864
000010 6c 55 84 bd d4 81 2b 3c 90 58 99 bb 5c 8a 42 3d
       -0.064616054 0.010467965 -0.004679747 0.04749523
000020 35 56 1d 3e 59 fd 73 3d
       0.15364917 0.059567783
