src/crowd_counting.pth (torch, 583795 bytes, 31 tensors)

column1.0.weight f4 [8, 3, 9, 9]
0	0xbd393220	-0.04521382
1	0x3bb6ef04	0.005582692
2	0xbd19e2b9	-0.037569735
3	0x3d29abe2	0.041423686
4	0x3ba6bf56	0.005088727
5	0x3d143cf1	0.03619093
6	0xbd1b3176	-0.037888967
7	0xbcc99239	-0.024605857
8	0x3d315533	0.043294143
9	0xbd2e7dc6	-0.042600416
10	0xbbf22c73	-0.0073905527
11	0xbd0658c8	-0.032799512
12	0xbcc83f3f	-0.02444422
13	0x3cb72901	0.02235842
14	0xbc6f4f1c	-0.0146062635
15	0x3cf8709d	0.030327136
16	0xbb8003a2	-0.003906683
17	0x3cf88a8d	0.030339504
18	0x3d42408a	0.04742483
19	0xbd61171e	-0.054953687
20	0x3d0b1800	0.033958435
21	0xbd86499c	-0.065570086
22	0xbd644102	-0.05572606
23	0x3c316c1e	0.010829
24	0x3d01c049	0.031677518
25	0x3d6ac9bf	0.057321306
26	0x3c4e2a2a	0.012583295
27	0x3c381d4d	0.011237455
28	0xbcd06e76	-0.025443297
29	0xbc814210	-0.015778571
30	0x3d5dabe3	0.054119002
31	0x3d1599d9	0.036523674
32	0x3c37788d	0.011198175
33	0x3ce9199c	0.028454594
34	0x3d0ec0ca	0.034851827
35	0x3cb20490	0.021730691
36	0x3cbe1fef	0.023208586
37	0x3c9e09cb	0.019291779
38	0x3b8f60c7	0.0043755504
39	0x3d2c5192	0.04206998
40	0x3b5299af	0.003213506
41	0xbd81fc26	-0.063469216
42	0x3ae38a76	0.001735999
43	0x3d54975a	0.051902153
44	0xbce1a2ae	-0.027543392
45	0x3c87e391	0.016588004
46	0xbc50a49d	-0.012734559
47	0x3cca3d82	0.024687532
48	0x3cfd6b84	0.030935057
49	0xbc125bbf	-0.008933007
50	0x3d525722	0.051352628
51	0xbcf7e5be	-0.030260917
52	0xbd1bc9ca	-0.038034238
53	0x3d615b6d	0.05501883
54	0x3d02806d	0.031860758
55	0x3cc4421c	0.023957305
56	0xbd5419b1	-0.051782314
57	0xbaa0d621	-0.0012270847
58	0x3d560131	0.05224723
59	0x3c92a73b	0.017902007
60	0x3d6999e7	0.05703154
61	0x3c925f53	0.01786772
62	0xbbaaeb78	-0.0052160583
63	0xbbe81a31	-0.0070832004
64	0xbd213d08	-0.039364845
65	0xbc230af2	-0.00995134
66	0x3d2ea624	0.042638913
67	0xbca945d0	-0.020663172
68	0xbba2e7b8	-0.0049714707
69	0xbbaf29d7	-0.005345564
70	0x3d094541	0.03351331
71	0x3a83c325	0.0010052664
72	0xbd88a678	-0.066723764
73	0x3d22e3ed	0.03976815
74	0x3d5991f5	0.05311771
75	0xbba92dae	-0.005162916
76	0x3cd9b375	0.02657483
77	0xbca3d8da	-0.020000864
78	0xbd19b4d4	-0.037525967
79	0xbcb63cde	-0.02224582
80	0x3d6abacf	0.05730706
81	0xbceb8ab8	-0.02875267
82	0xbc8cc172	-0.017182086
83	0x3cd85cd8	0.026411459
84	0x3d4303aa	0.047610916
85	0xbbb6c7c8	-0.005578015
86	0x3b746298	0.0037290212
87	0xbd00c5f6	-0.03143879
88	0x3ca0d41d	0.019632393
89	0xbd7a2f89	-0.06108049
90	0xbd19ccd9	-0.037548874
91	0x3d728543	0.05920912
92	0xbc63e2e4	-0.013909075
93	0x3cd4ef3a	0.025992978
94	0xbc953998	-0.01821594
95	0x3d4278f4	0.04747863
96	0x3cc13262	0.023583595
97	0xbcd099f9	-0.025464045
98	0xbd78521b	-0.060625177
99	0xbce700b7	-0.028198583
100	0xbbb7fb98	-0.005614709
101	0xbc615506	-0.013753181
102	0xbd827452	-0.063698426
103	0x3d426590	0.04746014
104	0xbca584db	-0.020204952
105	0x3d222823	0.03958906
106	0xbd30a1a5	-0.043122906
107	0x3d53de21	0.05172551
108	0x3c36dc9f	0.011160999
109	0x3ce8a256	0.02839772
110	0xbd33955b	-0.04384361
111	0x3c13931a	0.00900724
112	0xbcd42634	-0.025897123
113	0xbce6fe33	-0.028197384
114	0xbbf7dc2e	-0.0075640893
115	0xbd854adc	-0.06508419
116	0x3cab2117	0.020889802
117	0xbca83d7e	-0.020537134
118	0xbd6cf40a	-0.05784992
119	0xbc47ffee	-0.0122070145
120	0x3c95ea60	0.018300235
121	0x3d377adb	0.0447949
122	0x3cbc4a08	0.02298452
123	0x3c9f9a68	0.019482806
124	0xbcfb9779	-0.030711876
125	0xbd50304f	-0.05082732
126	0xbd0a3682	-0.03374339
127	0xbcb1b6a8	-0.021693543
128	0xbccc9bda	-0.02497666
129	0x3ca86071	0.0205538
130	0xbd20fe32	-0.03930492
131	0x3ccb2532	0.02479801
132	0x3d00f97a	0.03148792
133	0xbc32ae16	-0.010905763
134	0x3c962710	0.018329173
135	0x3c469f2a	0.012122909
136	0x3cf41bfc	0.0297985
137	0xbce2d3c7	-0.027688874
138	0xbc4a9456	-0.012364468
139	0xbc2023d1	-0.009774164
140	0x3cdba26a	0.026810843
141	0x3cbb0696	0.022830289
142	0xbd19a138	-0.037507266
143	0xbc891030	-0.016731352
144	0x3c74dd55	0.014945348
145	0x3d4170f0	0.047226846
146	0xbc39fd2b	-0.011351864
147	0xbd638eb3	-0.05555601
148	0xbc32eca8	-0.010920681
149	0x3d103cf7	0.03521439
150	0x3ccbc29e	0.024873074
151	0xbc5d6538	-0.013512902
152	0xbd7379e3	-0.059442412
153	0xbd274eb5	-0.040846545
154	0xbc1f7bc9	-0.0097341025
155	0xbcc47cd0	-0.023985296
156	0xbd682fd6	-0.056686245
157	0xbd4009ea	-0.046884455
158	0x3d123b01	0.0357008
159	0x3d6c80ed	0.05774014
160	0x3d2fec03	0.042949688
161	0x3a5f9f0f	0.00085304765
162	0xbd4f63e8	-0.050632387
163	0xbcc388f1	-0.02386901
164	0x3d395873	0.045250367
165	0x3c9fb07c	0.019493334
166	0x3cca65ba	0.02470671
167	0x3c71aacd	0.014750195
168	0x3b351040	0.0027628094
169	0x3cf3ec62	0.029775802
170	0x3c98c222	0.018647257
171	0x3d6ae8eb	0.057351034
172	0xbc5d511b	-0.013508107
173	0xbd8bf59e	-0.06833957
174	0x3d4c4b00	0.049876213
175	0x3d3ffa7e	0.046869747
176	0x3d4d5037	0.050125327
177	0xbd7d3f30	-0.06182784
178	0x3cd84d93	0.026404178
179	0x3c42a262	0.011879535
180	0x3d379f59	0.0448297
181	0x3c77a64a	0.01511533
182	0xbd6ff71c	-0.05858527
183	0x3ce3a189	0.027786987
184	0xbd34bb5a	-0.044123985
185	0xbc879b51	-0.016553553
186	0xbbfb0a9a	-0.007661176
187	0xbd4c6c75	-0.04990812
188	0xbc2e3640	-0.010633051
189	0xbd54f1c7	-0.05198839
190	0x3d446295	0.047945578
191	0xbd66f6cd	-0.05638771
192	0x3c50b9d8	0.012739621
193	0x3d383857	0.044975605
194	0x3cb558a4	0.022136994
195	0xbd8a6fff	-0.06759643
196	0x3d6c47c6	0.057685636
197	0xba9387c6	-0.0011255674
198	0x3c89aec2	0.016806964
199	0x3c6031c2	0.013683738
200	0xbd77ac7e	-0.060467236
201	0xbd053cc6	-0.03252866
202	0x3d37fab4	0.044916824
203	0xbd876129	-0.06610329
204	0x3d1ef929	0.038811836
205	0xbd7d4e38	-0.061842173
206	0xbd39a0f6	-0.04531952
207	0x3cd0fb36	0.025510412
208	0x3c567905	0.013090377
209	0xbd3a5221	-0.04548848
210	0xbd3824fc	-0.044957146
211	0x3aee421a	0.0018177659
212	0x3cb5ba29	0.022183495
213	0xbd3f94d9	-0.04677281
214	0x3c70b7f2	0.0146922935
215	0x3d3745cc	0.044744298
216	0xbd530d4d	-0.051526356
217	0x3cda48a9	0.026645975
218	0x3d2d74be	0.042347662
219	0xbd80903b	-0.0627751
220	0xba1a411f	-0.00058843376
221	0x3d037653	0.032095265
222	0xbd8a53cc	-0.06754264
223	0xbce770c7	-0.028252019
224	0xbd308084	-0.043091312
225	0xbcb751f2	-0.022377942
226	0xbd36ecb2	-0.044659324
227	0xbd4d8f08	-0.050185233
228	0x3c41e939	0.01183539
229	0x3c5d2f93	0.013500112
230	0x3cc201b7	0.023682458
231	0xbbc872ac	-0.0061171856
232	0xbd88b000	-0.06674194
233	0xbd7fcc3b	-0.06245063
234	0xbd17ab39	-0.037028525
235	0xbcc21b1b	-0.023694566
236	0x3d5b13d5	0.05348571
237	0x3d131ea4	0.035917893
238	0xbd82bd86	-0.06383805
239	0xbd5291f8	-0.051408738
240	0xbceb9b0d	-0.028760457
241	0x3c80d87a	0.015728224
242	0xbd7f1539	-0.0622761
243	0x3c51c465	0.012803172
244	0xbcc4d6ef	-0.02402827
245	0xbd76665a	-0.060156204
246	0x3d526297	0.051363554
247	0xbc74a5b9	-0.0149320895
248	0xbcf7d1c0	-0.030251384
249	0x3d061ae5	0.032740492
250	0x3d3b44c7	0.045719888
251	0xbd3c8367	-0.046023753
252	0x3c54ed19	0.012995982
253	0xbd178de2	-0.037000544
254	0xbd2f6367	-0.042819407
255	0x3d741e1b	0.059599023

column1.0.bias f4 [8]
0	0x3be72c04	0.0070548076
1	0x3cc1a109	0.023636358
2	0xbd13cf08	-0.036086112
3	0xbc86cb9c	-0.01645451
4	0x3d040885	0.032234687
5	0x3b2c8a6c	0.0026327623
6	0x3d4d08c8	0.050057203
7	0xbd0b9b15	-0.034083445

column1.3.weight f4 [16, 8, 7, 7]
0	0xbcc6d4af	-0.024271337
1	0xbd3681fb	-0.044557553
2	0xbd23c7f3	-0.03998561
3	0x3d423e7b	0.047422867
4	0x3c4166f1	0.011804328
5	0xbc5fa019	-0.01364901
6	0xbd2f98b7	-0.04287025
7	0x3d17c2ef	0.037051138
8	0xb6ebe6c8	-7.0304122e-06
9	0xbbacea20	-0.0052769333
10	0x3cba603a	0.022750963
11	0xbd2661bb	-0.040620547
12	0xbc5590e6	-0.013035035
13	0xbd17e1ac	-0.03708045
14	0x3c2e50ce	0.0106393825
15	0xbcbd185e	-0.023082908
16	0x3cf1310d	0.029442335
17	0x3c0c9316	0.00857999
18	0x3c0c1841	0.008550704
19	0xbb5f3021	-0.0034055787
20	0x3c49c0c5	0.012314026
21	0xbd4e0b49	-0.05030373
22	0xbb99d34d	-0.0046943785
23	0x3d026573	0.03183503
24	0xbd297b33	-0.041377258
25	0xbcf00923	-0.029301232
26	0x3d426538	0.04745981
27	0x3c7fd2d3	0.015614229
28	0xbbc1f114	-0.0059186313
29	0x3c7fd1c6	0.015613979
30	0x3c0ce230	0.008598849
31	0x3cfc7391	0.030816825
32	0x3cbdc713	0.023166215
33	0x3d14fc8a	0.036373653
34	0xbd505e0b	-0.050870936
35	0xbd1870f2	-0.037217088
36	0xbca9b417	-0.020715756
37	0xbb9815ce	-0.004641271
38	0xbd558538	-0.052129
39	0xbce7a7ef	-0.02827832
40	0x3d3fdb5d	0.04684006
41	0xbd4a7da5	-0.04943623
42	0xbc490474	-0.012269128
43	0x3d37d8b9	0.044884417
44	0xbd12eb6b	-0.035869043
45	0x3d3dc0c5	0.046326417
46	0xbbdab7d1	-0.0066747447
47	0x3c8bb18d	0.017052436
48	0xbcd119da	-0.025525022
49	0x3d312b2c	0.043254063
50	0xbd33e9c8	-0.043924123
51	0x3d1722be	0.036898367
52	0x3d193a79	0.03740928
53	0xbd4f12a9	-0.050554905
54	0x3b46e2b9	0.003034754
55	0x3b95db53	0.0045732646
56	0x3b0d2b58	0.0021540727
57	0x3cd0b467	0.025476648
58	0xbc9ab86e	-0.018886771
59	0x3d05847a	0.032597043
60	0xbd213580	-0.039357662
61	0xbcfcdecf	-0.030867962
62	0x3c8b6e76	0.017020445
63	0xbc53127c	-0.012882825
64	0xbd4402a1	-0.04785407
65	0x3d163b87	0.036677863
66	0xbd29495f	-0.041329738
67	0x3cb8170e	0.02247193
68	0xbd3c8b46	-0.04603126
69	0x3d3e4db8	0.046460837
70	0xbd28945e	-0.04115712
71	0xbbc3b15f	-0.005972072
72	0x3d122392	0.035678454
73	0xbd3b7107	-0.04576209
74	0x3c7e7aac	0.015532177
75	0xbca3d8a5	-0.020000765
76	0xbafbdb6a	-0.0019215171
77	0x3cb99aa0	0.022656739
78	0x3cf90550	0.030398041
79	0xbc40f555	-0.011777242
80	0x3cfa1426	0.030527186
81	0xbc8cbb38	-0.017179117
82	0x3b117104	0.0022192607
83	0x3d2c700c	0.042099044
84	0xbb67ff59	-0.0035400002
85	0xbd192b23	-0.037394654
86	0xbca7d3ad	-0.020486677
87	0x3c830dff	0.015997885
88	0x3c8be9d8	0.017079279
89	0x3c6a012c	0.014282506
90	0xbc13c0e6	-0.009018159
91	0x3cca4a0b	0.02469351
92	0xbbfafb52	-0.0076593542
93	0xbd47c4a1	-0.048771504
94	0x3c8c5f8d	0.017135406
95	0x3d0f9a1b	0.035059076
96	0xbc60b22c	-0.0137143545
97	0x3c039643	0.008031431
98	0x3b28f88a	0.0025782906
99	0xbce0068b	-0.02734687
100	0xbc661d68	-0.014045097
101	0xbd29cb1a	-0.04145346
102	0xbd337ac2	-0.043818243
103	0xbc817c40	-0.015806317
104	0x3d3b981a	0.045799352
105	0x3c28fb40	0.010313809
106	0x3d216330	0.039401233
107	0xbc5f19c3	-0.013616982
108	0x3d342bc4	0.04398705
109	0xbd2a9920	-0.041649938
110	0x3b11b0c2	0.00222306
111	0xbc1ed81d	-0.00969508
112	0x3cb9d4f2	0.022684548
113	0x3cfd9f6c	0.030959807
114	0xbc5c9e16	-0.013465425
115	0xbd323fa8	-0.04351774
116	0x3c8bac0a	0.017049808
117	0xbd15118f	-0.0363937
118	0x3d3e8279	0.046511147
119	0x3c85ab26	0.016316961
120	0xbc0a313c	-0.00843459
121	0xbcfbc5cd	-0.030733967
122	0xbd027b8e	-0.031856112
123	0xbba657dd	-0.005076392
124	0xbcbcceef	-0.023047892
125	0x3d3f2703	0.046668064
126	0x3d07c222	0.033144124
127	0x3d18262d	0.037145782
128	0x3d1c4876	0.03815504
129	0xbd02f7bf	-0.03197455
130	0x3c8f4a21	0.017491402
131	0x3c0a2857	0.008432469
132	0x3cd5f705	0.026118765
133	0x3cb78112	0.022400413
134	0x3cb80657	0.02246396
135	0xbd3b5ef2	-0.045744844
136	0x3bee2287	0.0072672996
137	0xbc90bae1	-0.017667236
138	0x3c82348f	0.015894203
139	0x3d1d6ca0	0.03843367
140	0x3c226009	0.009910592
141	0xbd188db1	-0.037244502
142	0x3cc3e477	0.023912651
143	0x3d3e1ef6	0.046416245
144	0xbd0e1df1	-0.034696523
145	0xbc8b96fc	-0.017039768
146	0x3d02c85e	0.031929366
147	0xbc5b0995	-0.013368984
148	0x39990b7f	0.00029191
149	0x3d181770	0.037131727
150	0x3bc1439d	0.0058979527
151	0xbd4b0b05	-0.049571056
152	0xba0ccd2c	-0.0005371149
153	0xbd48e843	-0.049049627
154	0xbd02e812	-0.0319596
155	0xbce34797	-0.027744098
156	0x3c7994c4	0.015233222
157	0xbb58c71d	-0.0033077665
158	0x3b4360c8	0.0029812325
159	0xbd28d647	-0.041219976
160	0x3cee2da4	0.029074498
161	0x3c155c38	0.009116225
162	0x3d24d7b0	0.040244758
163	0xbc91c966	-0.01779623
164	0x3d1498ce	0.03627854
165	0xbbedb761	-0.0072545265
166	0x3d131671	0.035910074
167	0x3b12b375	0.0022384797
168	0x3d3b159b	0.0456749
169	0xbce09e47	-0.027419223
170	0x3cdfd456	0.02732293
171	0xbd0523f7	-0.032505002
172	0x3ca45770	0.020061225
173	0xbb016dbe	-0.001974925
174	0xbc7af3f7	-0.015316955
175	0xbd5561fc	-0.0520954
176	0x3d31e0cc	0.043427274
177	0xbcf1621b	-0.029465726
178	0xbd49d433	-0.049274635
179	0xbcffda71	-0.03123209
180	0xbcb0cf56	-0.02158324
181	0xbca18b23	-0.019719666
182	0x3acf731e	0.0015827154
183	0x3d059a1d	0.032617677
184	0xbce6ed0d	-0.028189206
185	0xbd24007c	-0.040039524
186	0xbcdea06a	-0.0271761
187	0x3d0d365a	0.03447566
188	0x3cf62f89	0.030051963
189	0x3d241b08	0.04006484
190	0xbd0361d7	-0.03207573
191	0xbd51c237	-0.05121061
192	0xbc8f247b	-0.01747345
193	0x3c74bb98	0.014937304
194	0xbcc03452	-0.023462448
195	0x3d156d53	0.036481213
196	0x3c6a5f5a	0.01430496
197	0x3d31d463	0.04341544
198	0xbb15334e	-0.0022766176
199	0x3bc777e9	0.0060872925
200	0x3cd32a4c	0.025777005
201	0x3c0bc5a3	0.008531007
202	0xbc390c2c	-0.011294406
203	0x3d046024	0.03231825
204	0x3d300748	0.042975694
205	0xbd39f8af	-0.04540318
206	0xbccc2ce8	-0.024923757
207	0xbd31fd0e	-0.043454222
208	0x3cdbf773	0.026851391
209	0x3d3aaab7	0.045572963
210	0x3cceb955	0.025234858
211	0xbd07d51e	-0.03316223
212	0x3cba7195	0.022759238
213	0x3cf24c56	0.029577415
214	0x3c2b396c	0.010450702
215	0xbd02f5f9	-0.03197286
216	0x3cc5bee2	0.024138872
217	0x3ceca6f1	0.028888198
218	0xbd169826	-0.036766194
219	0x3cf2e0ad	0.02964815
220	0xbb682d70	-0.0035427473
221	0x3c8ce4ff	0.017199038
222	0x3cdc5e0d	0.026900316
223	0x3c816bbb	0.01579844
224	0x3ceb2173	0.028702473
225	0xbd456edf	-0.048201438
226	0xbcc0a392	-0.023515496
227	0xbd1410bc	-0.03614877
228	0x3adfd9e1	0.0017078483
229	0xbc05a7ed	-0.008157712
230	0x3cb6c693	0.022311484
231	0xbce849f8	-0.028355584
232	0x3b19e023	0.0023479543
233	0x3c430344	0.011902634
234	0xbd40da1e	-0.047083013
235	0xbcf58f8d	-0.029975677
236	0x3c447483	0.011990669
237	0x3cfe6c06	0.031057369
238	0x3d299c98	0.041409105
239	0xbc8605ba	-0.016360153
240	0xbd1360ee	-0.03598111
241	0xbba5b651	-0.005057134
242	0x3b93ffcf	0.0045165787
243	0x3b1b0f18	0.002366012
244	0xbd262ec5	-0.040571947
245	0x3d0a5fbc	0.033782706
246	0x3d32ee7b	0.043684464
247	0x3cc34a3b	0.023839107
248	0xbd5c879e	-0.053840272
249	0x3cec30a3	0.028831786
250	0x3b07f825	0.002074727
251	0xbb85863c	-0.00407484
252	0xbd35b0f0	-0.044358194
253	0xbd0e8a5b	-0.034799915
254	0xbcd3bc3e	-0.025846597
255	0xbc0218fd	-0.007940528

column1.3.bias f4 [16]
0	0xbcadb48c	-0.021204256
1	0x3d000e23	0.03126348
2	0x3c87c93e	0.016575452
3	0xbd05b729	-0.03264538
4	0x3b90940c	0.00441218
5	0x3ce0de58	0.027449772
6	0xbd4fd7b2	-0.050742812
7	0xbc7af213	-0.015316504
8	0x3b675cc4	0.0035303095
9	0x3cc63701	0.02419615
10	0x3cca0150	0.024658829
11	0xbd55d089	-0.052200828
12	0x3cefde9f	0.029280959
13	0x3ca76ada	0.020436693
14	0xbd3ae7be	-0.045631163
15	0xbd6173ef	-0.055042204

column1.6.weight f4 [32, 16, 7, 7]
0	0x3ca21ebd	0.019790048
1	0x3c95c4d6	0.018282335
2	0xbd0af70e	-0.033927016
3	0x3ced5c23	0.028974598
4	0xbcf31b2d	-0.029676044
5	0x3ca95e19	0.020674752
6	0xbce4e8c1	-0.027943017
7	0xbd066867	-0.03281441
8	0x3d059746	0.03261497
9	0xbbbb072f	-0.0057076435
10	0xbc8b1270	-0.016976565
11	0xbcea7527	-0.028620316
12	0xbb4408a1	-0.002991237
13	0x3cc595b5	0.024119237
14	0x3c66d82b	0.014089624
15	0xbc0ae585	-0.008477573
16	0x3cd26349	0.025682108
17	0xbad9750f	-0.0016590672
18	0xbc40b746	-0.011762446
19	0xbbab34e7	-0.0052248123
20	0x3b75ecab	0.0037525098
21	0xbcead01a	-0.028663684
22	0xbc132a10	-0.008982196
23	0xbca684ae	-0.020326938
24	0xbcb10646	-0.021609437
25	0x3ca4e593	0.020129
26	0xbc621250	-0.013798311
27	0x398a204e	0.0002634548
28	0x3cf71ce9	0.030165153
29	0xbcaae95e	-0.020863231
30	0xbc706ba1	-0.014674098
31	0xbc8d5366	-0.017251682
32	0xbcbae73e	-0.022815343
33	0x3c911b6b	0.01771327
34	0x3cb907bb	0.022586694
35	0xbcd4abc0	-0.025960803
36	0x3cb8bdaf	0.022551386
37	0xb91f1419	-0.00015170909
38	0xbbc512a4	-0.006014185
39	0x3b82578d	0.003977722
40	0xbbd638fc	-0.006537555
41	0x3a25fead	0.00063322
42	0xbcfd4856	-0.030918282
43	0xbbab8b10	-0.0052350834
44	0x3d02a4da	0.031895496
45	0x3c17c89a	0.009264136
46	0x3c4431bd	0.011974749
47	0x3cc87c7a	0.024473418
48	0xbce1b3ba	-0.02755152
49	0xbc21f5c9	-0.00988526
50	0x3cd0794f	0.02544847
51	0xbb7ac231	-0.003826272
52	0xbcb991bc	-0.0226525
53	0xbd098d83	-0.03358222
54	0x3cb09316	0.021554511
55	0x3a9ebab6	0.0012110088
56	0xbca7f735	-0.02050362
57	0x3cfa2339	0.030534374
58	0x3cb4d151	0.022072466
59	0xbca0f145	-0.019646296
60	0xbc14eb7f	-0.00908935
61	0x3cf653d8	0.030069277
62	0xbc17055b	-0.009217585
63	0x3ccbfb3d	0.024900073
64	0x3bf5af40	0.007497698
65	0x3c7ef60f	0.015561595
66	0x3cdc32b1	0.02687964
67	0xbcfb09e8	-0.030644372
68	0xbc26b256	-0.010174355
69	0xbc3b3348	-0.011425801
70	0x3cfe1ea2	0.031020466
71	0xbc1a6f11	-0.009425894
72	0xbc9ad1c4	-0.018898852
73	0xbbb15da8	-0.005412776
74	0xbd1bc516	-0.038029753
75	0xbcf65c9f	-0.030073462
76	0xbbe15789	-0.00687689
77	0x3c659427	0.014012373
78	0x3aeab36c	0.0017906255
79	0xbb73c610	-0.0037196912
80	0xbcb48800	-0.022037506
81	0xbcdd17db	-0.026988914
82	0xbc959a11	-0.018261941
83	0xbcd54e13	-0.026038205
84	0xbbf4d021	-0.0074711
85	0xbc096212	-0.008385198
86	0xbca77506	-0.020441543
87	0x3c36186a	0.011114219
88	0xbcffc821	-0.031223359
89	0xbc18a634	-0.00931697
90	0x3b695c07	0.003560783
91	0x3cddd8f6	0.027080994
92	0xbccdd076	-0.025123816
93	0xbc435663	-0.011922452
94	0xbd06caff	-0.032908436
95	0xbc828048	-0.01593031
96	0xba36f0bd	-0.0006978622
97	0x3bf138bb	0.007361499
98	0xbd0914ae	-0.033466987
99	0x3c40d18e	0.011768712
100	0xbcd9ce75	-0.026587704
101	0x3cd92d76	0.026510935
102	0xbb5de405	-0.0033857834
103	0xbcbe4043	-0.023224002
104	0xbabee8b7	-0.0014565204
105	0xbb040927	-0.0020147057
106	0x3cd422bd	0.02589547
107	0x3c1971d1	0.009365515
108	0xbd1b6fa0	-0.03794825
109	0xbcac0ef8	-0.021003231
110	0xbcbeef42	-0.023307446
111	0xbcab3a45	-0.020901809
112	0xbc7575e5	-0.0149817215
113	0x3c5adbc9	0.013358065
114	0x3cfdee7a	0.030997504
115	0xbb3b3e4b	-0.0028571065
116	0xbd074266	-0.033022307
117	0xbcbe7730	-0.023250192
118	0xbc2b9227	-0.010471857
119	0x3b412d34	0.0029476406
120	0x3b9d9eda	0.0048101963
121	0xbcda6e6a	-0.026663978
122	0xbcbb60c7	-0.022873295
123	0xbd0514c6	-0.032490514
124	0xbc7356ff	-0.014852284
125	0x3c8fc0fc	0.017548077
126	0x3c0630a2	0.008190306
127	0x3cb5abb4	0.022176601
128	0xbd1e2b76	-0.038615666
129	0x3ce926fa	0.028460968
130	0xbb04aaf6	-0.0020243502
131	0x3cb88260	0.022523105
132	0xbcd18ced	-0.025579894
133	0x3c9ce340	0.01915133
134	0xbc901395	-0.017587462
135	0x3ced1bab	0.028943857
136	0x3cd9cee3	0.02658791
137	0x3cb0c3ec	0.021577798
138	0x3cfe7f54	0.031066574
139	0x3cd6fdd0	0.026244074
140	0x3cabb32a	0.020959456
141	0xbb81fb36	-0.0039667143
142	0xbb82a6d1	-0.003987171
143	0xbd159884	-0.036522403
144	0x3ca0cda5	0.019629309
145	0x3cfa29f3	0.030537581
146	0xbcf34f8a	-0.029701013
147	0x3c6cdbff	0.014456748
148	0xbc6c1756	-0.014409861
149	0x3ca9afbb	0.020713678
150	0x3ce0b0cf	0.027428059
151	0x3b7ff0e8	0.0039053503
152	0xbc13e19f	-0.00902596
153	0x3c0bdadf	0.00853607
154	0x3cfdee8f	0.030997543
155	0x3cae748c	0.021295808
156	0xbc92f968	-0.017941192
157	0x3cdea968	0.027180389
158	0x3c803188	0.015648618
159	0xbce6c3d0	-0.028169543
160	0xbc59deea	-0.013297776
161	0xbceea5a2	-0.029131714
162	0xbbb104eb	-0.0054021976
163	0x3ce6849b	0.028139403
164	0xbcee115f	-0.029061018
165	0xbca61d69	-0.020277696
166	0xbcf17870	-0.029476374
167	0x3ce8f13b	0.02843534
168	0x3b53677c	0.0032257726
169	0x3ca474d3	0.020075237
170	0xbc7fd38b	-0.015614401
171	0x3c8b0170	0.016968459
172	0x3cb9c139	0.022675144
173	0xbc46c01d	-0.012130764
174	0xbcb0eb2e	-0.021596517
175	0x3cc9e73e	0.024646398
176	0xbd1236a1	-0.03569663
177	0x3c3d45f3	0.011552322
178	0x3cab43da	0.020906378
179	0xbccadd3e	-0.0247637
180	0x3b3e2243	0.002901212
181	0xbca33f8f	-0.019927768
182	0xbc158df5	-0.0091280835
183	0x3b854e37	0.004068162
184	0x3cb358ef	0.021892993
185	0xbca0bd1e	-0.019621428
186	0x3b5480bd	0.0032425367
187	0x3cf07e34	0.029357053
188	0x3d0520fd	0.032502163
189	0x3c82a2b9	0.015946733
190	0xbc2eea5b	-0.010675992
191	0xbbf379df	-0.0074302997
192	0x3bab51ee	0.0052282726
193	0xb8a806e6	-8.012149e-05
194	0xbcf43ee5	-0.029815147
195	0x39c2ee45	0.00037180088
196	0x3cf18767	0.02948351
197	0xbbb41909	-0.0054961485
198	0xbc96f871	-0.018429013
199	0xbc0ac450	-0.008469656
200	0xbc04f889	-0.008115896
201	0xbc14f93f	-0.009092628
202	0x3c959019	0.018257188
203	0x3cac4c9d	0.021032626
204	0xbbddded8	-0.00677095
205	0x3b032671	0.0020011927
206	0xbc13cbff	-0.009020804
207	0xbc1e0937	-0.009645752
208	0x3c65c127	0.014023102
209	0xbc9fa553	-0.019488012
210	0x3c9dfc54	0.019285358
211	0x3c019f29	0.007911482
212	0xbce654fc	-0.028116696
213	0xbbe5075d	-0.006989403
214	0xbca1eb84	-0.019765623
215	0x3c032f78	0.008006923
216	0x3c84266e	0.016131606
217	0xbd148a4c	-0.036264703
218	0x3c249203	0.0100445775
219	0x3cf95a2c	0.030438505
220	0xbd1469db	-0.036233764
221	0x3aa72811	0.001275303
222	0xbabcba88	-0.0014398852
223	0x3cf1d7a6	0.029521775
224	0xbaae1bce	-0.0013283433
225	0xbc80bc2d	-0.01571473
226	0x3c4dbe64	0.0125576
227	0x3b849001	0.004045487
228	0xbcec01b0	-0.028809398
229	0xbcf502c7	-0.02990855
230	0xbc5eaec8	-0.013591476
231	0x3cfee19e	0.031113442
232	0xbc03942f	-0.008030935
233	0x3c8df0ea	0.01732679
234	0xbbf1f703	-0.0073841824
235	0x3cf5fcb0	0.030027717
236	0xbc942c54	-0.018087544
237	0x3cbb592d	0.02286967
238	0xbb5d5bd1	-0.003377665
239	0x3cef611a	0.029221106
240	0x3cd07644	0.025447018
241	0x3cca6778	0.02470754
242	0xbcd5324d	-0.026024962
243	0xbd0020a1	-0.031281117
244	0x3bb5ddd4	0.0055501256
245	0x3ca7bede	0.020476755
246	0x3c494713	0.012285012
247	0x3c1e7082	0.009670379
248	0x3d03ee7b	0.032209855
249	0x3cf26e3a	0.029593576
250	0x3cf9d408	0.030496612
251	0xbc467dfc	-0.012114998
252	0x3c5a177f	0.013311266
253	0xbd06352b	-0.03276555
254	0x3c09fa62	0.008421512
255	0x3cddacdc	0.027059965

column1.6.bias f4 [32]
0	0xbc2ae49b	-0.01043048
1	0xbd29ef8c	-0.041488215
2	0x3c39278d	0.011300934
3	0x3b2de747	0.0026535557
4	0x3cb306fa	0.021853913
5	0xbcea438e	-0.028596666
6	0x3c98718e	0.018608835
7	0x3bdcd070	0.006738715
8	0xbd1312c6	-0.035906576
9	0x3cde7ea7	0.027160002
10	0xbd03492d	-0.032052208
11	0xbc6a0878	-0.014284246
12	0x3cf6dda3	0.030134981
13	0xbd1fa27a	-0.03897331
14	0x3c3c0cdc	0.011477675
15	0xbd12d460	-0.035847068
16	0xbca29d1b	-0.019850304
17	0xbd020bf2	-0.031749673
18	0xbcc73511	-0.024317296
19	0xb9209e99	-0.00015317871
20	0x3ce0e6e4	0.027453847
21	0xbcc5aba7	-0.024129702
22	0xbcda97d4	-0.026683725
23	0x3bc313df	0.0059532966
24	0x3bcb5244	0.006204875
25	0xbb59a798	-0.0033211466
26	0x3b9fae98	0.004873108
27	0x3c148cda	0.009066785
28	0xbc453f49	-0.012039014
29	0xbcb8e52d	-0.022570217
30	0xbc422527	-0.011849678
31	0x3c673ca3	0.014113578

column1.8.weight f4 [16, 32, 7, 7]
0	0x3c90e0ec	0.017685376
1	0x37d9def7	2.5972242e-05
2	0x3c07145c	0.0082446
3	0x3bb31bb3	0.0054659485
4	0x3b180e1b	0.0023201767
5	0xbc988568	-0.0186183
6	0x3b764acb	0.0037581201
7	0xbc48fea8	-0.012267746
8	0xbc647056	-0.013942799
9	0xbbca71ee	-0.0061781323
10	0x3bde0bfc	0.006776331
11	0x3caf2b6f	0.021383015
12	0x3c9d03dd	0.019166881
13	0xbbd9c5b3	-0.006645882
14	0x3cb1cb24	0.02170331
15	0xbc710ca9	-0.014712491
16	0x3c99d520	0.018778384
17	0x3c8508ee	0.01623961
18	0xbc99ea96	-0.018788617
19	0x3cb854eb	0.02250143
20	0xbb61ad24	-0.0034435475
21	0xbc0ee652	-0.008721905
22	0xbc462df4	-0.012095917
23	0x3cb404bd	0.021974916
24	0xbc88db75	-0.016706208
25	0xbc3ce495	-0.011529108
26	0xbb0f063c	-0.0021823784
27	0x3b7d1287	0.003861578
28	0x3c731707	0.014837033
29	0xbc401444	-0.011723582
30	0xbcb4fa1f	-0.022091923
31	0x3c191997	0.00934448
32	0xbc18df8d	-0.009330642
33	0x3c04c11a	0.00810268
34	0xbcc7aeb0	-0.02437529
35	0xbc4d3b1d	-0.012526301
36	0xbcc99f52	-0.024612103
37	0xbcdb7136	-0.026787382
38	0xbcb0cdd4	-0.021582521
39	0xbc9e92ac	-0.019357048
40	0xbc56ba23	-0.013105902
41	0xbae0afb9	-0.0017142213
42	0xbbfb97c1	-0.0076780026
43	0x3a8f011c	0.0010910365
44	0x3c929d8e	0.017897394
45	0x3cb056bf	0.021525739
46	0xbc3fdf6d	-0.011710984
47	0x3ca59cdb	0.020216396
48	0xbc614827	-0.013750113
49	0x3c0e0205	0.008667474
50	0xbbf9de61	-0.0076253866
51	0xbc5c092f	-0.013429924
52	0x3be86ee4	0.0070932973
53	0xbc14d3f6	-0.009083739
54	0x3ce3c60f	0.027804403
55	0xbc24a5fc	-0.010049339
56	0xbc0060eb	-0.007835607
57	0x3c254b72	0.010088788
58	0x3bd8abee	0.0066122925
59	0xbc475e66	-0.012168502
60	0x3cd9a263	0.02656669
61	0x3c208ba2	0.009798916
62	0x3cd4a59c	0.025957875
63	0xbc4ee7d5	-0.012628515
64	0xbbddbfda	-0.0067672553
65	0xbba79c4a	-0.0051150667
66	0xbc8bd858	-0.017070934
67	0x3c41944e	0.011815144
68	0x3bb1af76	0.005422528
69	0xbc928f57	-0.017890615
70	0xbbebb6d9	-0.007193428
71	0x3cfee3ba	0.031114448
72	0x3c4cea55	0.012507041
73	0xbc9cab20	-0.019124568
74	0xbc6ace5c	-0.0143314265
75	0x3c9090d5	0.017647186
76	0x3c182175	0.0092853205
77	0x3b16fccd	0.0023038865
78	0x3c5c8d05	0.013461356
79	0xbab3a294	-0.0013705068
80	0xbc167d42	-0.009185137
81	0x3c345161	0.01100573
82	0x3bbfa1d7	0.0058481502
83	0xbc80ca81	-0.015721561
84	0xbaf140a0	-0.00184061
85	0x3c4cc789	0.012498745
86	0x3bf7e6e2	0.007565365
87	0xbba72eed	-0.0051020295
88	0xbc859846	-0.016307961
89	0x3c7bcc90	0.015368596
90	0x3c4a675c	0.012353744
91	0xbac7045b	-0.0015183793
92	0xbbf94d7d	-0.0076081143
93	0x3bb4a79d	0.005513145
94	0x3b3c6c67	0.0028751136
95	0x3c3f4a33	0.011675405
96	0xbc8ad054	-0.016945042
97	0xbaab7998	-0.0013082502
98	0xbc412745	-0.011789148
99	0x3c8586d3	0.01629964
100	0xba9418a9	-0.0011298853
101	0xbc1e85d0	-0.009675458
102	0xbc0855d6	-0.008321246
103	0x3c8a7e47	0.016905917
104	0xbbd140a2	-0.0063858787
105	0xb98d4cfb	-0.0002695097
106	0xb95c407b	-0.00021004856
107	0xbc3393f3	-0.010960567
108	0x3c8992ee	0.016793694
109	0x3c341572	0.010991441
110	0x3cac1079	0.021003949
111	0x3c004dba	0.007831031
112	0xbc2270f7	-0.009914628
113	0x3c8837ed	0.01662823
114	0x3cb61c86	0.022230398
115	0xbcdb5ede	-0.026778635
116	0xbc9ff7e1	-0.019527378
117	0x3c9853b1	0.018594595
118	0xbc66ce03	-0.014087203
119	0x3c690849	0.014223167
120	0x3c4aa5f0	0.012368664
121	0x3c82bc52	0.015958939
122	0xbcd0d8b3	-0.025493955
123	0xbc37be5f	-0.011214822
124	0xbc918a84	-0.017766245
125	0x3cbaf94c	0.022823952
126	0xbc8571c5	-0.016289601
127	0x3aa500b7	0.0012588714
128	0xbc241ea1	-0.010017068
129	0x3ba3218d	0.004978365
130	0xbc8a46cd	-0.016879464
131	0x3bf7deeb	0.0075644157
132	0x3baa220b	0.0051920465
133	0xbcc1a344	-0.023637421
134	0xbcda6807	-0.026660932
135	0xbcd3fc2c	-0.02587708
136	0x3c435de6	0.011924243
137	0x3c022419	0.007943177
138	0x3bd8a00c	0.006610876
139	0x3c93e9f3	0.018055892
140	0xbb3541db	-0.002765766
141	0x3cb8f180	0.022576094
142	0x3ca25227	0.019814564
143	0x3b340494	0.002746855
144	0x3c5c0f1a	0.013431335
145	0xbca0a22d	-0.019608581
146	0x3cbe2bd7	0.023214264
147	0x3cc45ccf	0.023970036
148	0x3c5a8dee	0.013339503
149	0xbcc51e97	-0.024062438
150	0xbc5cd77e	-0.013479112
151	0x3c6db57d	0.014508602
152	0xbcb4730f	-0.02202752
153	0xbc40e301	-0.011772872
154	0xbbd5a5c0	-0.006520003
155	0x399a4005	0.00029420867
156	0xba8554e6	-0.0010172396
157	0xbc830ded	-0.015997851
158	0xbc1d326a	-0.009594539
159	0xbc74fd21	-0.014952929
160	0xbbe3ea39	-0.0069554118
161	0xbb80e610	-0.0039336756
162	0x3c75e45c	0.015008058
163	0xbc8393b5	-0.016061643
164	0x3bb7a55c	0.005604429
165	0xbbe367c1	-0.0069398587
166	0xbc5403ef	-0.012940391
167	0xbc313007	-0.010814673
168	0x3c198ec4	0.009372417
169	0xbab113ca	-0.0013509926
170	0xbcb27e24	-0.021788664
171	0xbc8a0cc3	-0.016851788
172	0xbcc38f18	-0.023871943
173	0xbc641c71	-0.013922797
174	0xbcb162c8	-0.021653548
175	0xbb401156	-0.0029307208
176	0xbc7972e3	-0.015225145
177	0x3b5acabc	0.0033385
178	0xbc0b48ab	-0.008501212
179	0x3ba4fec2	0.0050352523
180	0x3cac7abe	0.021054622
181	0xbcc543f2	-0.02408025
182	0xbc283504	-0.010266546
183	0x3c7441ed	0.014908296
184	0x3bda2b21	0.0066579734
185	0xbcc7e650	-0.024401814
186	0x3b646168	0.0034848098
187	0x3bdf9b14	0.0068239067
188	0xbc72d058	-0.014820181
189	0x3c89dfa1	0.016830267
190	0x3c59c599	0.01329174
191	0x3cbf4ae8	0.023351148
192	0xbbad80d5	-0.005294899
193	0x3b8bf52d	0.0042711706
194	0xbcbe9ecc	-0.02326908
195	0x3c8f7bc9	0.01751508
196	0x3ca6a5f4	0.020342804
197	0xbc874a3e	-0.016514894
198	0xbccfaa31	-0.025349708
199	0xbcdf31c0	-0.027245402
200	0x3cabd13a	0.02097379
201	0xbc1bc0e7	-0.009506441
202	0x3ca09d30	0.019606203
203	0xbb910cc0	-0.0044265687
204	0xbbe90e79	-0.007112321
205	0xbc0bee8e	-0.008540763
206	0xbbad1069	-0.0052814973
207	0xbcd9e387	-0.026597751
208	0xbc9477c8	-0.018123522
209	0xbbdbe8d9	-0.006711107
210	0xba9866fe	-0.0011627374
211	0xbcce3549	-0.025171893
212	0x3b800db5	0.003907884
213	0xbbdb276e	-0.00668805
214	0x3baaa61f	0.0052077915
215	0x3c04db64	0.008108947
216	0xbce52ae9	-0.027974563
217	0xbc0b69e9	-0.008509138
218	0xbc575769	-0.013143399
219	0xbc0ff197	-0.008785627
220	0xbc8e14d5	-0.017343918
221	0x3b978f2c	0.0046252217
222	0xbba86d6b	-0.0051399968
223	0x3c883e21	0.016631188
224	0xbc649026	-0.013950383
225	0x3c788194	0.015167613
226	0x3bf1fa78	0.0073845945
227	0xbc0bec58	-0.008540235
228	0xbab541ec	-0.001382885
229	0xbcc28163	-0.023743337
230	0x3c95571a	0.01823001
231	0xbcce9b13	-0.02522043
232	0xbcb660b4	-0.022262909
233	0xbc0b4bf2	-0.0085019935
234	0xbc8cba53	-0.01717869
235	0x3ca12c10	0.019674331
236	0xbc90c561	-0.017672243
237	0xbc4fc989	-0.012682327
238	0xbca94663	-0.020663446
239	0xbc03843e	-0.008027134
240	0x3c9f33cc	0.019433878
241	0x3c4ff64b	0.012692998
242	0xbc70450d	-0.0146649005
243	0xbc9fbbfa	-0.019498814
244	0x3b684522	0.0035441597
245	0x3cc42542	0.023943547
246	0xbc905ee3	-0.01762337
247	0x3b1bdd62	0.0023783077
248	0x3bb0c7bf	0.0053949053
249	0x3c2dde1a	0.010612035
250	0x3c96e23e	0.018418428
251	0xbc5da239	-0.013527446
252	0xbc805e7b	-0.015670052
253	0x3cee3f2d	0.029082859
254	0x3cdfded7	0.027327938
255	0x3caa590b	0.020794412

column1.8.bias f4 [16]
0	0x39c595ab	0.0003768628
1	0x3b520ba7	0.0032050402
2	0xbb2af8aa	-0.0026088157
3	0xbcb01b48	-0.021497384
4	0xbb045694	-0.0020193206
5	0xbcb6594c	-0.022259377
6	0xbbd08290	-0.0063632205
7	0xbc1278fe	-0.00893998
8	0x3c6f6aea	0.014612893
9	0xbad9edf3	-0.00166267
10	0x3b1f14b2	0.002427381
11	0xbc9d4900	-0.019199848
12	0x3b456f2f	0.0030126085
13	0xbc8a0543	-0.016848212
14	0xbc442dac	-0.01197378
15	0x3c1e45c3	0.009660187

column1.10.weight f4 [8, 16, 7, 7]
0	0xbc509496	-0.012730738
1	0x3c827fc5	0.015930066
2	0xbbdb19fe	-0.006686448
3	0xb88a3e75	-6.591986e-05
4	0xbb127abf	-0.0022350994
5	0xbc93b9ff	-0.018033026
6	0xbbc1bb0d	-0.005912191
7	0x3ba6bbf2	0.005088323
8	0x3ccfe390	0.025377065
9	0xbcfc466b	-0.030795297
10	0xbd109aea	-0.035303988
11	0xbca7b18a	-0.0204704
12	0x3c115f4c	0.008872818
13	0x3c7a12d9	0.015263283
14	0x3c9c2786	0.019061815
15	0xbb2029d4	-0.0024438994
16	0x3cb2f787	0.021846546
17	0x3c8f7695	0.017512599
18	0xbc687beb	-0.014189701
19	0x39d07ab5	0.00039764275
20	0x3cd49ad5	0.025952736
21	0x3c8fa98b	0.0175369
22	0x3b838200	0.0040133
23	0x3c3174cf	0.010831072
24	0xbb9e8e20	-0.00483872
25	0xbc8bb9cf	-0.017056374
26	0x3b95d244	0.0045721848
27	0xbc06e870	-0.008234128
28	0x3cffe97f	0.03123927
29	0xbb4b20ff	-0.003099501
30	0x3d018e9c	0.031630144
31	0xbbeb20a7	-0.0071755233
32	0xbb873f8f	-0.00412745
33	0xbc936409	-0.017992036
34	0x38fd46ee	0.00012077192
35	0x3cf43e1e	0.029814776
36	0x3ca6dbfe	0.020368572
37	0xbcad585c	-0.021160297
38	0xbcf59243	-0.02997697
39	0x3ce7bb76	0.02828763
40	0x3c11504b	0.008869241
41	0x3b4bb61c	0.0031083887
42	0xbc9be926	-0.019032072
43	0xbc13c55f	-0.009019225
44	0xbcc749a8	-0.024327114
45	0xbcdd30a2	-0.027000729
46	0x3d017374	0.031604245
47	0x3c60d8de	0.01372358
48	0xbca40be6	-0.020025205
49	0xbc842ae9	-0.016133742
50	0x3c718de8	0.014743306
51	0x3d249161	0.040177707
52	0x3aee8339	0.0018197066
53	0x3d1a03f1	0.037601415
54	0x3d1f461d	0.038885225
55	0xbc7ae0b0	-0.015312359
56	0x3cc74e51	0.024329336
57	0xbca5bc20	-0.020231307
58	0x3ca18c2c	0.01972016
59	0x3c798a88	0.015230782
60	0xbc2b55f5	-0.0104575055
61	0xbcbc7bd3	-0.023008263
62	0x3cfca438	0.030840024
63	0x3b1aed47	0.0023639963
64	0x3d21fdab	0.039548557
65	0x3cca3610	0.024683982
66	0x3cb08487	0.021547569
67	0x3c3f42d9	0.011673653
68	0xbbca5a13	-0.0061752885
69	0x3ba0ed7a	0.004911122
70	0xbb7aa6c2	-0.0038246368
71	0xbcd55967	-0.026043607
72	0x3c8b2cd7	0.016989155
73	0x3d0f6908	0.035012275
74	0x3c8e4767	0.017368032
75	0xbcaff6e9	-0.02148004
76	0x3c947258	0.01812093
77	0xbc98bdf8	-0.018645272
78	0xbc9a7943	-0.01885665
79	0xbc963a74	-0.01833842
80	0x3caf5998	0.021405026
81	0x3b30c655	0.0026973684
82	0x3ca10025	0.01965339
83	0x3c4df81d	0.012571362
84	0xbc4ef8dc	-0.012632575
85	0xbc9b6d16	-0.018972915
86	0x3d0912ad	0.033465076
87	0xbc9c19b3	-0.019055223
88	0x3ac3f74d	0.0014951021
89	0x3ccab2f1	0.024743529
90	0x3ccad791	0.024760993
91	0x3d088c14	0.033336714
92	0xbc76d566	-0.015065527
93	0x3d1a0bca	0.0376089
94	0xbc3a6b3e	-0.011378108
95	0x3c392fe1	0.011302919
96	0x3d0769da	0.033059932
97	0x3ceb4513	0.02871946
98	0x3c3ba4f8	0.011452906
99	0xbc2b2ff6	-0.0104484465
100	0xbd11c2c1	-0.035586122
101	0x3b385ac9	0.0028130284
102	0x3ac018fb	0.0014655882
103	0xbb8aee52	-0.004239836
104	0x3bc7c827	0.006096858
105	0x3c663410	0.014050499
106	0x3c26e721	0.010186941
107	0xbcd0f119	-0.02550559
108	0xbd058b95	-0.03260382
109	0x3cea5639	0.028605567
110	0x3c81d2b7	0.015847547
111	0xbcbfc586	-0.023409616
112	0xbc9763b8	-0.018480167
113	0xb9bdce3b	-0.00036202543
114	0xbcf50121	-0.029907765
115	0x3c2856ab	0.0102745695
116	0x3cfb2620	0.030657828
117	0xbcc9d2d4	-0.024636663
118	0xbc5f8c93	-0.013644355
119	0xbcdfd9fe	-0.027325626
120	0xbbd7bbd8	-0.006583672
121	0xbc9b0042	-0.018921021
122	0xbc81a49d	-0.015825564
123	0xbbea360f	-0.0071475576
124	0x3a853b2a	0.0010164727
125	0x3c62691c	0.013819005
126	0x3c3b1a99	0.011419916
127	0xbabc541c	-0.0014368328
128	0x3c07a6c4	0.008279506
129	0xbd20b5f8	-0.03923604
130	0x3cb459d0	0.022015482
131	0xbc8b3750	-0.016994148
132	0xbd0b192f	-0.033959564
133	0xbb24bb7b	-0.002513616
134	0x3cd2c0d3	0.025726711
135	0xbd0b745b	-0.034046512
136	0x3b97f036	0.0046367897
137	0x3c830541	0.015993716
138	0xbced9c24	-0.029005118
139	0xbb91776b	-0.0044392846
140	0xbc9c47bf	-0.01907718
141	0xbba66153	-0.00507752
142	0x3927690e	0.00015965497
143	0xbc7b7b30	-0.015349194
144	0x3cb44902	0.02200747
145	0x3c0320b6	0.008003404
146	0xbc2be45e	-0.010491459
147	0xbc7bae9f	-0.015361457
148	0xbcd79e13	-0.026320493
149	0x3ce8296b	0.028340062
150	0x3d0654be	0.03279566
151	0x3d28341e	0.041065328
152	0xbcbb88bc	-0.022892348
153	0x3ce1f6e2	0.027583543
154	0x3c4bc8f9	0.012438052
155	0x3ce6924c	0.028145932
156	0xbbaa8ed4	-0.0052050147
157	0x3c337610	0.010953441
158	0x3d1bcdba	0.038037993
159	0xbc328dcf	-0.010898068
160	0xbbe1e541	-0.0068937843
161	0xbc2dd19f	-0.01060906
162	0xbc44c98b	-0.012010942
163	0xbc94ad90	-0.018149167
164	0x3d062574	0.03275056
165	0xbbc7d713	-0.006098637
166	0xbcc81df1	-0.02442834
167	0xbcde4e78	-0.027137026
168	0x3d1a4f9e	0.037673585
169	0xbbd24151	-0.0064164777
170	0x3cde4603	0.027132994
171	0x3cb82b4b	0.022481581
172	0xbc725eb4	-0.014793087
173	0x3cc94f8a	0.02457406
174	0xbc322ce5	-0.0108749615
175	0x3d251b07	0.04030898
176	0x3d17ff6f	0.037108835
177	0x3d1fc45f	0.039005633
178	0x3c5eeae4	0.013605807
179	0xbcbce92a	-0.0230604
180	0xbc9d3791	-0.019191535
181	0x3cd80831	0.026371093
182	0x3d25d5dd	0.04048716
183	0x3d12af2d	0.035811592
184	0x3be15580	0.0068766475
185	0x3cd77211	0.026299508
186	0xbbca2a57	-0.006169598
187	0x3bcd82fc	0.006271718
188	0x3c1b1471	0.009465323
189	0x3cc379ea	0.023861844
190	0x37d9c038	2.5957925e-05
191	0xbcb42959	-0.021992372
192	0x3d1240e3	0.035706412
193	0x3b6ccc0f	0.003613237
194	0x3bc8f960	0.0061332434
195	0xbc85dcfb	-0.016340723
196	0xbc003606	-0.00782538
197	0xbc9e9c2f	-0.019361584
198	0xbc9e0714	-0.019290484
199	0xbce40de7	-0.02783866
200	0xbccc9c36	-0.02497683
201	0x3cce6814	0.025196113
202	0xbcf8d2e3	-0.030373996
203	0x3c98600b	0.018600484
204	0xbc2b40f7	-0.010452501
205	0x3c8af262	0.01696128
206	0xbb7859de	-0.0037895362
207	0xbc1e16a6	-0.0096489545
208	0xbd153634	-0.036428645
209	0x3cbecf36	0.023292165
210	0xbcf718a3	-0.030163115
211	0x39fb482d	0.00047928226
212	0xbd04fce8	-0.032467753
213	0xbcba0dd9	-0.022711681
214	0xbb0a987e	-0.0021148021
215	0xbd1625d9	-0.036657188
216	0x3c898d81	0.016791107
217	0xbbbf4f70	-0.005838327
218	0xbc467bcc	-0.012114476
219	0xbcf50c94	-0.029913224
220	0xbcd99956	-0.026562374
221	0x3ae6670d	0.0017578319
222	0x3cd5e52e	0.026110258
223	0xbcd98013	-0.026550328
224	0xbabd0b51	-0.0014422928
225	0xbbacb776	-0.0052708937
226	0xbbc8ad71	-0.0061241915
227	0xbc89e98b	-0.016834995
228	0xbd1db656	-0.038503967
229	0xbd0bc093	-0.0341192
230	0x3cbfb2d2	0.023400698
231	0x3cb8cf23	0.022559708
232	0x3cd9441e	0.026521739
233	0x3ba9a974	0.005177671
234	0x3ae0721c	0.0017123851
235	0x3b192b0a	0.00233716
236	0x3cfdebe9	0.03099628
237	0x3c6ac5cd	0.014329386
238	0x3c590dd7	0.013247929
239	0x3cbce511	0.023058446
240	0xbd19dc2e	-0.037563495
241	0x3cb79d8c	0.022413991
242	0xbd12ca3f	-0.03583741
243	0xbce2987b	-0.027660599
244	0x3c26c863	0.010179612
245	0xbc45b3c7	-0.012066788
246	0xbae2c4ac	-0.0017301044
247	0xbb69ad25	-0.003565618
248	0x3cbe87ca	0.023258109
249	0x3be6cf57	0.00704376
250	0xbc998c01	-0.018743517
251	0xbc5d9dd7	-0.0135264015
252	0x3d0aabb1	0.033855144
253	0x3d08b3a6	0.03337445
254	0x3c5e2517	0.013558648
255	0x3c3cd843	0.01152617

column1.10.bias f4 [8]
0	0xbcab0e0c	-0.020880722
1	0xbc870aa2	-0.016484562
2	0x3a9bde8e	0.0011891888
3	0xbc67fe13	-0.014159697
4	0x3d481c23	0.04885496
5	0xbcbd060b	-0.02307417
6	0x3d594c58	0.053051323
7	0xbc6728c9	-0.014108845

column2.0.weight f4 [10, 3, 7, 7]
0	0xbd3c5a58	-0.045984596
1	0x3d5a4446	0.053287767
2	0xbd9457e7	-0.072433285
3	0x3b3e55ff	0.0029042957
4	0x3d5a0595	0.05322798
5	0x3d2b58e7	0.04183283
6	0x3d5c9295	0.05385073
7	0x3d9a74c9	0.07541806
8	0x3bbd594c	0.0057784673
9	0xbdad4c57	-0.08461826
10	0x3d54f238	0.05198881
11	0x3c2748b3	0.010210204
12	0xbd610746	-0.054938577
13	0xbd226aaf	-0.039652523
14	0xbbdcf7ec	-0.006743422
15	0xbd1dcbb7	-0.038524356
16	0xbd894701	-0.06702996
17	0xbd5e431c	-0.05426322
18	0xbd9ff5b1	-0.07810534
19	0xbd4415a8	-0.047872216
20	0xbd81adb3	-0.063319586
21	0xbc8a1764	-0.016856857
22	0xbd977fbc	-0.0739741
23	0xbcb0fdd7	-0.021605415
24	0xbd9b9cb0	-0.07598245
25	0x3d6be91d	0.05759536
26	0xbd537171	-0.051621858
27	0xbd11ed18	-0.0356265
28	0xbaea5b22	-0.0017879943
29	0xbd32d91b	-0.04366408
30	0x3d60d461	0.05489004
31	0xba8a51f8	-0.0010552993
32	0x3d327a9e	0.043573968
33	0xbb47b0ed	-0.0030470446
34	0xbd4232cb	-0.04741172
35	0x3d82cb5c	0.06386444
36	0x3d39bfbd	0.04534887
37	0x3d568940	0.052376986
38	0x3b93b0d3	0.004507163
39	0xbd92312e	-0.071382865
40	0x3d52220f	0.051302012
41	0x3da182ce	0.07886277
42	0xbd3211f5	-0.043474156
43	0xbd859910	-0.06523335
44	0x3d0767d4	0.033058003
45	0xbcdae772	-0.02672169
46	0x3d82e604	0.06391528
47	0x3d902f2f	0.070402496
48	0xbcae1d5e	-0.021254238
49	0xbd3f9c2b	-0.046779793
50	0x3cab02ea	0.020875413
51	0xbc276991	-0.01021804
52	0xbc3012ec	-0.010746699
53	0xbd5c72c0	-0.05382037
54	0xbcc63f35	-0.024200061
55	0xbd9e5cf4	-0.07732573
56	0x3c2928ae	0.01032464
57	0xbbba817e	-0.005691706
58	0xbd864f2f	-0.06558072
59	0xbc079b06	-0.008276707
60	0xbd3c1bac	-0.045924827
61	0xbd89f204	-0.06735614
62	0xbbc5f7f6	-0.006041522
63	0x3d5b9a72	0.053614087
64	0xbd3a6659	-0.045507763
65	0x3c8c09a3	0.017094439
66	0xbcd3654c	-0.025805138
67	0x3d987f4c	0.07446155
68	0x3d8ca430	0.06867254
69	0xbd2a636f	-0.041598734
70	0x3c0191e8	0.007908322
71	0xbd46b4e6	-0.048512362
72	0x3d7fb7f1	0.06243128
73	0xbd008285	-0.031374473
74	0xbcd395d4	-0.02582828
75	0x3d869102	0.06570627
76	0xbd70880a	-0.058723487
77	0xbd0338e5	-0.03203668
78	0xbb2bac22	-0.0026195128
79	0x3d707be3	0.058711898
80	0x3d96528a	0.07339962
81	0x3d1362bd	0.035982836
82	0x3ce73e85	0.028228054
83	0xbdad9755	-0.0847613
84	0x3d8dcfa3	0.06924369
85	0x3d83e120	0.064394236
86	0xbd81ef58	-0.06344479
87	0xbd464c01	-0.048412327
88	0x3d9a21e0	0.075259924
89	0x3d9a49b5	0.0753359
90	0x3d8df96b	0.06932338
91	0x3d27640a	0.04086689
92	0x3cbed800	0.023296356
93	0x3d15722a	0.03648583
94	0xbd6f6ca7	-0.05845323
95	0xbd917854	-0.07103029
96	0xbd991704	-0.07475093
97	0x3d787c24	0.060665265
98	0x3d4d8bf0	0.050182283
99	0x3ce1b38c	0.027551435
100	0xbd1f19ee	-0.038843088
101	0x3d9296e0	0.07157683
102	0x3883331c	6.2560866e-05
103	0xbd0f1985	-0.034936447
104	0xbc8d8e33	-0.01727972
105	0xbd84086b	-0.06446918
106	0x3d9b2828	0.075760186
107	0xbd85b121	-0.06527925
108	0xbcd5e0ea	-0.026108224
109	0xbc855a11	-0.016278299
110	0x3caa3a85	0.020779857
111	0x3c2f3d3e	0.010695754
112	0xbd9dc332	-0.07703246
113	0xbce7a962	-0.02827901
114	0x3d960c2d	0.07326541
115	0x3c6799e3	0.014135811
116	0x3d13b16e	0.036057882
117	0x3bacf1db	0.005277855
118	0x3d3868d8	0.04502186
119	0xbd64938c	-0.055804774
120	0x3d88645e	0.066597685
121	0x3d1abb5f	0.037776347
122	0x3d05b9e2	0.032647975
123	0xbd8a0184	-0.0673857
124	0xbccc3ea8	-0.02493222
125	0xbd236115	-0.039887507
126	0x3d2eef03	0.042708408
127	0xbd9105aa	-0.070811585
128	0x3d94974e	0.072554216
129	0x3d855218	0.06509799
130	0x3d6c2748	0.05765465
131	0xba3f7545	-0.00073035463
132	0x3ca61c55	0.020277182
133	0x3d65552a	0.055989422
134	0x3ce30dd7	0.02771656
135	0x3b8e8311	0.0043491204
136	0xbd1ada39	-0.03780577
137	0x3d3c4707	0.045966174
138	0x3d8277b8	0.06370491
139	0x3d2df37c	0.042468533
140	0x3d58ed79	0.052960847
141	0x3d1f9faf	0.038970646
142	0xbd96a91f	-0.07356476
143	0x3d4642be	0.048403494
144	0x3d9e87b9	0.07740731
145	0x3c74e89f	0.014948039
146	0x3d6d9d4a	0.05801133
147	0xbd613c37	-0.054989066
148	0x3ca76074	0.020431735
149	0xbc1c6774	-0.0095461495
150	0x3d3c95f5	0.046041448
151	0x3d4ec116	0.05047711
152	0x3d2b48a3	0.04181732
153	0xbd3d180a	-0.046165504
154	0x3d9179a4	0.07103279
155	0xbc85de4a	-0.016341347
156	0x3c8dfe54	0.017333187
157	0x3c5921cc	0.013252687
158	0xbd47cde9	-0.048780356
159	0x3c9ff541	0.019526126
160	0x3c73dfc9	0.0148848975
161	0x3d31dc23	0.04342283
162	0x3d65f255	0.05613931
163	0x3d0b9e33	0.034086417
164	0x3caf2b23	0.021382874
165	0x3d8dd46e	0.06925283
166	0x3caa8f7a	0.020820368
167	0xbd214c53	-0.03937943
168	0xba8e8393	-0.0010872952
169	0x3d9098a1	0.07060362
170	0xba89c6c9	-0.0010511513
171	0x3d1f0489	0.038822684
172	0x3d75f528	0.060048252
173	0x3c586671	0.013208018
174	0xbd883b7e	-0.06651972
175	0x3c5be578	0.013421409
176	0xbdad4973	-0.08461275
177	0xbcb6f291	-0.022332462
178	0xbd3ae551	-0.04562885
179	0x3d0b2e33	0.033979606
180	0xbd85ac66	-0.06527023
181	0x3d9b3dde	0.075801596
182	0x3d6eb11e	0.05827438
183	0xbd108c4c	-0.035290048
184	0x3d39597f	0.045251366
185	0x3d425716	0.047446333
186	0x3d6fd4e1	0.058552627
187	0xbd9b350e	-0.07578479
188	0xbd543c8d	-0.05181556
189	0xbcf4246d	-0.029802525
190	0xbd5b8b0a	-0.053599395
191	0xbbef6754	-0.007306019
192	0xbdad2f94	-0.084563404
193	0x3d301b51	0.0429948
194	0x3d72ecc6	0.059307836
195	0x3b61e86d	0.0034470812
196	0xbd7ba2ed	-0.061434675
197	0xbc90de0c	-0.017684005
198	0xbd00bf2c	-0.031432316
199	0x3d0ff799	0.035148237
200	0xbd5273ad	-0.05137985
201	0x3da036c8	0.07822949
202	0x3b99a495	0.004688809
203	0xbd644094	-0.05572565
204	0x3cb5477d	0.022128815
205	0x3d2b153d	0.0417683
206	0xbd606f36	-0.05479356
207	0xbc3313a9	-0.01092998
208	0xbd4a0b69	-0.049327288
209	0x3ce116ec	0.02747675
210	0x3d99a87a	0.075028375
211	0x3d9cc06c	0.07653889
212	0x3d0f3ac0	0.034968138
213	0x3d9c71ee	0.07638918
214	0x3c92695a	0.017872501
215	0xbd43af66	-0.047774695
216	0xbd668e15	-0.056287844
217	0x3d420c4a	0.047375
218	0xbd959ba3	-0.07305076
219	0xbc23d3bb	-0.009999211
220	0xbd778475	-0.060429055
221	0x3d4ae5f8	0.04953572
222	0x3d5f6322	0.0545379
223	0xbd035aa1	-0.032068852
224	0x3d96eaba	0.07368989
225	0x3d8213e4	0.0635145
226	0x3c89fbfd	0.01684379
227	0x3d0bf737	0.03417131
228	0x3d32dc3d	0.043667067
229	0xbd181ecc	-0.037138745
230	0xbda14228	-0.078739464
231	0x3d9daad8	0.076986015
232	0xbcce152f	-0.025156585
233	0x3c7d7b6d	0.0154713215
234	0xbd50b70f	-0.05095583
235	0x3d013a5d	0.0315498
236	0x3c93c6a0	0.018039048
237	0xbd274079	-0.04083297
238	0xbd1b8d5d	-0.03797661
239	0xbd899dc6	-0.06719546
240	0x3cd43fcc	0.025909327
241	0x3d318144	0.043336168
242	0x3d9a1375	0.075232424
243	0xbda8c7a3	-0.08241203
244	0x3d8ed3be	0.0697398
245	0x3d98b77f	0.07456874
246	0x3d166df1	0.036725942
247	0xbd891f17	-0.06695383
248	0x3d08a400	0.033359528
249	0xbdaef8d3	-0.08543553
250	0xbc0da858	-0.008646093
251	0xbda0cc45	-0.07851461
252	0xbc3f093f	-0.011659919
253	0x3c3cecf6	0.011531105
254	0x3d2ce1da	0.042207576
255	0x3d8a5851	0.06755126

column2.0.bias f4 [10]
0	0x3d3f81f0	0.046754777
1	0xbd5b3297	-0.053515043
2	0xbc83e693	-0.016101157
3	0x3d2bbbb9	0.041927073
4	0xbd306fca	-0.04307536
5	0x3d7d0e19	0.061781023
6	0xbd72be1d	-0.059263337
7	0x3a8c0f02	0.0010685625
8	0xbd5fe449	-0.05466107
9	0xbcd1b06f	-0.025596825
